model_smri_pre_20_ep_2022-10-27T14:32:29.760700/best_metric.pth (torch, 561209 bytes, 32 tensors)

cnn.conv_layer.0.conv.weight f4 [8, 1, 2, 2, 2]
00000000: 3864 fb3d f745 063c 15a6 923d b710 a93e
00000010: 686f ac3e 2eeb 8fbe 8f48 5b3d 63dd 333e
00000020: 4931 b3bd 996a 91be 0bb5 023e 1aba 3d3e
00000030: 7e5a 703e 6b80 df3c b125 9ebe 69c1 58bd
00000040: b1cb 8ebe 687a 4fbe ab8d 043c 064c 33be
00000050: d1f3 62bd 73f0 5ebe d5c9 833e 678f 903e
00000060: 1e75 753e 8f89 05be ee61 413e 437c 423e
00000070: 7d39 f5bd bee2 aa3e 8c08 42be f8b6 373e
00000080: dd4d 963d 645c 683e 8497 9fbe a298 2b3e
00000090: c693 063b a332 3bbd 76c0 88be 8175 a1be
000000a0: 5754 913e b959 a5be 5c24 ae3e 8343 ccbd
000000b0: e9c0 3f3e 2da8 b33e 80e8 753e f578 2dbd
000000c0: 9b02 8d3d 9594 6ebc 7025 a13e ea24 7e3e
000000d0: e51c adbe 7a96 633e b48f 08bd f6f0 403e
000000e0: 41f2 17bd 4967 8abe 2a79 733e a555 22bd
000000f0: 283f 723e d037 673b d1d3 283d 1e7b b9bd
0.122749746 0.008195392 0.07160584 0.33020565 0.33678746 -0.28109115 0.053535994 0.17564921
-0.08749635 -0.2840164 0.12764375 0.18528023 0.2347202 0.027282914 -0.3088813 -0.052918825
-0.2788978 -0.20261538 0.008090417 -0.1750947 -0.055408303 -0.21771412 0.25739923 0.28234407
0.23970458 -0.13040756 0.18885013 0.18992715 -0.11973856 0.33376116 -0.18948573 0.17940891
0.0733907 0.22691494 -0.31170285 0.16757444 0.0020534857 -0.045702588 -0.26709336 -0.3153496
0.2838466 -0.32295015 0.34012115 -0.09973814 0.18725933 0.35089245 0.24014473 -0.04235168
0.068852626 -0.014561792 0.31473875 0.24818769 -0.33811107 0.22225371 -0.03334017 0.1884192
-0.037096266 -0.27031925 0.23776689 -0.03963246 0.23656905 0.003528107 0.04121763 -0.09056686

cnn.conv_layer.0.conv.bias f4 [8]
00000000: eec9 b1be 72b8 00be a52d 9f3e 9982 a6bd
00000010: 499c fb3b c092 a1be d024 3ebe 7101 a9be
-0.34724373 -0.1257036 0.31089512 -0.08130378 0.0076785428 -0.31557274 -0.1856873 -0.33008912

cnn.conv_layer.0.adn.N.weight f4 [8]
00000000: d01a 803f 4c0e 803f 19d8 7f3f 3902 803f
00000010: 33fa 7f3f e701 803f 9ddb 7f3f 21f5 7f3f
1.0008183 1.0004363 0.99939114 1.0000678 0.9999115 1.000058 0.9994448 0.9998341

cnn.conv_layer.0.adn.N.bias f4 [8]
00000000: 6fdc 8439 f3ea 3db9 c99b 2aba fdf4 a8b9
00000010: 80eb 4dba c584 a4b9 2ac4 19ba ca57 85b9
0.00025341238 -0.0001811197 -0.0006508199 -0.00032225988 -0.00078552216 -0.0003137944 -0.00058657175 -0.00025433145

cnn.conv_layer.0.adn.N.running_mean f4 [8]
00000000: 465f aabe 4d72 f6bd 947a 983e b0cd 9fbd
00000010: c3fc f53b 66df 9abe f145 36be f7d6 a1be
-0.33275813 -0.1203352 0.2978102 -0.07802904 0.007506938 -0.30248564 -0.17800118 -0.31609318

cnn.conv_layer.0.adn.N.running_var f4 [8]
00000000: 90ff f83e 136d 933d 3b60 523e b015 b93e
00000010: 43aa 773e 3be0 253f 61ca b83e 3132 903d
0.4863248 0.07198539 0.20544522 0.3614936 0.24186043 0.64795274 0.36091903 0.07040823

cnn.conv_layer.1.conv.weight f4 [16, 8, 2, 2, 2]
00000000: 12c1 e43d 2082 a8bd 8be8 8f3d 13df 12bd
00000010: 6a44 673d 7d3b 2c3c 29d9 723d 6671 fbbd
00000020: 3435 573d 19b0 2cbc 7217 9abc b647 323d
00000030: 1f70 01bd 2e2e 4abd de20 f7bd 0d5a b33d
00000040: e32e 113d 9492 92bd 9f14 33bc bea6 a2bc
00000050: 9b91 61bd 52af d9bd 00ea 48bd eef0 a73b
00000060: 4786 d1b9 4790 163d 561b 523c 08f1 e7bd
00000070: 4e43 f7bb 98d6 943d 4ef0 65bc 0443 edbd
00000080: 634e c0bd c4ce ec3c 2309 c4bc 023f 05bd
00000090: 4bcd 07bd aeb7 d3bd 0eab fa3d 8f7f f2bc
000000a0: 6893 cf3b dd64 6c3d 6ac3 4e3d 0413 d03d
000000b0: a702 1dbd 6d38 bd3d 25e5 44bd 0d66 383d
000000c0: 7ae6 db3d a33d e5bd 60cd 693d 7e02 f13c
000000d0: 80dc b8bd 6626 883b 75d4 88bd 9e90 76bb
000000e0: 08fe f03d 3dc7 b7bd da70 aa3c af36 243d
000000f0: 0174 b63d dbd6 893d 8edc fdbd d72b e43d
00000100: 568c 5bbd 1680 f93d 8337 a23c 354e e43d
00000110: 73c7 21bd b30d 69bd 8434 5b3d feee 54bd
00000120: c33b 99bd dfc4 863d 145a 253d 6a27 b0bc
00000130: a7aa c33d ee23 d4bd 1521 a4bd 060b 33bd
00000140: 3c5e 88bc dcb7 ab3d 2dbf 23bd 7eab 57bc
00000150: f2da 01bc e132 d33d f90a 6d3d d760 c43d
00000160: fd14 dc3d 9856 c63d 788e e3bd c535 93bd
00000170: 7a42 79bd cc84 aa3d cd8d babd e690 d83d
00000180: 58e1 c53c 3935 ecbd fb06 01bd c09d a0bc
00000190: 3e69 423c dc72 70bd b5ee f8bd ce23 dfbd
000001a0: b24b bd3c 3a1a b4bd ff15 acbd ece5 793d
000001b0: 200e 053d ccde 0abd 9887 913c d3c8 173d
000001c0: 5c51 193b 1203 dfbd 6a6b 973a 4745 f2bb
000001d0: 5456 153d 4cae 29bd dc17 b93d db15 a7bb
000001e0: 7a54 a8bd b4eb c13b 7f7a 68bd 547b f4bd
000001f0: 58d7 d33d 03b9 ee3d 8bb7 a8b9 8543 c5bc
00000200: c302 acbd d8db eb3d f021 003e 8710 ee3d
00000210: 616c ed3c 9d9e b13d f10f dcbd a6e8 993d
00000220: 336d bd3d 41c4 8b3d 71e9 843d 386c fd3d
00000230: ea0f f3bd 4735 fcbc 40ab 33bd e088 86bd
00000240: b848 2abd 1928 9d3d e7b0 6ebb f78a 8b3d
00000250: bc1f d43d b37a bd3d 5da9 98bd e8a3 5dbc
00000260: 16c6 813d e62d c43d 7532 463d 42bb 993d
00000270: 2bbb 11bd 6431 29bd e5f1 bfbd 1b44 60bd
00000280: d331 46bd c63a e7bc f7e9 713d 9afa 3c3d
00000290: f2dc d23d fc50 82bb 171b aeb8 957c d6bd
000002a0: 5a52 e1bd c90f 0a3d 90a2 91bd 4c06 1f3d
000002b0: 1d3e 0dbd 86e8 743c de5d a23d 68da d539
000002c0: 82c2 90bd e44f 52bd 1a9d 263c ea11 203d
000002d0: 6e2a bd3d 83ac 42bc 258d 7bbc cbd2 dcbc
000002e0: 497e 513d 54da d9bd 13e4 00bd 3bdd d8bd
000002f0: 3695 adbd 9571 f63d 6766 483d a3a7 813d
00000300: 4f6a 353d 1f81 a83c b386 88bd 0ae6 943d
00000310: 885b febc da24 f3bd addc 4f3d 02e2 9dbc
00000320: 7ae4 cc3d c6e3 3f3c 0238 bb3c ade2 dcbd
00000330: daed bf3d dd16 7c3d 54c8 33bd bd4b e3bb
00000340: b436 fd3d 6ffc d23d d8b7 5f3d 8a40 b73d
00000350: 3b41 a43c 90fd 58bb 78cb 863d ad2a d8bd
00000360: dd0d 20bc 7250 9cbd ccb1 943d d1f3 8bbc
00000370: da71 edbd 8c46 e93b 8f0b 85bc ce41 cbbc
00000380: 2754 97bd d928 f6bb c01f b0bd 079d dc3d
00000390: 6488 1ebd 3050 853d 4b40 da3d 003e bd3d
000003a0: 33f9 0b3c 4c66 0a3d 531d ba3d 0ab1 fdb9
000003b0: aaf2 f8bc d7ca da3d 250f 2cbb 9817 b23d
000003c0: 55ff 8c3d 35c0 f73d f97b 6abc da07 e4bc
000003d0: f679 b3bd f0cc f9bd 6146 833c e3cb 6dbd
000003e0: ecdf c6bc 0d28 443a 53c4 b33c b652 cc3d
000003f0: f804 953c cea9 5dbd 89d2 403d 02af bfbd
0.11169638 -0.082279444 0.07026776 -0.03585727 0.05646173 0.01051223 0.05928913 -0.122774884
0.052540973 -0.010540032 -0.018810008 0.04352542 -0.031601068 -0.049360447 -0.12066816 0.0875741
0.035445105 -0.07156864 -0.010930209 -0.0198549 -0.0550705 -0.10629143 -0.049051285 0.0051251566
-0.0003996363 0.036758687 0.0128239 -0.1132527 -0.007545865 0.07267493 -0.014034344 -0.11585048
-0.09389951 0.028907187 -0.023930138 -0.032530792 -0.033154767 -0.103377685 0.12239657 -0.02960184
0.006334711 0.05771338 0.05047933 0.10159877 -0.038332608 0.09239278 -0.04807009 0.0450192
0.10737319 -0.11193397 0.057080626 0.029420134 -0.09026432 0.004154968 -0.06681148 -0.003762282
0.117672026 -0.089735486 0.020805765 0.040091213 0.08908845 0.067304336 -0.12395583 0.11141174
-0.05360063 0.121826336 0.01980186 0.11147729 -0.03949685 -0.05689783 0.05351688 -0.051985733
-0.07482102 0.06580519 0.04036911 -0.02150317 0.09554034 -0.103584155 -0.080141224 -0.043711685
-0.016646497 0.08384678 -0.03997724 -0.0131634455 -0.007925736 0.10312439 0.057871792 0.09588783
0.10746191 0.09684485 -0.11111158 -0.0718799 -0.060854413 0.0832611 -0.091090776 0.10574512
0.024155304 -0.11533589 -0.031500798 -0.019606471 0.011865912 -0.05870329 -0.12154905 -0.10895501
0.023107383 -0.08794065 -0.08402633 0.061010286 0.032484174 -0.033903882 0.017764851 0.037056755
0.0023394441 -0.108892575 0.0011552398 -0.0073935124 0.036459282 -0.041425988 0.09037754 -0.005099041
-0.082192376 0.0059179906 -0.056757446 -0.119375855 0.10343808 0.11656382 -0.00032180207 -0.024080047
-0.08398964 0.11516541 0.12512946 0.11624246 0.028982343 0.08672831 -0.10745228 0.07515077
0.09249344 0.06824542 0.06489838 0.12374157 -0.1186827 -0.030787123 -0.04386449 -0.065690756
-0.041573256 0.07673664 -0.003642136 0.06813615 0.10357615 0.09251919 -0.074541785 -0.013527848
0.0633661 0.09579067 0.048387963 0.0750642 -0.035578888 -0.04130687 -0.093723096 -0.05475245
-0.04838736 -0.028226268 0.059061017 0.04613743 0.10296048 -0.0039769392 -8.3020124e-05 -0.10472981
-0.110020354 0.03370646 -0.071110845 0.038824365 -0.034483064 0.014948016 0.0792806 0.0004078925
-0.070683494 -0.05134572 0.010169292 0.039079584 0.092366084 -0.01188195 -0.015353476 -0.026955983
0.051145826 -0.10637346 -0.03146751 -0.10589071 -0.08475725 0.12033383 0.048925783 0.06330802
0.044290837 0.020569382 -0.06666317 0.07270439 -0.031049505 -0.11872263 0.050747562 -0.019272808
0.10004516 0.01171202 0.022853855 -0.107854225 0.093715385 0.06154524 -0.04389222 -0.006936519
0.123639494 0.10302054 0.054618686 0.08947857 0.020050636 -0.003311012 0.06581777 -0.10555015
-0.00976893 -0.07632531 0.072604746 -0.017084034 -0.11593981 0.0071190055 -0.016240863 -0.024811652
-0.07389098 -0.0075121936 -0.08599806 0.10772138 -0.03870429 0.06509435 0.10656794 0.09240341
0.0085433 0.033788964 0.090876244 -0.00048387825 -0.030389149 0.1068322 -0.0026254144 0.086959064
0.06884638 0.120972075 -0.014311784 -0.027835775 -0.087634966 -0.12197292 0.01602477 -0.05805577
-0.024276696 0.00074827747 0.0219442 0.09976713 0.018190846 -0.054117016 0.047075782 -0.09359552

cnn.conv_layer.1.conv.bias f4 [16]
00000000: b776 d8bb 2c88 bf3d ac3f 533c 84c9 adbc
00000010: d022 57bc c10d ca3d 44f7 e93d 9117 173d
00000020: 8390 ebbc 560a 9a3d 3ea7 d3bc 19fe ca3d
00000030: de3c c83c 3ebe 503c 9f77 913d b41e b2bc
-0.006605949 0.093521446 0.0128935985 -0.021214254 -0.013130859 0.098659046 0.11424115 0.03688771
-0.028755432 0.07521503 -0.025836583 0.099117465 0.024443086 0.01274067 0.07102894 -0.021743156

cnn.conv_layer.1.adn.N.weight f4 [16]
00000000: 4a1b 803f 9adc 7f3f 0d1f 803f 6bdf 7f3f
00000010: 6bee 7f3f 7117 803f c2d5 7f3f 0d00 803f
00000020: 140d 803f 7ad3 7f3f 3fcc 7f3f 2ffb 7f3f
00000030: 4f16 803f 24e9 7f3f bfce 7f3f 1dcc 7f3f
1.0008328 0.99945986 1.0009476 0.99950284 0.9997317 1.0007154 0.99935544 1.0000015
1.0003991 0.9993206 0.9992103 0.9999265 1.0006808 0.9996512 0.99924845 0.9992083

cnn.conv_layer.1.adn.N.bias f4 [16]
00000000: 9fcf 043a 8907 043a b833 4e3a a586 32ba
00000010: f118 35ba b040 9cb9 7122 c739 4480 fe38
00000020: febb ce37 9bc6 51ba e6e1 36ba 56cc ad39
00000030: a434 1f3a 4b91 35ba 5353 89ba 4623 46b8
0.00050663383 0.0005036523 0.0007865983 -0.0006810225 -0.00069083186 -0.00029802835 0.000379819 0.00012135555
2.4644654e-05 -0.0008002312 -0.00069764105 0.00033149373 0.0006073213 -0.00069262524 -0.0010477103 -4.723973e-05

cnn.conv_layer.1.adn.N.running_mean f4 [16]
00000000: 3743 97bc ebd5 73bd ca91 a73e 102d 9f3e
00000010: 3fed bbbe d5cf 1abd 161c afbe 54c0 39bf
00000020: 333a a83e 54d5 b33e 830c 843e c66b 69be
00000030: aec4 743d 6002 c8be 15c0 10bc 3d68 7fbe
-0.018464668 -0.05953018 0.32728416 0.31089067 -0.36704442 -0.03779586 -0.34201115 -0.72559094
0.32856902 0.35123694 0.25790796 -0.22795019 0.05975788 -0.39064312 -0.008834858 -0.24942107

cnn.conv_layer.1.adn.N.running_var f4 [16]
00000000: 02ca 4b3e 25e4 d03d c98d f33d 00ae ff3d
00000010: ca50 533e 1f4c cf3d fd4a ee3d 48bf 903e
00000020: 1314 173e 7dfc 5e3e 2629 313e 591e 183e
00000030: ae86 033e 1765 823e 075d e53d 91d6 743e
0.19901279 0.10199765 0.11892278 0.1248436 0.20636287 0.10121941 0.11635397 0.28270936
0.14753751 0.21776004 0.17300853 0.14855327 0.12844345 0.2546775 0.11199384 0.23909976

cnn.conv_layer.2.conv.weight f4 [32, 16, 2, 2, 2]
00000000: 6eb0 a9bd 1d7e 493d 7340 5b3c 11d2 19bd
00000010: adae 6e3d 4261 81bc 680d 7bbd 0914 a5bd
00000020: 7951 cbbc 2e2d 9a3d 7664 e7bc 866b 49bd
00000030: a512 95bd 55c9 863d d148 92bd 7251 113d
00000040: cf2e 9abd 783d 503d 460c 993d dc29 06bc
00000050: 61af d1bc c62c 8dbd bda7 a3bb f04e 0c3d
00000060: 5099 18bc bf94 9fbd 5a17 1b3d cfee 83bd
00000070: 313e 14bd d569 62bd cc80 35bc 5691 623d
00000080: 7729 9d3d 9f6b 9bbd 3a50 78bd affb b0bc
00000090: 1c41 ac3d 9478 3e3d d1db 9e3d 28f7 853c
000000a0: 27d4 9ebd e5e3 99bd cfc8 d4bc b9a1 a7bd
000000b0: b611 a63d f623 223d a696 b23d 3d21 3d3d
000000c0: ea69 bb3c 817d 1bbd 47c7 46bd dfe3 8abd
000000d0: be5b 89bd ebf4 b0bd a90f 183c d87b 8bbd
000000e0: fa16 72bd 0ab0 00bd 9849 8b3d bd0d 6b3d
000000f0: b3d8 2f3c a4eb 0bbd 72a0 403d 3b8c d4bc
00000100: 5d58 adbb 2c2e a73d 108e 96bd e07c 8cbd
00000110: cab4 9b3d 43e2 0f3b a5ac b6bc 3724 02bd
00000120: 411e 3b3d 6abc aa3d e912 2a3d 54bb 92ba
00000130: 4820 7c3d 45e2 5b3d 6e52 06bd a7ba 9b3d
00000140: 7808 a2bd f1ef 8dbd 1ab1 7ebd 087a 87bd
00000150: 2a01 6f3d 5551 063d ade3 883d a2dd 023d
00000160: a988 19bd 25c1 1fbd 15ee 5a3d fed6 863d
00000170: 0f3b c43c dcc2 41bd 92d0 693d 12dd d63c
00000180: 9408 303c d84d 32bd c353 71bd cfb5 1abd
00000190: a37a 89bd 130c 85bd 0ab5 9c3b 340a 90bd
000001a0: 083b 9d3d 42df a83d 2251 a3bc 25d4 e43c
000001b0: b701 cdbc 2cba 393d 9f12 9dbd 8440 acbd
000001c0: cc32 edbb 8ea9 9e3d c4fc 71bd 634f 0b3d
000001d0: cabf b2bd 6aac 673d 07f0 69bd 6d89 0d3d
000001e0: 19df ad3d e50f 1ebc 268b af3d 4365 203c
000001f0: 1af3 63bc 90f5 4d3d b9c3 98bd 58a5 ad3d
00000200: d09e 69bc 717a e1bc 1fd1 f83c 574c 9dbc
00000210: e933 5a3d e86a 693d 6580 323d 74a2 83bd
00000220: 4a7a 84bd 0e37 973d 8fe3 04bd 1d79 77bd
00000230: 4aaf ca3c c455 013d 0375 393d a9be 96bd
00000240: a520 93bd 7f8a 5b3d b6ee 8ebc 1521 b7bc
00000250: c826 9fbd fd7d 91bd 129e 623d 2461 9e3d
00000260: 2f0d ccbc 2f93 2ebd 6805 81bd 2ab3 56bd
00000270: ec1c 653d 2902 54bc 25de eb3b 263d 9bbc
00000280: 314e b8bc bc46 0a3c 02d7 583d a926 3a3d
00000290: 232b 863d 6ed8 02bb 0e10 b2b9 3f75 6c3d
000002a0: 2f47 ad3d e3c4 153d 85b8 0ebd 760a 193c
000002b0: 3b37 c5bc d609 773d 0386 423d 0767 403d
000002c0: d897 833d faba a33d fd7b dcbc 0c24 dc3c
000002d0: f214 51bc 74c4 183d c5e9 76bd 36c9 553d
000002e0: 5fa3 ab3d 9ea7 19bd 00b8 5a3d 5577 b33d
000002f0: 0174 9d3d 9a61 a73b 957c 403c f021 f6bc
00000300: 605f ae3b 2ee2 ff39 b66a 25bc 84c9 733d
00000310: 073e 7fbd 6c2c a93d 1856 653d cbcd b53c
00000320: c9d1 bf3c 5fb0 823d eaf7 daba 8285 9dbd
00000330: d6e1 cdbc fd52 a43d 0d1b 6fbc 9c35 b13c
00000340: c33f d73c 0a4e b2bd dbcd 5a3d 3ff3 b7bc
00000350: 79b9 b6bd 2ff7 5f3d 1294 acbd bfc1 80bc
00000360: 217b fa3c 216b aebd 15cf 9a3d b6fb 68bc
00000370: 6245 5b3d 359b f4bc 1882 73bd b710 2e3d
00000380: f27c 6f3c 091d a6bd 3b1d 60bd 2c92 9ebc
00000390: 1760 543d b3be 62bd 041c a43b 98d8 97bd
000003a0: 1bcd bf3b de0d 31bd 2d8e 1b3d a621 6fbc
000003b0: 4883 80bd cf46 803c f4a6 383d bebe 623d
000003c0: 293c b3bb 0766 643a 0cba 9cbd 22fd 39bc
000003d0: 75d2 c53c 5e16 8c3d 7e1f c4bc 801b 4e3d
000003e0: 0130 9a3d f6df 62bc 1847 96bd f63a a7bd
000003f0: 7c87 a5bc 2d32 55bc f666 9a3d c8dc 49bd
-0.082856044 0.049192537 0.013382065 -0.03755385 0.058272053 -0.015793446 -0.061292082 -0.08060462
-0.024819123 0.075281486 -0.028246146 -0.049174808 -0.07278947 0.0658137 -0.07142795 0.035478063
-0.07528459 0.05083987 0.07473044 -0.008188691 -0.025596322 -0.068933055 -0.004994361 0.03425497
-0.009313896 -0.07792043 0.037864067 -0.064420335 -0.036192123 -0.05527671 -0.011078071 0.055314384
0.076739244 -0.075888865 -0.060623385 -0.021604387 0.08410856 0.04650171 0.077567704 0.016353205
-0.077553086 -0.075141706 -0.02597466 -0.08185143 0.08108847 0.039585076 0.0872014 0.046174277
0.022877652 -0.037961487 -0.04852989 -0.06781744 -0.067069516 -0.086404644 0.009281077 -0.06810731
-0.059103943 -0.031417884 0.06801146 0.05738615 0.010732817 -0.03416027 0.047028013 -0.025945773
-0.0052900747 0.081631035 -0.07351315 -0.068597555 0.07602842 0.002195493 -0.02229912 -0.03177282
0.04568315 0.083367184 0.04152194 -0.0011194744 0.061554223 0.053682584 -0.032793455 0.076039605
-0.079117715 -0.06930531 -0.062180616 -0.066150725 0.05835072 0.032792408 0.06684051 0.031949647
-0.037483845 -0.039002556 0.05344971 0.06583975 0.023953943 -0.047304973 0.057083674 0.026228461
0.010744233 -0.04353127 -0.058917772 -0.037771042 -0.06712844 -0.064964436 0.0047823237 -0.07033196
0.07677275 0.08245708 -0.019936148 0.02793319 -0.025025232 0.045343563 -0.07669567 -0.08410743
-0.0072387215 0.07747184 -0.059078947 0.034011256 -0.08727987 0.05656091 -0.057113674 0.034554888
0.08489818 -0.009647344 0.08571462 0.009789768 -0.01391294 0.050283015 -0.07459206 0.084788024
-0.014259055 -0.027524205 0.030373154 -0.01920144 0.05327216 0.05698672 0.043579478 -0.0642747
-0.06468637 0.07383548 -0.03244358 -0.060418237 0.024741787 0.031575933 0.045277607 -0.07360584
-0.07183961 0.053598877 -0.01744781 -0.022354642 -0.07771069 -0.071041085 0.05532653 0.07733372
-0.02490863 -0.042620834 -0.06299859 -0.052416958 0.055935785 -0.012939968 0.0071981126 -0.018950056
-0.022498222 0.008439716 0.052939422 0.045447025 0.065511964 -0.0019965428 -0.00033962767 0.057729002
0.08460843 0.03656472 -0.03484394 0.009340873 -0.024074188 0.060312115 0.047491085 0.046973255
0.06425446 0.07994647 -0.026914591 0.026872657 -0.012761341 0.037296727 -0.060281534 0.052193843
0.0838077 -0.037513368 0.053398132 0.08762995 0.076881416 0.0051080706 0.011748453 -0.03004548
0.005321428 0.00048805907 -0.010096243 0.059518352 -0.062315013 0.08260426 0.05599031 0.022192856
0.023415463 0.06381296 -0.0016705964 -0.0769148 -0.025132101 0.08023641 -0.014593852 0.021632008
0.026275521 -0.08706291 0.053418975 -0.022454856 -0.08922095 0.054679092 -0.0842668 -0.015717385
0.03057629 -0.08516527 0.07559029 -0.014220169 0.053532965 -0.029859165 -0.05945024 0.04249641
0.014617192 -0.08111007 -0.054715376 -0.01935681 0.05184945 -0.055357646 0.0050082225 -0.07414359
0.005853308 -0.043226115 0.037977386 -0.014595425 -0.0627504 0.015658764 0.045081094 0.055357687
-0.005469818 0.0008712713 -0.07652673 -0.0113518555 0.024148205 0.06840204 -0.023940798 0.050319195
0.07528687 -0.013847342 -0.07337779 -0.08165543 -0.020206206 -0.013012451 0.075391695 -0.04928282

cnn.conv_layer.2.conv.bias f4 [32]
00000000: 3f8b 8f3d aa21 aabd 0e3a 9dbd 652b 7d3d
00000010: 817d 2bbd 5066 133c b25d 283d 8049 a6bc
00000020: 0078 703d 8b71 8b3b b771 953d 03f0 a23c
00000030: 8e42 6fbd 29fa 28bd 675b a83d 738d 583c
00000040: bdd4 103d bb3b 22bd 3e29 6e3d 2900 4fbc
00000050: d6fa 1a3b 19ab 853d e92b aebc 787d fcbc
00000060: d48d 7dbd f5eb 8bbd d97d 65bd 81ea b33d
00000070: f213 713b 11fb 35bd 2846 98bd 3407 8dbd
0.07008981 -0.08307202 -0.07677089 0.061808962 -0.041867737 0.008996561 0.04110498 -0.02029872
0.05870819 0.0042554787 0.0729708 0.019889837 -0.05841308 -0.041254196 0.082205586 0.013217318
0.035359133 -0.039607745 0.0581448 -0.0126343155 0.0023648045 0.06526775 -0.021261172 -0.030821547
-0.061902836 -0.068321146 -0.05602822 0.087849624 0.003678557 -0.04442889 -0.07435256 -0.068861395

cnn.conv_layer.2.adn.N.weight f4 [32]
00000000: c70c 803f bf20 803f 3acc 7f3f 94bc 7f3f
00000010: 98e9 7f3f 54fe 7f3f 8320 803f fac8 7f3f
00000020: e71f 803f 91e2 7f3f 46c4 7f3f 2e06 803f
00000030: c109 803f 8a22 803f b31a 803f 5ae8 7f3f
00000040: 0920 803f cfc7 7f3f fabc 7f3f 0ec1 7f3f
00000050: 9904 803f 691a 803f a6cc 7f3f 1c16 803f
00000060: 77c8 7f3f 4a07 803f 79d7 7f3f 151c 803f
00000070: 50e8 7f3f f422 803f 1403 803f 6813 803f
1.0003899 1.0009993 0.99921 0.9989712 0.9996581 0.9999745 1.0009922 0.9991604
1.0009736 0.9995509 0.99908864 1.0001886 1.0002977 1.001054 1.0008148 0.99963915
1.0009776 0.9991426 0.9989773 0.99903953 1.0001403 1.000806 0.99921644 1.0006747
0.9991526 1.0002224 0.9993816 1.000857 0.99963856 1.0010667 1.0000939 1.0005922

cnn.conv_layer.2.adn.N.bias f4 [32]
00000000: db33 3e3a d584 823a 6dda 5aba 467b 6cba
00000010: 531e a9b9 1c0d 7eba 1b47 623a 9c2e 1cba
00000020: 4be9 c4b9 d557 5d3a 3204 003a 0cdb ddb9
00000030: dd80 bdb9 468e 933a 128b 733a 201b 8437
00000040: fb2c 773a 1cd6 5eba 10de 72ba cbfa f7b9
00000050: 274a aab8 08ae 5e3a 81df 3eb9 1fe2 8e3a
00000060: 84db 11ba 1892 7fb9 9aa0 64ba 8121 23ba
00000070: 4f09 8cba 90e6 243a 016b 7239 8b74 663a
0.0007255652 0.00099578 -0.0008348588 -0.0009021055 -0.00032256785 -0.00096912845 0.00086318114 -0.0005957873
-0.0003755785 0.0008443569 0.00048834377 -0.00042315607 -0.000361449 0.0011257611 0.00092904374 1.5748257e-05
0.0009429005 -0.0008500533 -0.0009264657 -0.00047298367 -8.120044e-05 0.00084945606 -0.00018203074 0.001090113
-0.00055640214 -0.00024373119 -0.0008721441 -0.0006222949 -0.0010683927 0.000629046 0.0002311878 0.000879117

cnn.conv_layer.2.adn.N.running_mean f4 [32]
00000000: baeb 53be c898 a33d 642d 9c3e f5b4 3b3f
00000010: 6cdd 103f f585 943f e2e0 42be 47f9 f4be
00000020: dcb0 983e 8688 84bd 7f32 b93e a8c0 a63c
00000030: 710a 163e a365 45be fc07 043e d610 8abc
00000040: 5f3e 87be 20fb 61bf 3f89 8ebd 8703 183f
00000050: 6090 babe 9468 22bf e4f5 70be 9ddf 2cbe
00000060: 0e26 293f 4084 07bf ee97 193f 2cfe 323d
00000070: 5f0b b5bd 72f6 2dbe da31 41be f625 30be
-0.20695391 0.07988125 0.3050338 0.73322994 0.5658786 1.160338 -0.19031098 -0.47846434
0.29822433 -0.06471352 0.36171338 0.020355538 0.1465242 -0.19277053 0.12893671 -0.016853731
-0.26414773 -0.8827381 -0.06959771 0.5938038 -0.36438274 -0.63440824 -0.235313 -0.16882177
0.6607369 -0.5293617 0.5999745 0.04369943 -0.088400595 -0.16988543 -0.18866673 -0.17201981

cnn.conv_layer.2.adn.N.running_var f4 [32]
00000000: 7393 4f3e f237 343e 0d6c 803e 91ef c73e
00000010: 6b66 ec3e 04f8 623f 3677 303e e084 493e
00000020: 2fcf 433e 6dd6 733e 7929 5c3e b220 1d3e
00000030: 1e58 0e3e 8675 093e 7aa5 433e 825f 8f3e
00000040: 681f 4b3e 35ff 273f 127e da3e f049 9a3e
00000050: 2f3f 353e 4941 133f aa58 163e 53a5 143e
00000060: 8775 d93e 1a9e f33e 2e18 7f3e f97e 7e3e
00000070: 8831 273e 55b9 8f3e cd40 1b3e b6f9 363e
0.20271091 0.17599466 0.25082436 0.39049962 0.4617189 0.8865969 0.17232975 0.19679594
0.19122003 0.23812266 0.21500196 0.15344504 0.13900802 0.13423738 0.19106093 0.28002554
0.198362 0.6562379 0.4267431 0.30134535 0.17699884 0.5752149 0.1468226 0.14516191
0.4247248 0.4758156 0.24911568 0.24853124 0.16327488 0.28071085 0.15161438 0.17868695

cnn.conv_layer.3.conv.weight f4 [64, 32, 2, 2, 2]
00000000: 7d31 523c 2d0a 7b3d 75d4 343d 37e6 edbc
00000010: f676 07bc d751 063d b4cf 48bd 7d88 463c
00000020: 5cdf 313d cb7f 45bd 662c 4abd e14b 25bd
00000030: b370 483d 48eb 0d3d 0ee7 73bd f60e 4d3d
00000040: ce48 2e3d 9216 e1bc d34e 4fbd 7ad3 4e3d
00000050: 658e 18bd 4e3c 34bd ec90 debc 0ee7 7ebd
00000060: 9646 b3bc 3c6b 4e3d 8d5e a2bc a83b ed3a
00000070: e762 53bd a971 12bc 49d1 2dbc 63b0 b1ba
00000080: dd82 ee3b 98de cbbc c096 73bd 7998 70bd
00000090: 98ee bfbc 75b8 4ebd 1685 763d 2ddb dcbc
000000a0: 93aa 22bc 9e2d 2bbd 1276 44bd fb3f 56bd
000000b0: fb5a c7bb 1cd4 75bd a94b 16bd 7e20 0d3b
000000c0: a8bf 5fbd 6840 3ebd 2ce7 3e3d 1935 8f3c
000000d0: 702f 1f3d b57a 393c b0ad 1fbc 6942 47bc
000000e0: a1c5 d83c 6aef ddbc a430 223c 1e33 733d
000000f0: 5eab 953c d295 e2bc a36d 89bc 79a5 9ebc
00000100: 4335 1d3d 6274 cb3c b502 753d 2884 073d
00000110: 8ad2 763c b403 eb3c 6adc b53c f4bf 6d3d
00000120: a7d6 3abc 5d1e 653d 7099 ecba 07ce 0f3d
00000130: d179 a7bc 0d0a dc3c 8f02 703d 44fe ecbc
00000140: 32f2 543d 1f39 533c e299 4d3c d57c e2bc
00000150: ada0 86bc a47b 1cbd d595 b03c 4385 b13c
00000160: a442 4bbd edd9 8dbc 326e b9bc 6cd1 6b3c
00000170: 7270 01bd 8c9a cebb e7c3 5fbd 6d49 80bd
00000180: e1d8 f73c 3d4e acbb db7b 573d 2803 ff3c
00000190: 3975 1ebd 06d3 ccbb 5baf fb3c 0a99 15bd
000001a0: 1ba0 20bd 8331 54bd a270 753d f70b 7fbd
000001b0: 31b2 01bd 8837 a53c 38b0 133d da2c 7dbd
000001c0: 2125 6b3d bb96 be3c af57 153d b9d3 21bd
000001d0: 76f6 df3c 6e84 d1bc 888c 543d 47fa 80bd
000001e0: efdd b5ba b2fe abbc a161 74bd 02f2 b7bc
000001f0: adc2 163d 51d4 19bd ace0 2f3d 32ca d1bc
00000200: bb91 4cbc b47f 74bd c5c2 1cbd d291 9cbc
00000210: eb93 3b3c 65a4 77bd 50f1 423d b5b8 a63c
00000220: c023 8b39 6903 71bd c75c d23c 9bcb bdbc
00000230: fe94 2cbd eebd ac3c ef6a 563d 33f0 093d
00000240: d10f b7bc 6948 3e3d f1a4 4abd ce39 e83c
00000250: cca6 283c 74e9 97bc f1d5 393d 9294 613c
00000260: 7f19 f83c f1ce 72bd 89ee 3a3d 1df6 0d3c
00000270: cfca 82bb a3de 80bd bfb9 203c 3b35 fc3c
00000280: 44a5 063c 43f0 6fbd 10a2 613d e0c0 753d
00000290: 1b32 f83b e7d5 68bc 7dd9 933a dbb4 db3c
000002a0: aa5d 223d 5396 253c 4e6a ba3c 93f5 54bd
000002b0: f907 27bd 6d48 85bc e244 06bd 6c98 ddbc
000002c0: 7897 38bd ba6c 473d 2264 363d e50e 9c3c
000002d0: 1bde 78bd d029 6b3b 4eaa dabb c898 163d
000002e0: 9b42 6ebc 684d 5e3c 33b8 9dbb efba 6e3d
000002f0: 1161 3c3d e256 38bd 8d57 113c d231 6d3c
00000300: 4140 373d 7f5d 263b f8ef 7bbd 27f6 8d3c
00000310: 7d7a 12bd 740e aa3c 4f38 10bd 6e01 773d
00000320: 974e 213d 0138 a33c 6e1e 9ebc b59a 2cba
00000330: 83b2 d23b 4e7c 283d 5ffb 593d 7606 f5bc
00000340: 2475 06bd 4426 acbc 11e5 1a3d d7bc d03c
00000350: eef3 2a3d dd28 bbbc 2c3e 8cbc 03ed 653c
00000360: db68 803d ab05 57bd 21b6 19bc 0d4c a6bc
00000370: bc42 68bc 50d0 91bc 0a8e c13c baf6 29bd
00000380: ab61 173d 57a8 313d 1cd2 7fbd be1f 72bd
00000390: e998 313c 3474 3cbd cac8 2a3d 5a31 80bd
000003a0: 2940 5ebd 52f5 2cbd 1908 8f3c 391d 2fbd
000003b0: c30d 1f3d fe80 9fbc d2cb 78bd ede8 673d
000003c0: 9e7e 753b 6cb2 b03c a27e b2bc 2a1a 1ebb
000003d0: c81f 593c ef7f 323d bbc7 f0bc 8fbd 36bd
000003e0: 84f4 c83c cf62 383d 1d14 0dbc 183a bfbc
000003f0: 8007 b13b ab03 dcbc a331 573d f2cf 01bd
0.012829182 0.061289 0.044147927 -0.029040439 -0.008268109 0.032792892 -0.049026206 0.012117502
0.043425903 -0.048217576 -0.049358748 -0.040355567 0.048935603 0.03464821 -0.059546523 0.050063096
0.0425499 -0.027476583 -0.050612282 0.05049465 -0.037245173 -0.044002824 -0.027168714 -0.06223207
-0.021884244 0.050395235 -0.019820476 0.0018099444 -0.051607993 -0.0089382315 -0.0106089795 -0.0013556596
0.0072787837 -0.024886414 -0.05946994 -0.05873916 -0.0234292 -0.05046888 0.060185514 -0.02695998
-0.009928363 -0.04179155 -0.047964163 -0.05230711 -0.0060838438 -0.060016736 -0.03669325 0.002153426
-0.054626137 -0.04644814 0.04660718 0.017481374 0.0388636 0.01132076 -0.009746 -0.0121618295
0.026461424 -0.0270917 0.009899292 0.05937492 0.01827019 -0.02765933 -0.016775912 -0.019366013
0.038380872 0.02483577 0.059817035 0.03308502 0.015064845 0.02868829 0.022199828 0.05804439
-0.011403716 0.05593716 -0.0018051099 0.035108592 -0.020443829 0.026860261 0.05859619 -0.028929837
0.051988788 0.012892037 0.012548896 -0.027647415 -0.016434038 -0.03820385 0.02155582 0.02166999
-0.0496241 -0.01731583 -0.022635553 0.014393192 -0.031601377 -0.0063050445 -0.054630186 -0.06264005
0.030254783 -0.00525835 0.052608352 0.031129435 -0.03868601 -0.006250742 0.030723264 -0.036522903
-0.03921519 -0.05180503 0.05992187 -0.06226727 -0.031664077 0.02016808 0.036056727 -0.061810352
0.057408456 0.023265233 0.036460575 -0.039508555 0.027339201 -0.025575843 0.051891834 -0.062977366
-0.0013875345 -0.020995472 -0.05966342 -0.022454266 0.03680675 -0.037555996 0.042938873 -0.02560911
-0.012485917 -0.0596921 -0.038271684 -0.019112501 0.011448841 -0.060459513 0.047593415 0.020351747
0.00026538782 -0.058841143 0.025679005 -0.023168376 -0.042134278 0.02108666 0.052348074 0.033676337
-0.022346409 0.046455774 -0.049473707 0.028347876 0.010293674 -0.018543936 0.045370046 0.013768332
0.030285595 -0.059279386 0.04563764 0.008664635 -0.003991462 -0.062924646 0.00980991 0.030787101
0.008218113 -0.05857874 0.055086195 0.059998393 0.0075743324 -0.014211155 0.0011280027 0.026819637
0.039640106 0.010106641 0.022755768 -0.05199201 -0.040779088 -0.016269887 -0.032780536 -0.02705022
-0.045066327 0.048687674 0.044529088 0.019050071 -0.06075869 0.0035883076 -0.006673134 0.036766797
-0.014542247 0.01356826 -0.004813218 0.058283743 0.045991007 -0.045004733 0.008870971 0.01447721
0.04473901 0.0025385318 -0.06150815 0.017329289 -0.035761345 0.020758845 -0.03520995 0.060304098
0.03938159 0.019924166 -0.01930162 -0.00065843324 0.0064299717 0.04113417 0.05321824 -0.029910307
-0.032826558 -0.02101434 0.03781611 0.02548067 0.041736536 -0.022846634 -0.01711949 0.014033559
0.062699996 -0.05249564 -0.009381802 -0.020299936 -0.014176067 -0.017799526 0.0236273 -0.041495062
0.036958378 0.043373432 -0.062456235 -0.059112303 0.010839679 -0.046009257 0.041695394 -0.06259413
-0.054260407 -0.042226143 0.017459916 -0.04275248 0.038831484 -0.019470688 -0.060741253 0.05661862
0.0037459503 0.021569453 -0.021788899 -0.0024124482 0.013252206 0.04357904 -0.029392114 -0.04461437
0.024530657 0.045016106 -0.008610752 -0.023343131 0.0054025054 -0.026857218 0.05253757 -0.031692453

cnn.conv_layer.3.conv.bias f4 [64]
00000000: 6415 723c 84f8 e03c a6b7 c33b 7d97 72bd
00000010: 8529 ba3c 44ab 47bd 6181 7a3d 34b9 ae3c
00000020: 7971 713c 005f 9a3b 0e38 b03a 3f6e 40bc
00000030: 2628 633d 5450 76bd 8db6 75bc 8b7e bc3c
00000040: 1b7d db3c 1c1f 2a3d 1f23 a9bc 8496 6d3d
00000050: de2a c63b 2126 27bd 9ba6 413d bf24 b7bc
00000060: 74b0 b33c 67e2 2cbd 4948 e9bc 4aba 2d3d
00000070: 0ee6 083d 4ee3 aebc 4b67 d4bb 9587 d1bc
00000080: c00c a33c b42a 80bc ce12 61bd b2c5 203d
00000090: 1911 6fbd e288 7cbd b6e5 50bb 1cae 0f3d
000000a0: 8d10 07bd 2542 663b 2752 54bd 4cbb d2bb
000000b0: df58 263d 612d f33c 96d9 46bd de16 053d
000000c0: f9f4 de3c bfa0 4ebb 3529 503c 8adb 39bc
000000d0: ca0a e8bc d08a 01bd ca83 7a3a ac2c 663d
000000e0: d6f7 143c eb2d 313d b742 a8bc 0b3b bc3c
000000f0: 66e4 583d 844f 683d d820 d13b e831 7ebd
0.014775608 0.027462251 0.0059728203 -0.0592265 0.022724876 -0.048747316 0.06115854 0.021328546
0.014736527 0.004711032 0.001344444 -0.011745035 0.05545821 -0.0601352 -0.014997137 0.02300956
0.026793053 0.041533574 -0.02064663 0.05800487 0.0060475906 -0.040807847 0.047278028 -0.02235639
0.021934725 -0.0422081 -0.028476851 0.042413987 0.033422522 -0.021348622 -0.00648204 -0.025577346
0.01990354 -0.015645362 -0.054949574 0.039251037 -0.058365915 -0.06165398 -0.00318752 0.035078153
-0.03297477 0.003513464 -0.05183616 -0.006431019 0.040612098 0.029684724 -0.04854735 0.03249251
0.027216421 -0.0031528918 0.012705137 -0.011343846 -0.028325457 -0.031626523 0.0009556381 0.056194946
0.009092292 0.04325668 -0.020539625 0.022977373 0.052952193 0.056716457 0.006382089 -0.062059313

cnn.conv_layer.3.adn.N.weight f4 [64]
00000000: 42bf 7f3f 851a 803f e023 803f c3d2 7f3f
00000010: 501c 803f fb22 803f 73d2 7f3f df1e 803f
00000020: 70b9 7f3f 4a03 803f 4f16 803f 90c6 7f3f
00000030: c0cd 7f3f 7bc8 7f3f 94d9 7f3f 39dc 7f3f
00000040: 4acb 7f3f 3a18 803f e5bf 7f3f 38c9 7f3f
00000050: fe14 803f 31be 7f3f 7601 803f 5620 803f
00000060: 0423 803f a40c 803f d71d 803f 33e7 7f3f
00000070: 5de6 7f3f c0cd 7f3f a0c2 7f3f 5e0a 803f
00000080: cccf 7f3f d720 803f d70f 803f 9bba 7f3f
00000090: 9b21 803f 0521 803f 2ed7 7f3f 19e1 7f3f
000000a0: 8bc1 7f3f 1c1d 803f 0ce4 7f3f f9d1 7f3f
000000b0: e3c9 7f3f 8bd0 7f3f 32cd 7f3f 7e1b 803f
000000c0: 1ec7 7f3f 9720 803f 43d7 7f3f b2d2 7f3f
000000d0: f2ce 7f3f 2a17 803f 9c19 803f dbc4 7f3f
000000e0: 16ea 7f3f b1c7 7f3f e812 803f 8dc2 7f3f
000000f0: fc1b 803f 9821 803f fd20 803f fb15 803f
0.9990121 1.0008093 1.0010948 0.9993097 1.000864 1.0010675 0.99930495 1.0009421
0.9989233 1.0001004 1.0006808 0.9991236 0.99923325 0.99915284 0.9994137 0.9994541
0.9991957 1.0007393 0.9990218 0.9991641 1.0006406 0.99899584 1.0000446 1.0009868
1.0010686 1.0003858 1.0009106 0.99962157 0.9996088 0.99923325 0.9990635 1.0003164
0.9992645 1.0010022 1.0004834 0.9989411 1.0010256 1.0010077 0.99937713 0.99952847
0.999047 1.0008883 0.99957347 0.9992977 0.9991743 0.99927586 0.9992248 1.000839
0.99913204 1.0009946 0.9993784 0.9993087 0.9992515 1.0007069 1.0007815 0.9990975
0.9996656 0.9991408 1.000577 0.99906236 1.000854 1.0010252 1.0010067 1.0006708

cnn.conv_layer.3.adn.N.bias f4 [64]
00000000: 4046 82ba 417f 773a 6d33 8e3a 7a7f 80ba
00000010: 827c 733a e20b 8c3a 32a0 0fba 8f5d 803a
00000020: 3daa 8bba 934d cd39 d3ce 6c3a 3fd2 81ba
00000030: cac0 5fba aab5 6aba 4497 00ba 1389 3fba
00000040: 6492 44ba 5607 d339 cd50 87ba a831 64ba
00000050: ac78 9439 c0a3 8aba 6cc0 05ba f059 793a
00000060: 796a 863a 032a 093a 4cdb 603a b9a5 fab9
00000070: f069 38ba b11e 3bba baaf 6bba 82ea dd39
00000080: 4fbd bb39 d141 793a 97f9 0e39 e79b 89ba
00000090: d699 873a 8e8f cfb8 da91 6eba 9de5 3bba
000000a0: 731d 89ba 54a2 6a3a b430 0fba ec99 53ba
000000b0: e61d 72ba 1419 35ba 68d8 643a 7d72 423a
000000c0: e792 4dba b152 9739 aa20 74ba d124 3dba
000000d0: 59e1 5fba a862 263a 63a2 713a 5541 6138
000000e0: df7b 0a38 3113 72ba b4f7 9039 535f 58ba
000000f0: d500 803a b61d 863a ef41 813a 524f ef39
-0.0009939149 0.00094412646 0.0010849066 -0.0009803616 0.00092882675 0.0010684694 -0.0005478888 0.0009793508
-0.0010655593 0.00039158444 0.0009033505 -0.0009904577 -0.0008535503 -0.00089534617 -0.0004905353 -0.00073064974
-0.00074986205 0.00040250522 -0.0010323763 -0.0008704909 0.00028318667 -0.0010577366 -0.00051022205 0.0009511998
0.001025512 0.00052323955 0.00085775997 -0.0004780719 -0.0007034829 -0.0007138057 -0.0008990724 0.00042327127
0.00035808465 0.00095084036 0.00013635155 -0.0010498733 0.0010345529 -9.897268e-05 -0.0009100713 -0.0007167699
-0.0010461047 0.00089505804 -0.00054622744 -0.00080719474 -0.00092360226 -0.0006908339 0.0008729757 0.0007417573
-0.00078420195 0.00028862574 -0.00093127287 -0.0007215264 -0.00085403543 0.00063470984 0.0009217618 5.3705025e-05
3.3017128e-05 -0.0009234427 0.00027650374 -0.00082539505 0.0009765873 0.0010232243 0.0009861569 0.0004564473

cnn.conv_layer.3.adn.N.running_mean f4 [64]
00000000: 88d1 8dbe 55d7 8bbe 3bf7 0dbe c656 a6be
00000010: 46f0 7d3d ef84 d9be 5821 25be 4890 9abd
00000020: 202d aebd 9968 a83e b918 b7be aa35 b53d
00000030: 6717 2e3e 76f9 8b3e 5ed8 043c f4b3 f2be
00000040: 4ebf 6ebd 94c1 613e 32b2 75be fce0 0a3e
00000050: e2d2 93bc 6ef4 a73d 36a6 26bd c2d3 a5bd
00000060: 5ff0 b03e acbf e43e d543 a13e 2d97 0ebe
00000070: 10c0 aa3e 1945 96bd 85f2 ae3e da1a 1fbd
00000080: a200 7fbe 8956 e2bd cca5 f0be ca07 e23e
00000090: 65c5 24bf cda9 fc3d 1210 14bf d195 7d3d
000000a0: 54d1 a5be 014a c6be 7e03 b23d 6753 283e
000000b0: 2d36 dfbd bb0d 1ebd 6c66 a5be 4613 8e3e
000000c0: eaf6 a33d 18d3 32be 17cf 9a3e e9e6 37bf
000000d0: 9157 75be 6dd9 9cbe 6626 543c 270f 39be
000000e0: c79d b6bd 4ba8 d5bd 516c 50be 44e3 e6be
000000f0: 5210 aebe 72b4 63be 9010 aa3e c4f9 2f3e
-0.27698922 -0.27312723 -0.13863842 -0.32488078 0.06199672 -0.42484233 -0.16126001 -0.07547051
-0.08504701 0.32892302 -0.3576105 0.08848126 0.17001115 0.2733876 0.008108227 -0.47402918
-0.05828791 0.220465 -0.23993757 0.13562387 -0.018044893 0.08200918 -0.040685855 -0.0809703
0.3455839 0.44677484 0.31497064 -0.13924856 0.33349657 -0.07337398 0.34169403 -0.038843967
-0.24902585 -0.110516615 -0.47001493 0.44146568 -0.643637 0.123370744 -0.5783702 0.061910454
-0.32386267 -0.38728335 0.08692072 0.16438065 -0.10899005 -0.038587313 -0.32304704 0.2774908
0.080060795 -0.17463338 0.30236122 -0.71836716 -0.23959185 -0.30634633 0.012948608 -0.18072186
-0.089168124 -0.1043249 -0.2035382 -0.45095265 -0.33996826 -0.22236803 0.3321576 0.17185122

cnn.conv_layer.3.adn.N.running_var f4 [64]
00000000: 76ec 6e3e 9bc2 4b3e cfe4 103e eea7 373e
00000010: f41b 643e 769d d13e 2cb4 223e 8b9b 5d3e
00000020: cc67 213e b437 5b3e a735 963e 1ced 603e
00000030: 0d9e 483e ad76 673e e8d5 a33e 6a34 8e3e
00000040: 3df7 4d3e 0fc8 e33d 763b 4c3e aca6 fc3d
00000050: ab84 1c3e 29a4 1d3e 1d3f 573e c26e 323e
00000060: f90f 703e 5198 983e bf70 693e d201 513e
00000070: 6167 303e d92f bd3e 14f8 883e de81 4b3e
00000080: 2819 7a3e f62d 593e c459 573e 0552 833e
00000090: 31cc dd3e 5875 e33e 17c4 683e d4ef 203e
000000a0: d7d5 bd3e 9f33 723e 6cd9 263e d42d 513e
000000b0: 33e5 6a3e 9831 5b3e 5a91 353e 61f5 0b3e
000000c0: 52f3 183e 1f96 103e bac5 863e e10a dc3e
000000d0: 7f20 473e 3234 313e 5018 5c3e ffeb d03e
000000e0: f134 c03e 01a4 833e b728 363e fde4 bf3e
000000f0: 5a4f 3f3e 37d0 cc3e 51c4 123e 759d 8d3e
0.2333239 0.19898455 0.14149784 0.17935154 0.22276288 0.40940446 0.15889043 0.21641366
0.15762252 0.21407968 0.29337808 0.2196545 0.19591542 0.22603865 0.31999135 0.27774364
0.20113845 0.111221425 0.19944558 0.12336478 0.15284984 0.15394653 0.2102017 0.17425063
0.23443593 0.29803708 0.22796915 0.2041085 0.17226936 0.36950567 0.2675177 0.19873759
0.24423659 0.21208939 0.21030337 0.25648513 0.43319848 0.44425464 0.22731052 0.15716487
0.3707721 0.23652504 0.16293877 0.20427638 0.22938995 0.21405637 0.17731228 0.13667823
0.1493657 0.14119767 0.26322728 0.4297705 0.1944599 0.17305067 0.2149365 0.4080505
0.3754039 0.25711063 0.17788969 0.37479392 0.18682614 0.40002605 0.14332701 0.27659193

gru.gru.weight_ih_l0 f4 [192, 512]
00000000: 6d2e d7bd d769 2dbd d9a7 813c 76a9 a7bc
00000010: 034d 8fbd 30b9 96bd b0f7 833c 471a 7dbc
00000020: 9aae 30bc b521 cfbd bf34 91bd 38a1 6d3c
00000030: d5c6 89bd 1b6b 893d 523c aa3d ca38 f73c
00000040: c42c a43b 4277 fd3c fdc5 c6bd eac4 043d
00000050: 8986 873d ecc1 d63c bba2 76bd dce3 ec3d
00000060: d0d7 a13a 4533 ea3c 84f8 f4bc 7633 8c3c
00000070: cca0 a93b 6db7 f93d a332 e83d a101 6dbd
00000080: ead3 86bd 25ce a53d 745d 4dbd d264 e63d
00000090: 6172 c4bd e4a3 3a3d b725 e43b 7442 73bd
000000a0: aece 36bd eec8 ec3d ed3d 98bd 0535 f1bd
000000b0: 7049 75bd 4517 f0bd 66da fa3d 549e 293d
000000c0: 591d d8bc cad8 dbbd 8a27 89bd ca53 313d
000000d0: bf1a 0e3b cfc2 e8bd c598 b93c d26f 813d
000000e0: 280d 6dbd ade8 a93d d9f3 c7bd 49b3 40bd
000000f0: 337b 15bc 3431 6d3d fd6d dcbd 0365 eebd
00000100: 597d e8bd 06e9 c43d 7471 ba3c dec7 e4bd
00000110: 418c da3d 5c30 a2bd 4bae d53c 74ac 3bbd
00000120: 5589 bf3d 2494 81bd 9258 54bd 70aa 5e3d
00000130: 127f e83d 6504 c73d 458c b0bd 5a38 2dbd
00000140: 3283 c9bd e7f0 8e3d 3ff8 653d 1c6a 6dbd
00000150: 1bd1 d0bd f3f4 d03d 9345 cfbd 7354 d73d
00000160: 0683 7b3d 1fef ffbc 0915 84bd fd43 d73d
00000170: aed6 db3d 752d 80bd e47c 27bd 063e e13d
00000180: bb39 8abd bdaa e6bd ecf2 2f3b 39a6 f63d
00000190: 0577 ed3d f382 e63b 7edb a9bd 10c5 10bb
000001a0: bc3e c5bd bb95 8e3d b3ea 963c 2dbc 53bd
000001b0: f298 88bd f006 d33d 5467 11bc 3e16 133d
000001c0: b5e4 dc3d b837 963d 06eb 16bd d77a bfbd
000001d0: 0a13 bb3d a36c 22bc aac0 be3d 19fa 253c
000001e0: 36e7 393c 69e7 54bd e84a 683a 0b6e 00be
000001f0: 350b 06bd f66e 9e3d 99c3 d0bd 863e 983d
00000200: 03a3 50bd 4b17 313d 5578 afbc ab8f 97bd
00000210: 2ad4 fdbc 3fbb 9abd 00f2 a73c c80b 9dbd
00000220: 4924 8abd e608 95bd 96cf f4bd 4a5b b83d
00000230: 5a39 adbc 5d06 0e3d dd19 b9bd fabf f9bd
00000240: 56ec c63d 17c6 ac3d 9411 e4bd 35cd 58bd
00000250: 805e f6bd 0f07 f4bd 55f5 27bd 3ee1 83bd
00000260: 1464 953d 50cc 25bd d613 e6bd 3c29 5a3c
00000270: 08e1 55bd 554a 643d 3681 533d dc19 d43d
00000280: e56b 333d 303d 883d d9c5 adbd eb8a e33d
00000290: cedc 883d 37c8 89bd 5d88 bcbd e8a4 f0bc
000002a0: 0785 84bd 3bc9 10bc 16cc 6bbd 93ad 0d3c
000002b0: ace2 df3c c4d7 e0bd ea76 2b3d d72e c13d
000002c0: 125c 9cbd b9dc 97bc 5c79 803c dc6c c5bd
000002d0: 2991 ec3d 20b4 d73d e1f7 63bd c36f 21bd
000002e0: a01f 9c3d 9fda cf3d 6fcc 983c 98e9 a63d
000002f0: dea4 acbd 814b abbd 74c0 0d3d bf3d 58bd
00000300: 0cdd 993d 7c0c 1e3d 4013 c33c 4ce2 15bd
00000310: b027 063d 466f 9dbd f87d 913d 24a1 d8bd
00000320: 7628 193d a183 843d 0146 0c3d b098 fa3d
00000330: 86f4 993d 1620 f83d ea2f b33d 8a49 ba3d
00000340: 647e dc3c 925d c33d e235 c83d 3ca2 e73d
00000350: 72f1 af3d b6fd 84bb 55e3 8e3d d3cc a3bd
00000360: 1d23 21bd 90f7 dabd 37b8 a83d 0a32 75bd
00000370: 9d1b 773c 7cca e0bd cd07 73bd 7d4e 78bd
00000380: cf15 953d d905 b43d f15a edbd 3d69 923d
00000390: 66a9 d13d 7dfa d2bd 38bc 923d b2c1 153d
000003a0: 1c1d cabd cd2b 7ebd 1dc1 e7bd ae6d b13d
000003b0: b091 393d 9895 d03d 37b3 863d a5c7 94bd
000003c0: f135 823c b66d 133d 33ab d6bc a8ed eebc
000003d0: 930e 5abd e9b2 2039 f0b5 ee3d 9a34 29bd
000003e0: 233d c8bd 60bc 6bbd 66ec 7c3d 9845 b9bd
000003f0: d2d5 fcbc d115 f43c 4c5c 773d b3b4 a53d
-0.10506902 -0.042337265 0.015827106 -0.020466547 -0.06997111 -0.073595405 0.016109318 -0.01544816
-0.010783816 -0.10113851 -0.07090139 0.01450377 -0.06727377 0.06709882 0.083122864 0.030178446
0.0050102193 0.030940656 -0.09705732 0.032414354 0.066174574 0.026215516 -0.060213786 0.11566898
0.0012347642 0.0285889 -0.029903658 0.017114382 0.005176639 0.12193189 0.11337783 -0.05786288
-0.06583388 0.080959596 -0.050137952 0.11249699 -0.095921285 0.045566455 0.006962504 -0.059389547
-0.0446307 0.11561762 -0.074336864 -0.11777691 -0.05988449 -0.11723188 0.122486874 0.04141076
-0.026381182 -0.107347086 -0.066969946 0.043292798 0.0021683422 -0.11365282 0.022655854 0.06320156
-0.057873875 0.082963325 -0.09763307 -0.04704598 -0.009123611 0.057908252 -0.10763166 -0.1164036
-0.11352033 0.09614758 0.022759177 -0.11170934 0.106712826 -0.0791938 0.026084086 -0.04581876
0.09352366 -0.06327084 -0.05184228 0.05436176 0.11352362 0.09717635 -0.08620504 -0.04229007
-0.09839477 0.06979542 0.05614495 -0.057962522 -0.10196134 0.1020297 -0.10120692 0.10514154
0.06140425 -0.031241952 -0.06449325 0.105110146 0.10734306 -0.0625867 -0.04089059 0.10998158
-0.067492925 -0.112630345 0.0026847674 0.12043423 0.11594967 0.0070346533 -0.08293818 -0.0022090115
-0.09631106 0.069621526 0.01842246 -0.05169313 -0.06669797 0.103040576 -0.008874733 0.035909884
0.1078581 0.07334846 -0.03684523 -0.09349602 0.09134491 -0.009913596 0.093140915 0.010130429
0.011346629 -0.051978502 0.00088612596 -0.12541978 -0.03272553 0.07736008 -0.10193557 0.074338004
-0.05093671 0.043235105 -0.021419683 -0.07400449 -0.030984957 -0.075552456 0.020501137 -0.07668263
-0.06745202 -0.07277088 -0.119536564 0.09001787 -0.021145511 0.034674037 -0.09038136 -0.1219482
0.09713046 0.0843622 -0.11136165 -0.052930076 -0.12029743 -0.11915409 -0.04100545 -0.06439446
0.07294479 -0.04047805 -0.11234252 0.013315495 -0.05221656 0.05573495 0.051636897 0.10356495
0.043804068 0.066522956 -0.08485002 0.11110481 0.0668274 -0.06727641 -0.09205697 -0.029375508
-0.064706855 -0.00883704 -0.05756768 0.00864734 0.027329765 -0.10978654 0.041861452 0.09432762
-0.076347485 -0.018537866 0.015682869 -0.09639904 0.115511246 0.10532403 -0.055656318 -0.039413225
0.076232195 0.101491205 0.018652169 0.08150023 -0.084298834 -0.083640106 0.034607366 -0.05279326
0.075128645 0.038586125 0.02381289 -0.036592767 0.032752693 -0.07687239 0.07104105 -0.1057761
0.037392102 0.06470419 0.03424645 0.12236154 0.07517342 0.12115495 0.08749373 0.09096058
0.026915736 0.095393315 0.09775902 0.113102406 0.08590974 -0.004058565 0.06976954 -0.079980515
-0.039340127 -0.1069175 0.08238261 -0.059862174 0.015082267 -0.10976121 -0.05933361 -0.060621727
0.0727955 0.08790178 -0.11589611 0.07148979 0.10237388 -0.10301683 0.07164806 0.036561675
-0.098688334 -0.06205349 -0.1131613 0.08663498 0.045304954 0.10184783 0.06577151 -0.07264642
0.015894862 0.0359933 -0.026204681 -0.029166058 -0.053236555 0.00015325438 0.116557956 -0.04130993
-0.09777286 -0.057552695 0.061748885 -0.09046477 -0.030863676 0.02979556 0.060390756 0.08091106

gru.gru.weight_hh_l0 f4 [192, 64]
00000000: 48f9 d3bd dae7 f63d 9cbc b53d b407 6fbd
00000010: d8bd ad3d 942c eabd fa61 cb3d 44af 6abd
00000020: 30fe cebc 70b7 8ebd 98a6 ddbc d02d 26bc
00000030: 7811 2dbd a0a0 1fbc 122d fb3d 1057 26bd
00000040: c23e aabd c6ad a7bd ceac f33d 52c4 9b3d
00000050: 90f9 c1bd aaf1 ea3d 94e3 493d 4c61 f2bd
00000060: 86e8 a1bd 944b 70bd 4ce3 fbbd c62d a93d
00000070: 1aaa a0bd 082c a1bd 9659 a0bd 04ff 88bd
00000080: b0a5 72bc 4c12 693d f05e e8bc c81b db3c
00000090: 141a e73d 24a7 afbd c843 12bd 8010 efbb
000000a0: 5c38 813d 5049 31bd 805f 613d 78c1 ad3d
000000b0: 4aac d13d 8a44 b13d 40bc c6bb 085b b1bd
000000c0: 707d b63d 003d c43c d462 083d 40bb 5c3d
000000d0: 30fc 06bc 4ae3 893d f0f9 babc e056 46bc
000000e0: 3427 3fbd 6865 a53d a088 8b3d 8091 b7bc
000000f0: 18bd ae3d e82c 45bd 826a c13d 60e8 37bc
00000100: d86f 23bd 3047 6fbc d689 ae3d 78ae a1bc
00000110: 50bd 27bd 226a 9bbd 205a ce3d e898 a3bc
00000120: 2888 ac3c fce6 fbbd da14 bcbd 38cb 23bd
00000130: 02e5 8ebd b802 debd 8c15 f4bd 50f4 803c
00000140: 40ba 46bb 1004 d43c 1864 70bd bce5 343d
00000150: 2471 733d 6a61 9abd 30bc 4cbc 8cf2 b8bd
00000160: 9a97 bdbd a87b 073d 2850 d43d 1c90 57bd
00000170: 34ca d5bd 30bb c3bc 301f aebc d02a 4ebd
00000180: ac85 b5bd 5ca1 eebd fc33 72bd 8076 96ba
00000190: 0832 58bd 78d0 91bc f056 c7bc ba16 833d
000001a0: d86b 5fbd 44ee d93d 9062 463c 6080 7abd
000001b0: 4089 023d 96c2 b4bd f0c6 f5bc fade b53d
000001c0: 00c9 5c3a aef8 b0bd 7a36 b0bd 001d aa3c
000001d0: 0aa1 9e3d d2d0 a63d 1a62 ac3d 105c 273c
000001e0: e02b 183d 04d8 653d a8a3 b8bc e88d 89bc
000001f0: e0c8 aebd 907b b7bc 5481 353d e8f3 ce3d
00000200: 1cf4 e8bd 2e92 fe3d 5aa6 c43d f8b4 a73d
00000210: 1404 cdbd b064 84bd e0ca 45bc 120d fdbd
00000220: a094 4dbc 84cc edbd 4a5e e43d 4cf3 89bd
00000230: 6e05 94bd ca6b e33d 2c9f 2fbd e8c5 cd3d
00000240: 28c9 fbbc 1052 8a3d 8868 0ebd c8cc fdbd
00000250: 606b 21bd 488b ff3d 64e2 5b3d 3691 95bd
00000260: 0801 363d 7002 f53d a046 89bd e06b ddbd
00000270: 9417 22bd 66c2 e53d 1246 91bd 006a 56bc
00000280: 4ed6 80bd 1690 ae3d 46b6 ffbd 9e15 b83d
00000290: be11 cdbd a099 88bc 6062 65bd bcee cbbd
000002a0: 603f 92bc 4cce 80bd 404f c73d 30b7 7cbd
000002b0: 40cc be3b 889b 393d 1c8e 89bd 2c99 d0bd
000002c0: ccec f83d d424 253d 2009 afbc c802 dbbd
000002d0: 4000 16bc 9e98 dabd 4497 08bd f07d 95bd
000002e0: 20bd efbc 7026 39bc d023 3f3d 003c 5e3b
000002f0: 2c4f 603d fcc8 34bd 5ebc dcbd a2b4 f0bd
00000300: 8cc6 4dbd feb5 ab3d a2ea c8bd 0c66 a7bd
00000310: 40a7 343d d060 e2bc ea60 c03d 1cb9 663d
00000320: 4020 5a3d 1a4d e13d 4667 e43d 5099 77bc
00000330: 5078 6e3d e8fe 7abd 6216 b23d a053 67bc
00000340: 20d1 b43b fc83 8abd 489e 1c3d 0010 1d3b
00000350: e2de 88bd 08f2 013d 046b 37bd ceae 903d
00000360: aa51 81bd 44ab b43d d453 8a3d a2a5 ac3d
00000370: 087e 1f3d 4a2f a4bd c0ae e03d 10ba 5ebc
00000380: 1c0b e7bd 268a bbbd 1049 7bbd c06f 3ebb
00000390: ae7d babd b0b5 a6bd 0c17 4e3d 96ea 88bd
000003a0: a62d 993d 2c90 513d 88f9 183d 0036 cd3c
000003b0: d2f2 af3d 40bf bdbd b0c9 323c 2228 c1bd
000003c0: 6e39 e93d 6e34 87bd 542d dc3d 0469 a9bd
000003d0: f6d4 f33d 928f d73d 1811 75bd 10fe 8dbd
000003e0: 80a6 bcbc 005a f83d c6e5 dc3d 243d 983d
000003f0: a41b 1abd 9075 4fbd ec37 3b3d 90a8 f23d
-0.10350281 0.12055941 0.08873865 -0.058356956 0.084834754 -0.11434284 0.09930797 -0.057296053
-0.02526769 -0.06968582 -0.027056977 -0.0101427585 -0.042252988 -0.009742886 0.12264456 -0.040610373
-0.08312751 -0.081874415 0.11898194 0.076058045 -0.094714284 0.11471875 0.0492893 -0.11834964
-0.079056785 -0.058665827 -0.12299213 0.08260684 -0.07844944 -0.078697264 -0.07829587 -0.06689265
-0.014810011 0.056902215 -0.028365582 0.026746646 0.11284271 -0.085768014 -0.035709172 -0.007295668
0.06309578 -0.043282807 0.055022717 0.08484167 0.1023794 0.08655651 -0.0060649216 -0.08659941
0.08910644 0.023954868 0.033297375 0.053889513 -0.008238837 0.06732805 -0.022824258 -0.012105674
-0.046668246 0.08075982 0.068131685 -0.022408247 0.085321605 -0.04813853 0.09444143 -0.011224836
-0.039901584 -0.014604375 0.08522384 -0.019736513 -0.040952027 -0.075886026 0.10075784 -0.019970372
0.021061018 -0.12299916 -0.091836646 -0.039988726 -0.069772735 -0.10840362 -0.11918172 0.015741497
-0.0030323416 0.025880843 -0.058689207 0.044164404 0.05943407 -0.075381115 -0.012496039 -0.09030637
-0.09257431 0.033076912 0.10366851 -0.052627668 -0.10438958 -0.023892969 -0.021255106 -0.050333798
-0.088633865 -0.116518706 -0.059131607 -0.0011479408 -0.05278209 -0.017799601 -0.024333447 0.06400819
-0.054546207 0.10641149 0.01210846 -0.061157584 0.031869173 -0.08826177 -0.030002087 0.0888042
0.00084222853 -0.08641182 -0.086041406 0.020765781 0.077455595 0.08145298 0.08417149 0.0102148205
0.037151217 0.05611421 -0.022538975 -0.016791299 -0.085344076 -0.022397786 0.04431279 0.10105115
-0.11374685 0.12430225 0.096020415 0.08188814 -0.100105435 -0.06464517 -0.012072295 -0.123560086
-0.012547642 -0.11611274 0.11150797 -0.06735858 -0.07227598 0.111045435 -0.042876408 0.10047513
-0.030735567 0.067539334 -0.034767658 -0.123925745 -0.03940904 0.12477738 0.0536827 -0.073030874
0.044434577 0.119633555 -0.06702924 -0.10811591 -0.039573267 0.11218719 -0.07093443 -0.013086796
-0.062908754 0.08523576 -0.12485938 0.08988498 -0.1001315 -0.016674817 -0.05600202 -0.09957644
-0.017852485 -0.06289348 0.097319126 -0.06169814 0.0058226883 0.04531434 -0.06716558 -0.10185465
0.121545404 0.040318325 -0.021366656 -0.1069389 -0.009155333 -0.10673641 -0.033347383 -0.07299411
-0.029264987 -0.011300668 0.046665013 0.0033910275 0.054763004 -0.044136986 -0.10778116 -0.11753203
-0.050238177 0.08384322 -0.09810378 -0.08173761 0.044104815 -0.027634054 0.09393485 0.056328878
0.053253412 0.11001034 0.1115251 -0.015112236 0.058220208 -0.061278254 0.086956754 -0.014119059
0.0055180937 -0.06763455 0.038236886 0.0023965836 -0.066831365 0.03172496 -0.044779792 0.07064591
-0.06314404 0.08821729 0.0675427 0.084300295 0.038938552 -0.08016832 0.10970831 -0.013594165
-0.11281416 -0.09157209 -0.061348975 -0.0029058307 -0.09106003 -0.08140123 0.050314948 -0.06685369
0.0747941 0.051162884 0.037347347 0.025050163 0.08591236 -0.09264994 0.010912344 -0.09431483
0.11387907 -0.06601797 0.10750833 -0.08271983 0.119058535 0.10525431 -0.059830755 -0.06933224
-0.023028612 0.12126541 0.10786013 0.07433537 -0.037624016 -0.050649226 0.045707628 0.11848557
