model_fmri_20_ep_2022-10-28T12:13:27.391261/best_metric.pth (torch, 561209 bytes, 32 tensors)

cnn.conv_layer.0.conv.weight f4 [8, 1, 2, 2, 2]
00000000: 8de1 a8bd 42a9 65be b112 67bc c8ab 29bd
00000010: a24c 4e3e 02e8 b83d a016 5a3d e8b9 973d
00000020: 821c c43c dc00 913e 9c80 a6be e6cc 5b3c
00000030: 7f77 033e f1d2 623e 4079 afbd cc9e 203e
00000040: ab63 923e 2494 523e fcaa ad3e 0f44 533e
00000050: 0611 833e dda6 b4bc a09d a23e 8982 88be
00000060: d20c 9cbe ef98 20be ad39 7abe b13a b2ba
00000070: 9a20 8c3d 468f 34bc a630 a83d 0ee2 19be
00000080: 7396 85bc 7b75 813e bdcb 953e fb86 59be
00000090: e616 9b3d b538 60be 408a b03d ac20 693d
000000a0: 4c33 533e 213e 73be 7084 60be 55ca b33e
000000b0: d7ad 5e3e 7d05 843d 920c 923e 472f bcbd
000000c0: dc3f 4c3e 2596 a13e 6d2a 4fbd a67b a03d
000000d0: 464b 753e e7d2 a13e 79db a53e 2389 553e
000000e0: e8b8 b33e eb3c 933e 5149 8bbe 1011 883e
000000f0: 7823 703e 6b6b 893d 94a6 4dbe 43bb e83d
-0.082461454 -0.22427848 -0.0141035775 -0.04142359 0.2014642 0.09028627 0.053244233 0.07408506
0.023939375 0.28320968 -0.32519996 0.013415551 0.12838553 0.2215078 -0.085680485 0.15685576
0.28591666 0.20564324 0.33919513 0.20631431 0.25598925 -0.022052223 0.31760883 -0.2666209
-0.3047853 -0.1568334 -0.24436064 -0.0013597814 0.06842156 -0.011020487 0.08212404 -0.1502764
-0.016307091 0.25284943 0.29257002 -0.21242897 0.07572727 -0.21896632 0.08620119 0.056915924
0.20625037 -0.23754169 -0.21925521 0.35115305 0.21746002 0.06446359 0.28525215 -0.09188705
0.19946235 0.31559864 -0.05057757 0.07836084 0.23954496 0.31606218 0.32394007 0.20853095
0.3510201 0.28757414 -0.27204373 0.26575518 0.2345103 0.067099415 -0.20083076 0.11363842

cnn.conv_layer.0.conv.bias f4 [8]
00000000: a8bf 123d be64 5c3e 5612 11be 0329 a2be
00000010: d2b8 263d bbb2 ec3d 92e0 f4bd 6e75 24bd
0.03582731 0.21522805 -0.14167151 -0.31671914 0.040703602 0.11557528 -0.11956896 -0.040151052

cnn.conv_layer.0.adn.N.weight f4 [8]
00000000: 72ff 7f3f a629 803f 69b4 7f3f d182 7f3f
00000010: c9bf 7f3f 0e03 803f 783c 803f ee12 803f
0.99999154 1.001271 0.9988466 0.99808985 0.99902016 1.0000932 1.0018454 1.0005777

cnn.conv_layer.0.adn.N.bias f4 [8]
00000000: 505f 73ba 8e68 9c3a a702 edba 4ee8 ebba
00000010: 9e81 523a d72e 33ba 5a1f f33a f028 633a
-0.0009283917 0.0011933015 -0.0018082455 -0.0017998309 0.0008030179 -0.0006835288 0.0018548772 0.0008665463

cnn.conv_layer.0.adn.N.running_mean f4 [8]
00000000: fff6 0a3d d17f 4f3e 0cf3 15be e929 98be
00000010: e1f8 133d bccc d83d 4a1e 03be 42e8 3abd
0.03392696 0.20263602 -0.14643496 -0.29719475 0.03612602 0.10585925 -0.12804523 -0.045631655

cnn.conv_layer.0.adn.N.running_var f4 [8]
00000000: f49a 7e3d 149c 483e d7c5 a83f 2488 d83e
00000010: a56a fd3d 90de 923e 1257 f93f 5747 143f
0.062159494 0.19590789 1.3185376 0.42291367 0.123738565 0.28685427 1.9479697 0.57921356

cnn.conv_layer.1.conv.weight f4 [16, 8, 2, 2, 2]
00000000: 5d27 2ebd 0347 99bd 5b8f 923d 6b1f d33d
00000010: e52f 383d 92a8 28bd 27ec 9d3c 09ef e83d
00000020: 16d5 4ebd a3cb 95bd 1e40 8fbc 483b 783d
00000030: 1c8f 923d 1a7f 4abd 3bb3 b1bc d4d9 82bd
00000040: 98aa 833d 66e9 1fbd 5061 663c 0f24 813d
00000050: 25d4 5c3d 6414 a23d 977a e9bd 5d8a e13d
00000060: 13af e03d 3cf2 033d 5e6e 003e 5adc 893d
00000070: 0d4f f03d 5119 40bd a902 933d af36 3cbc
00000080: 9052 cebd 69a0 303d a4c6 bd3c 1b1f b43d
00000090: 203a a0bd c8bf 0cbd 1ba3 cc3d 9d1f ae3d
000000a0: 5178 363d 9d75 f13d 7b01 b83d 7813 a03d
000000b0: 2631 bdbd f321 58bd c373 bb3d 4276 efbd
000000c0: 9070 6ebd 6a75 9cbd 9100 9f3b 2aae d23d
000000d0: 5c87 8b3d 1940 37bd 9b4f 413d ce2b 84bd
000000e0: fb28 d83d 99b0 e4bd 267e 22bd a09c 80bd
000000f0: c3e6 3b3d 1805 bf3d c38b 3d3d 220f fdbd
00000100: e363 b83d 769a 18bd 883e f03d 800b c3bd
00000110: b2fd 913d a8e3 dc3d d53c 083d 5cbe 023a
00000120: 8b65 073d 8437 483d e2e5 f53d eeb4 e1bc
00000130: b5df da3b e466 5ebd c838 efbc e58f 9abd
00000140: 2140 74bd 1ec1 6f3d cb4c 053d f18e bc3c
00000150: 427e 943d 945b bfbd 68d8 a03d a826 54bd
00000160: 51cd c8bd f10d febd bef6 86bd 73b1 a43d
00000170: 8751 7f3c df74 b6bd ef21 3b3d e00f 67bc
00000180: fc9f 7fbd 587f dd3d 5c92 673d a9f1 96bd
00000190: d5a1 823d 5e52 84bd ab6b e53a 0dae 5e3d
000001a0: a772 f2bd c440 143d 8a46 93bc a344 4bbd
000001b0: 7bbd f3bd fbee 403d 8781 b1bd 0b56 aebc
000001c0: 9f3d 553d 09d2 273d d177 39bd 98d1 90bd
000001d0: ad3f e3bd faa4 ddbd 0ab6 f0bd 131a c73d
000001e0: e5ba b2bc 04b5 a0bd 4d4b 82bc f0a1 103c
000001f0: 9924 cebc 5cf7 683d 5633 db3d cd20 36bd
00000200: ff08 fc3c 8c1d 52bc b4ff e33c 3686 c3bd
00000210: ead3 50bb 264e 1bbd d6ea c0bd 646c 583d
00000220: 6b28 af3d c59b f13d eaab f7bc b1b1 943d
00000230: d464 dcbd afcc e43d 444b cc3d 0a6c a4bd
00000240: 6820 c83d 66dc 023d 7ea2 3bbd 87c1 bcbd
00000250: 7171 e83d 9e44 b53d 75f0 f13d cd08 e1bd
00000260: 5982 9a3d 892f e23d e3fc 7d3d 5eff e53c
00000270: d8ac 893d 6964 f7bd e473 de3c 3e17 4f3d
00000280: ef43 d83b 6161 4c3d 5490 21bd 17a7 b73a
00000290: 9cdb 62bd 43e0 00be b4b3 a23d bb3c 103d
000002a0: 4f4f 04bd c82d c73d 4025 373c b210 9bbd
000002b0: 1850 e33d 0eed c3bb 38ad 33bd d157 de3d
000002c0: 5c32 b9bd 946d 95bd ada6 bcbd 85fc 8b3d
000002d0: ed69 dabd 8ec2 b03d b52c cb3d 8679 1a3c
000002e0: 0330 f3bd 504c a83d 8df6 953c 0fb6 0a3d
000002f0: 844b 413d adf2 4b3d 8d4a 813d 7b39 c13d
00000300: 8f1f b83d 0c46 913d 20fd eebd 7d05 8c3d
00000310: e9ff a7bd cb57 853b a1c6 2f3c 2b9c efbd
00000320: fc3b 643a 7385 1fbd 7c8c ff3d 121d a6bd
00000330: 724f 213c d8fc cf3c 6a47 063d c312 efbc
00000340: 896c 393d 3ec9 993d 48df 22bd 1cf7 f8bd
00000350: fd83 ef3d fc7a 81bd 1bd4 c03d f3b0 60bd
00000360: 3158 ac3d 5992 ae3c 0ee0 f4bc 6df9 f63d
00000370: d40e 7d3d 1344 f83d 4284 8bbd ea08 6dbd
00000380: b610 d63d eacc 153d a520 a73d 9f60 33bc
00000390: 157c a4bc 0223 a5bd f8ea 83bc c7bb d23d
000003a0: 8fcc 1cbd c589 d63d 181d ae3d 8fe5 b33d
000003b0: 7de5 733d ec79 b03d 61ee cdbd 1447 23bd
000003c0: e4a7 66bc a74c efbc 12a1 673d fcad 6fba
000003d0: 4865 b7bd 77ff ad3d 3f1a 42bc 5144 d6bd
000003e0: ab15 bbbd 7a1f e2bd 0cfd dcbd f3b2 abbd
000003f0: 8f05 d83d 5f2c fd3a 2018 1cbd b3ff 8e3d
-0.04251801 -0.074842475 0.07156249 0.10308727 0.04496755 -0.041176386 0.019277645 0.11373717
-0.050496183 -0.07314231 -0.017486628 0.06060341 0.07156202 -0.04943762 -0.021691909 -0.06389204
0.064290226 -0.039040945 0.014061287 0.06305706 0.053913254 0.079140455 -0.11400335 0.11012719
0.10970893 0.032213435 0.12542102 0.06731482 0.11733828 -0.046899144 0.07178242 -0.011487647
-0.10074341 0.04312173 0.023166008 0.087949954 -0.078235865 -0.034362584 0.099920474 0.085021235
0.044548336 0.11790011 0.089846574 0.07816213 -0.0923789 -0.05276675 0.09152939 -0.11692478
-0.058212817 -0.076395825 0.0048523624 0.102871254 0.06812927 -0.044738863 0.04719506 -0.064536676
0.105546914 -0.11166496 -0.039671086 -0.06279874 0.04587437 0.093271434 0.046275865 -0.12356402
0.09003427 -0.03725668 0.11730677 -0.09523678 0.07128467 0.107856095 0.03326114 0.0004987472
0.033055823 0.04888107 0.12006737 -0.027552094 0.0066795 -0.054297343 -0.02920188 -0.07546977
-0.05963147 0.05853378 0.03254394 0.023017379 0.07250644 -0.09343639 0.07853776 -0.051794678
-0.09804786 -0.12405003 -0.06590031 0.08041658 0.0155834025 -0.0890901 0.04568666 -0.014102906
-0.062408432 0.108153045 0.056536064 -0.07370312 0.06378523 -0.06461023 0.0017503401 0.054365207
-0.118382744 0.036194578 -0.017977972 -0.049626004 -0.11901375 0.04710291 -0.086672835 -0.021281263
0.05206072 0.04097179 -0.04528028 -0.07071227 -0.110961296 -0.108224824 -0.11753471 0.0972177
-0.021817634 -0.07847026 -0.015905047 0.008827671 -0.025163935 0.056876525 0.10703151 -0.044464875
0.030766008 -0.012824427 0.02783189 -0.09547083 -0.0031864592 -0.037916325 -0.094197914 0.052837744
0.08552631 0.11797289 -0.030233342 0.072604544 -0.10761419 0.11171853 0.09975293 -0.08028419
0.09771806 0.03194847 -0.04580926 -0.092166 0.11349762 0.08850978 0.11813442 -0.10988007
0.07544393 0.11044223 0.06200875 0.02807587 0.067224205 -0.120796986 0.02715487 0.050559275
0.006599895 0.049897555 -0.039444283 0.0014011589 -0.055385217 -0.12585549 0.07944432 0.035214167
-0.032302197 0.09725529 0.011178315 -0.07571544 0.11099261 -0.005979187 -0.043866366 0.108565934
-0.090428084 -0.07296291 -0.092114784 0.06835274 -0.10664735 0.08630858 0.099206366 0.0094283875
-0.11874392 0.082176805 0.018306041 0.03386503 0.047191158 0.04979198 0.063130476 0.09434792
0.08990394 0.070934385 -0.116693735 0.06836984 -0.08203108 0.0040693036 0.010728509 -0.116997086
0.0008706448 -0.038945626 0.12477967 -0.081110135 0.009845601 0.02538912 0.03278295 -0.029183751
0.045269523 0.07509087 -0.03976372 -0.121565074 0.11695097 -0.063222855 0.09415456 -0.054856252
0.08415259 0.021310018 -0.029891994 0.12059293 0.06178172 0.12122359 -0.068123356 -0.05786983
0.10452406 0.036572374 0.08160523 -0.010948329 -0.020078698 -0.08063318 -0.016103253 0.10289722
-0.03828102 0.10475496 0.08501643 0.08784019 0.05954503 0.08617005 -0.10055233 -0.039862707
-0.014078114 -0.029211355 0.056550093 -0.0009143052 -0.08954865 0.08495992 -0.011847078 -0.10462249
-0.09134992 -0.1104116 -0.10790452 -0.08383741 0.10547935 0.0019315592 -0.038108945 0.069823645

cnn.conv_layer.1.conv.bias f4 [16]
00000000: 2aa8 b0bd b3cc 553c 5080 f7bd 5f7b 413d
00000010: 40a6 773d b12e 42bd 19ba 953d 6530 a33d
00000020: 25e9 c13d 04da de3d 9817 763c 1c6c 11bd
00000030: fc11 64bd b75e ef3d 3815 ed3d 1c11 ac3d
-0.08625825 0.013049292 -0.120850205 0.047236796 0.060461283 -0.04740781 0.07310886 0.07968215
0.09468297 0.10881427 0.015020274 -0.03550349 -0.055681214 0.11687987 0.11576313 0.08401701

cnn.conv_layer.1.adn.N.weight f4 [16]
00000000: 09c2 7f3f 8bb7 7f3f 1403 803f 1b12 803f
00000010: 7105 803f 6813 803f aa21 803f 1ccd 7f3f
00000020: 3740 803f b00d 803f 0ea5 7f3f 41a3 7f3f
00000030: fd1b 803f c4bc 7f3f 5fbf 7f3f fa16 803f
0.9990545 0.9988944 1.0000939 1.0005525 1.000166 1.0005922 1.0010273 0.9992235
1.0019597 1.0004177 0.9986123 0.9985848 1.0008541 0.9989741 0.99901384 1.0007012

cnn.conv_layer.1.adn.N.bias f4 [16]
00000000: a80a b5ba 99b2 b43a 4cc7 a9b7 7b1a ee3a
00000010: 6152 3d39 2dd7 8f3a 937a 673a 09df 91ba
00000020: f188 333a f6fd 9c3a 8916 07ba b65f aaba
00000030: 409c 863a 779d b1b9 3ca9 83ba 9a0d 023a
-0.001381238 0.0013786136 -2.0239175e-05 0.0018165851 0.00018055133 0.0010974162 0.00088302157 -0.0011129092
0.0006848714 0.0011977542 -0.00051531993 -0.0012998495 0.0010269955 -0.0003387739 -0.0010044943 0.0004961133

cnn.conv_layer.1.adn.N.running_mean f4 [16]
00000000: c86e 9b3e 3efb 03be 8976 8a3e d753 403e
00000010: 1463 a6bd 1932 eabe eb3c 07be 133a 2a3d
00000020: 99c0 993e 0b20 083f 1265 c63d c469 a6be
00000030: ec9d 843d 4ccb e5bd 4e90 c23e 44c9 4d3d
0.30357957 -0.1288881 0.2704356 0.18781982 -0.081243664 -0.45741346 -0.13206832 0.04155929
0.30029753 0.53173894 0.096872464 -0.32502568 0.06475434 -0.112204164 0.3800072 0.05024077

cnn.conv_layer.1.adn.N.running_var f4 [16]
00000000: 75dd 803e 2e9b d33d 1cf0 b63e a7fd eb3d
00000010: 4277 3f3e c9d0 b73e 80c6 b93e e44e d03d
00000020: da85 053e 4789 363f 0246 c73e 1a97 3c3e
00000030: 4c03 363e f0e1 3a3e 3e27 683e 7dc3 cd3d
0.25168958 0.103323326 0.35730064 0.1152299 0.18697837 0.35901478 0.36284256 0.10171297
0.13039342 0.7130322 0.389206 0.18417016 0.17774695 0.18250251 0.2267122 0.10047052

cnn.conv_layer.2.conv.weight f4 [32, 16, 2, 2, 2]
00000000: 9df2 e338 c9f5 80bd 85b7 e1bc 154d abbd
00000010: df38 96bd 4e53 9e3d c533 a93b 369d d7bc
00000020: 68e6 35bd 9ca2 2abd 5386 503d f0ab 2e3d
00000030: 12c2 34bd 2a4c 863d 69eb 573d e408 983d
00000040: 35f3 6c3d 921d 2c3d 2617 9c3d a7b1 2bbd
00000050: 8e59 ab3d 33e5 57bd 65d8 833c 082a ccbb
00000060: eb83 713d e3c4 ab3d 62d9 51bc 732c 5cbd
00000070: 0197 3f3d 913b c93c e8c8 5c3d 9b3d 66bd
00000080: 5094 8bbd 299a 9e3d 2b74 b33d 7b69 1f3c
00000090: 00c6 9a3d c116 433d ea9b 6c3d 80bd 0e3c
000000a0: 7dc4 823d 9f7e 17bd 9776 80bd 4212 273d
000000b0: f385 ad3d de21 803d 4df3 fe3c 10db 913b
000000c0: cb6b 2cbd 4b32 aa3d f366 32bd 33af 823d
000000d0: 8004 463d 5841 40bd 5379 953d 8d7b 0bbc
000000e0: 0de1 7abd 7998 2ebd 9f1b 873d 27e3 42bc
000000f0: d80b ab3d a3c9 973d d82c 433d 7bcc 93bd
00000100: b5ca 96bd 6171 813d 5b0b 113d 8058 a43c
00000110: 92a3 96bc 3c05 20bd 415a 8bbd 3554 acbd
00000120: 297b 97bd 4858 3a3a f8f9 49bd b7a4 02bd
00000130: a56e 44bc 0ac3 3cbd 22da 593d 7d7c 153d
00000140: ce0d 983d c993 fd3c a381 823d bb64 ac3d
00000150: 98e9 8f3d de47 43bd d761 74bc e888 9ebd
00000160: b954 813d 471a 4f3d 5ecc 8ebd 3f55 773d
00000170: 2224 9a3d e12b 3f3d 53c8 b5bd 6bb2 1f3d
00000180: c528 7c3d b523 7d3d df07 b338 3826 a53d
00000190: 25cd 41bd d756 933d ae7a a73d 406a f7bc
000001a0: f676 8f3d bbd8 5fbd d9cc 0fbd a6ba 153d
000001b0: 153b 843c f536 c3bc ca57 33bd 831f b0bd
000001c0: 32d9 e13c 9540 4e3d 803e 8c3d 541d 67bc
000001d0: 4bff 94bd 0a16 0d3c 8d72 a0bd 7b5f 56bd
000001e0: 4568 f7bc f925 53bd 770f 7dbd e953 093d
000001f0: bd24 86bd 50bf 4bbd 2dcc 9b3d 3de8 a93d
00000200: 382c 0d3c 6d80 bb3a 181f 98bc 6f00 a53d
00000210: ad14 ae3d 3a2e f93b 044a 903d f099 a63d
00000220: c05e 12bd 0f30 a43d 5953 3abd 06f3 9dbd
00000230: 2412 4d3d 8c14 863d 55f5 28bd c59c 8dbc
00000240: 63c1 88bd 6d46 6b3d 2031 9f3c 75fa d73c
00000250: 94c0 8d3d f0d2 53bd bbf0 453c 0eda a03d
00000260: ff5e 7b39 6d67 8bbc 7700 1e3d 5fc1 0e3d
00000270: 9888 6abd 2872 623d 2519 18bd 376e 3a3d
00000280: 6adf 44bd 7b79 86bc 3242 403c d623 cfbc
00000290: 80ea f4bc 7533 d3bc 2191 aa3b 5c85 59bc
000002a0: 658f 233c fa3c 733d 3271 763c 0288 923c
000002b0: 20cb 373d bc26 533d 022b 913d b081 a5bd
000002c0: 5caf 8fbd a038 903d 44e2 fdbc bd03 96bd
000002d0: 050d d73c 284c de3c 3918 ff3c 9831 943d
000002e0: 9f10 313c f40f 1b3d 4b2c 7a3d b9af 823d
000002f0: ec9a 463d b9e4 803d f057 94bd daee d73b
00000300: aa26 843b bf3d 89bd b3f2 c13c 3b30 303d
00000310: c78b 8ebd 4861 763d 3949 973c 08d0 53bd
00000320: 866d f43b dbdf 2fbd 6fc2 dc3c 9909 ce3c
00000330: bacc 9f3d b186 4bbd 8896 8bbd ec38 883c
00000340: a3b6 4c3d 7ce5 81bd 248a 413c 71e9 77bd
00000350: 9a80 433d 73ea a3bd 8843 47bc 0dbd 8f3d
00000360: 216d 543d aa39 a7ba 5036 7abd 4ab5 11bd
00000370: 54a3 a33d 6ce6 2a3d 7416 803d 09ca 9ebd
00000380: 8426 ac3d 9b7b 06bd 9f24 4abc 6308 84bd
00000390: 1fee 013c 2325 30bd 6fda f5bb 4f81 2ebc
000003a0: 60f0 33bd b47a b2bd d13a d43c 19a9 92bc
000003b0: 25f9 3a3c 4f5e b6bc 1046 bc3c 715f 913d
000003c0: d5ec b13c 1307 3d3d 4572 093c a033 613d
000003d0: ff94 87bd c452 0e3d 8c42 4cbb b91a a9bd
000003e0: c04b 4cbc 1161 71bd f97b 7bbb 36f5 a5bc
000003f0: 60f2 1bbd 8d50 683d cc65 883d 5620 543d
0.00010869394 -0.0629688 -0.02755333 -0.083643116 -0.07335066 0.07730733 0.005163642 -0.026320081
-0.044409186 -0.041658983 0.05090935 0.04264444 -0.044130392 0.06557496 0.05271474 0.07423571
0.057849128 0.042020388 0.07621603 -0.04191747 0.083666906 -0.052708816 0.016094396 -0.0062305965
0.058963697 0.083871625 -0.012808176 -0.053753328 0.046774868 0.024564536 0.053902537 -0.056211095
-0.06815398 0.077442475 0.08762392 0.009729738 0.07557297 0.04762912 0.05776588 0.0087121725
0.063851334 -0.03698599 -0.06272619 0.040788896 0.084728144 0.0625646 0.031121874 0.004451163
-0.042094987 0.08310374 -0.04355521 0.06381073 0.048344135 -0.046937317 0.072985314 -0.0085133435
-0.06124978 -0.042625878 0.06597065 -0.011894978 0.083518684 0.07411506 0.04765019 -0.07216736
-0.07362882 0.063204534 0.03541122 0.020061731 -0.018388543 -0.039067492 -0.06804324 -0.08414499
-0.07396538 0.0007108492 -0.049310654 -0.031895366 -0.01198927 -0.04608444 0.053186543 0.036495674
0.07424508 0.030954259 0.063723825 0.0841765 0.07026976 -0.04767596 -0.014915905 -0.077409565
0.06314988 0.05056217 -0.06972574 0.06038403 0.07526423 0.046672706 -0.088760994 0.038988512
0.06156232 0.06180163 8.536851e-05 0.0806393 -0.04731478 0.07194298 0.08177696 -0.030202031
0.07005112 -0.05465005 -0.035107467 0.036554955 0.016141454 -0.023829916 -0.043784894 -0.085997604
0.027569387 0.05035456 0.068478584 -0.014106113 -0.07275256 0.008611212 -0.07834349 -0.05233715
-0.030201087 -0.051549885 -0.061782327 0.03352729 -0.06549976 -0.049742997 0.07607303 0.08296249
0.0086165 0.0014305242 -0.018569514 0.08056723 0.08500037 0.0076043876 0.07045367 0.0813483
-0.035734892 0.08016979 -0.045489643 -0.07712369 0.05006613 0.06546888 -0.04124959 -0.017286668
-0.066775106 0.05744021 0.019432604 0.026364544 0.06921497 -0.051714838 0.01208132 0.07854091
0.00023972614 -0.01701709 0.038574662 0.03485238 -0.057259172 0.05528465 -0.037133355 0.045515265
-0.048064627 -0.016415348 0.011734532 -0.025285643 -0.029896975 -0.025781373 0.005205289 -0.013276424
0.009982918 0.059384324 0.015041636 0.01788712 0.04487145 0.05155061 0.07088281 -0.080813766
-0.07015869 0.0704205 -0.03099168 -0.07324932 0.026251325 0.027135924 0.03113948 0.07236022
0.010807185 0.03785701 0.061077397 0.06381173 0.04848759 0.062936254 -0.07243335 0.0065897526
0.0040329294 -0.0670123 0.023675298 0.043014746 -0.06960254 0.06015137 0.018467532 -0.051712066
0.0074593453 -0.042938095 0.026948182 0.02515106 0.0780272 -0.049689 -0.06815821 0.016628705
0.049978863 -0.06342599 0.01181272 -0.06052536 0.047730066 -0.08003702 -0.012162097 0.070184804
0.051861886 -0.0012758274 -0.061086953 -0.03557328 0.07990137 0.041723654 0.062542826 -0.07753379
0.08405784 -0.032832723 -0.012337833 -0.06446912 0.007930308 -0.043004166 -0.007502846 -0.010650947
-0.04393041 -0.0871481 0.025906952 -0.017902898 0.01141194 -0.022261767 0.022982627 0.07098282
0.021719376 0.046149325 0.00838906 0.054980874 -0.066202156 0.0347469 -0.0031167595 -0.0825705
-0.012469232 -0.05893046 -0.0038373454 -0.020258527 -0.038072944 0.056717444 0.06660041 0.05178865

cnn.conv_layer.2.conv.bias f4 [32]
00000000: e08c 3b3c 4ccb 3ebd 0779 89bd 12eb 9d3d
00000010: 6b67 8abc d316 78bb 3a6a 7fbd 18de 81bd
00000020: 7fd2 773d 4c33 a5bd fd1b b6bc 1fb9 a63d
00000030: 9a55 6c3d a33c 923d 37f4 99bd 76d1 81bc
00000040: 714b 593b 0451 953d 1732 a2bd be38 47bd
00000050: 9eb4 453d 34a9 8ebd 7b20 623d b0c4 443d
00000060: cd21 893d de79 f23c 2be9 d0bc 4de2 803d
00000070: 1034 11bd bfb4 9c3c a39f 44bd 6d74 b23d
0.011447161 -0.046580598 -0.06712537 0.07710852 -0.016895017 -0.0037855401 -0.062357165 -0.06341189
0.06050348 -0.08066425 -0.022230143 0.08140778 0.057698824 0.07140472 -0.075172834 -0.01584695
0.003315654 0.07290843 -0.0791971 -0.048638098 0.048267953 -0.06965867 0.055206757 0.04803914
0.066959 0.029599126 -0.025501808 0.062931634 -0.03545004 0.019129155 -0.048003804 0.08713613

cnn.conv_layer.2.adn.N.weight f4 [32]
00000000: ec9e 7f3f a626 803f a82a 803f 4a0a 803f
00000010: cc07 803f 489e 7f3f c1ef 7f3f 0928 803f
00000020: 192c 803f ed1a 803f 02bc 7f3f c33b 803f
00000030: f50a 803f 7122 803f d588 7f3f a8b5 7f3f
00000040: f70f 803f 34f2 7f3f 849c 7f3f cc9c 7f3f
00000050: 8404 803f 64a8 7f3f 1336 803f 18f9 7f3f
00000060: 55ac 7f3f 209f 7f3f 0aa7 7f3f 4001 803f
00000070: 3734 803f 0a2b 803f 2caf 7f3f 9a1e 803f
0.9985187 1.0011795 1.0013018 1.000314 1.000238 0.99850893 0.9997521 1.0012218
1.0013458 1.0008217 0.9989625 1.0018238 1.0003344 1.0010511 0.99818164 0.9988656
1.0004872 0.9997895 0.998482 0.9984863 1.0001378 0.9986632 1.0016502 0.9998946
0.9987233 0.9985218 0.99864256 1.0000381 1.0015935 1.0013134 0.99876666 1.0009339

cnn.conv_layer.2.adn.N.bias f4 [32]
00000000: 97c2 86ba 56ba 063a 31c0 8b3a 0737 903a
00000010: 6728 013a 3acb 96b9 22c8 82b9 249e 483a
00000020: 59ec dd3a 4373 bb3a d24f 01ba 509a 313a
00000030: 5d92 a9ba 2d52 b63a 0993 bdba 499b aaba
00000040: b4df a6ba afe2 03b9 e33d ceba 4883 813a
00000050: 8d1a a939 c8c4 e13a e43d eb3a eb01 a3ba
00000060: dd54 88ba b6c4 b1ba 9de8 a1ba 9aaf cbba
00000070: a6d3 aa3a d581 a73a 68f9 9cba d172 a33a
-0.0010281381 0.00051394606 0.0010662136 0.0011002728 0.000492698 -0.00028761645 -0.00024944643 0.00076529593
0.0016931399 0.0014301318 -0.00049328536 0.00067750085 -0.0012937296 0.0013909988 -0.0014463376 -0.0013016249
-0.0012731464 -0.0001257758 -0.0015734996 0.0009881044 0.00032253974 0.0017224783 0.0017947522 -0.0012436485
-0.0010401268 -0.0013562653 -0.0012352649 -0.0015540004 0.0013033047 0.0012779782 -0.0011976184 0.0012470131

cnn.conv_layer.2.adn.N.running_mean f4 [32]
00000000: 8a5f de3e 2e77 9d3e 4af5 21be 42a8 4bbe
00000010: 6de8 05bf 0df3 cdbe 38e6 3dbd eff2 35bd
00000020: 7f15 c3be 4b83 1cbe 9077 083e 572b 3b3e
00000030: a78a 873d ed22 d03e 0aa9 86be 5735 c8be
00000040: ebd3 2bbe 30a9 7bbe 511a 07bf 4d60 4e3e
00000050: 151a a53e 19b1 fa3c f87c db3d 2c8a 303e
00000060: a84e 23bf 1d32 e9be 3d83 0fbe 096a eb3e
00000070: 51be 8ebe 3462 91be ce52 303e 1fdc 993e
0.43432266 0.3075499 -0.15816227 -0.19888404 -0.5230778 -0.40224496 -0.04636213 -0.044421133
-0.38102338 -0.1528446 0.1332686 0.18278252 0.06618243 0.40651646 -0.26300842 -0.39103195
-0.16780059 -0.24576259 -0.5277453 0.20153923 0.32246462 0.030602025 0.10717195 0.17240208
-0.63791895 -0.45546046 -0.14014907 0.45979336 -0.27879575 -0.28395236 0.17219087 0.30050752

cnn.conv_layer.2.adn.N.running_var f4 [32]
00000000: 9d60 753e b4d2 d03e 570e 2b3e 8eb2 8c3e
00000010: f9e2 353f 0186 a33e ee22 623e d340 543e
00000020: 9dd1 cf3e e570 f13d 3ca4 363e be22 803e
00000030: cd9f 543e dd07 9a3e 936c 6c3e 6e19 d53e
00000040: f5c7 953e 8517 5e3e 733b b13e 126f 473e
00000050: a409 c73e 555e c33e 4026 143e 76ca 5f3e
00000060: 8da2 973f 66e5 a03e 42fe 693e 6d27 ab3e
00000070: 398c 7b3e dc65 8d3e 5ff1 f13e f670 803e
0.23962636 0.40785754 0.16704689 0.27479976 0.7104946 0.31938174 0.22083637 0.20727853
0.4058961 0.11789111 0.17836088 0.25026506 0.20764084 0.30084124 0.23088293 0.41620964
0.29254118 0.2168866 0.3461567 0.19475964 0.38874543 0.38157907 0.14467716 0.21854576
1.1846482 0.31425017 0.22850898 0.33428517 0.2456521 0.27616775 0.47254464 0.25086182

cnn.conv_layer.3.conv.weight f4 [64, 32, 2, 2, 2]
00000000: 5f1d 4e3d df3b 39bc ec24 843b 85c3 78bd
00000010: 8bab 1fbd 32af 38bd bdcc e0bc 898a 3c3c
00000020: 7865 943b a3f8 1dbd 387b b3bc 4762 56bd
00000030: 919b eabc 8595 1f3d 6a42 1cbd 361b 4d3d
00000040: 246d fbbc e759 edbc a25a 1fbd 5064 093b
00000050: d0f0 823d 0015 763d 5b5c 11bd a4fe 543d
00000060: 26c2 62bd f2ad c33c f91d 5f3d e637 fd3c
00000070: de05 3abd 53af 403d 9d25 3cbd afca 563d
00000080: 0fc1 4c3c ce90 453d 9173 3e3d a678 4fbc
00000090: bf95 0a3c 4c2a 87bc e09a 503d 3cf3 5fbc
000000a0: b4d1 7a3d a128 3dbd d870 a3bb 63fb febc
000000b0: 50b3 e03c 4544 0bbd ed31 7fbc 62f7 493c
000000c0: 51d4 403c 2ffc 70bd 2414 283d 498d ad3b
000000d0: 3f72 2abc e5b0 c7bb ca35 3e3c 038e 8ebc
000000e0: 7f54 64bd 1cc3 a2bc 7757 5dbb e46b 033d
000000f0: accb 36bd afac 803d a99c 983b 83f2 febc
00000100: de6d 3cbd a4fa 1ebd 2d39 30bc e5c8 63bc
00000110: e13f 0fbd f85a 133d 8ba9 11bd 3ddc 3dbc
00000120: 28ee 6abc 3623 2ebd da3d 783d 6e0b d0bb
00000130: 3a68 743d 5be2 54bd 8ae9 05bd aa4b 143d
00000140: f5d2 5fbd 88df 6b3d e0f2 783d 114f dfbc
00000150: c670 133d 8caa 4e3d 6e8d ffbc 450e 523c
00000160: 90d5 9c3c 570b 83bc 4dc7 2c3d 6779 8f3b
00000170: 390c c83c dff6 dcbb 13d2 5ebd 20d8 6b3d
00000180: 08e4 77bd 166f e63c 0e4d 2abd 7793 673d
00000190: 252a c53c 3b5a 3f3d 0a49 96bc 5abf 6fbd
000001a0: cbe9 f13c 36ec 8fbb 70a5 4c3d e4ee 283c
000001b0: 566f 503d dc42 11bd 23ef 26bc 8391 653c
000001c0: 3a53 43bd 3a6b 5e3d aa4e 20bd b6de c9bb
000001d0: 7cda e73a 0473 0bbd 92d0 373b fa6f 2e3c
000001e0: 5be2 28bc 24ab 443c 14f9 26bd 3d7f f0ba
000001f0: 7047 223d 4233 b6bc 009e 823c 9957 46bd
00000200: 65f1 b13c dc48 733c a035 d4bc 6e3a 5a3d
00000210: 9f5d 2a3d c030 5ebd 2618 5d3c ebaf 73bd
00000220: 7989 6bbb 717d 813d 8f37 b4bb b71b b23b
00000230: 9814 eb3c 7f6c 10bd 005b b93c 2c1d 063c
00000240: 6cc0 8a3c cde4 0c3d 8aea 7f38 6ec5 3a3d
00000250: 6a32 4bbd a61d 7f3d f5ef a03c cf60 0ebc
00000260: 89cd 2e3d 6c3e cdba 4a91 8bbc 8062 acbc
00000270: 34e8 603b 8bd7 1a3d 77c6 f93c 3eed 0bbd
00000280: 5ff8 603d d8a0 83bc 7647 00bd 9416 95bc
00000290: a257 713d 3bf5 633c f8e2 b43c af49 513d
000002a0: 56cc 813d 260b 28bd 010c 023d 91e8 f5bb
000002b0: fea4 8ebb 98d2 1abb 3500 40bb dd8f 36bc
000002c0: e6a4 433b 14f5 433d a3ec 3cbd 203c eb3c
000002d0: 43ef 9b3c bf6d 1dbd c376 f23c 00bf 25bc
000002e0: 1513 a0bb 2a9d 58bd 7146 7ab9 bc26 27bd
000002f0: a35e a3bc 6603 14bb 2eb0 d63c 5ab9 dbbc
00000300: 96e7 08bc a95c 003d 383a 17bd eb7b 163c
00000310: 4deb 253c 8494 67bc 85ba 353d 600c 75bc
00000320: a4ea 40bb adca 4b3d 48ac 10bd 93d8 3b3b
00000330: 19c9 23bd f1c8 2abd 48f2 0fbc b89f ee3c
00000340: a447 5fbd f4dd 893c c46c c53b fbde 533b
00000350: ed6f 653d 30a7 5bbd 50b1 01bc 5fdd 14bd
00000360: b853 45bd d0db a53c 33b8 73bd 69f1 54bd
00000370: 9989 213d f04e 863c 5d78 a2bc d4eb 28bd
00000380: 9c56 53bc 4828 46bd fd22 b43c 9386 023d
00000390: ca94 143d 5149 163d aa15 8a3b bc2c 593d
000003a0: c105 943c 33bb 063b ac65 813c 5495 35bc
000003b0: 2457 44bd 12e8 843a bc75 4b3c 15ff 5f3d
000003c0: 6c5d 443d bc93 b33c 6e8a 373d 4042 72bd
000003d0: 3ef9 46bd edfe 18bd d47d e23b f634 fa3c
000003e0: 0c33 a53b 4c08 f53c e0d1 4ebd 0c2b 3f3b
000003f0: 0dac 1ebd ca51 e03c ac67 683c 003f 1c3d
0.05032098 -0.011305778 0.0040327217 -0.060733337 -0.038981955 -0.045088954 -0.027441377 0.011507639
0.0045286976 -0.038567197 -0.021909341 -0.05233982 -0.028638633 0.038960952 -0.038149275 0.05007478
-0.03069169 -0.028973533 -0.038904794 0.0020964332 0.063935876 0.06007862 -0.035488468 0.052000657
-0.055360936 0.023886655 0.054471944 0.030910444 -0.04541575 0.047042202 -0.04593431 0.052439388
0.012497201 0.0482338 0.04649693 -0.012663042 0.008458554 -0.01649966 0.05092895 -0.013668831
0.061235145 -0.046181325 -0.0049878173 -0.03112573 0.027429253 -0.034000654 -0.015575868 0.012327047
0.01176937 -0.05883425 0.041034833 0.0052963835 -0.010403215 -0.0060940855 0.011609504 -0.0174017
-0.055744644 -0.019868426 -0.0033774057 0.032085314 -0.04462783 0.06282937 0.004657347 -0.031121498
-0.046003215 -0.03881325 -0.010755819 -0.013902877 -0.03497303 0.035975426 -0.03556208 -0.011588153
-0.014339007 -0.04251405 0.06060586 -0.006349019 0.05966971 -0.051973682 -0.032693423 0.03620497
-0.054644544 0.057586223 0.0607785 -0.027259381 0.03599622 0.050455615 -0.031195369 0.012820785
0.019144803 -0.015996618 0.042182256 0.004378486 0.02441989 -0.0067432965 -0.05439956 0.05757916
-0.060520202 0.028129142 -0.04157739 0.056537118 0.024067948 0.04671691 -0.018345375 -0.058532096
0.029530426 -0.004392172 0.04996246 0.010310862 0.05088743 -0.035464153 -0.010188851 0.0140117435
-0.047686793 0.054301478 -0.03913752 -0.0061605824 0.0017689015 -0.034045234 0.0028047902 0.0106468145
-0.010307874 0.012003694 -0.040764883 -0.0018348467 0.03961891 -0.022241239 0.01594448 -0.048423383
0.021721551 0.014848914 -0.025904477 0.05327838 0.04159319 -0.05424571 0.013494527 -0.05949394
-0.0035940094 0.06322754 -0.005499787 0.005435433 0.028696343 -0.03525972 0.0226264 0.008185666
0.016937457 0.03439789 6.101517e-05 0.04559844 -0.049608625 0.062284134 0.01964567 -0.008690073
0.042676482 -0.0015658862 -0.017037053 -0.021043062 0.0034318091 0.037803214 0.030490143 -0.0341618
0.054924365 -0.016067907 -0.03131815 -0.018199243 0.058921464 0.013913448 0.022080883 0.05109566
0.06337802 -0.041026257 0.03174973 -0.0075045307 -0.0043531647 -0.0023624059 -0.0029296998 -0.011142698
0.0029852926 0.047841147 -0.04612411 0.028715193 0.019034987 -0.03843474 0.029597646 -0.010116339
-0.0048850873 -0.05288426 -0.000238681 -0.040808424 -0.019942587 -0.0022585033 0.026207056 -0.026821781
-0.008355996 0.031338368 -0.036920756 0.009184818 0.010126901 -0.01413453 0.044367332 -0.014956564
-0.0029436732 0.049753834 -0.03532055 0.0028663024 -0.039986704 -0.04169554 -0.008785792 0.029128894
-0.05451168 0.016829468 0.0060249288 0.0032328952 0.056014944 -0.05362624 -0.00791581 -0.03634393
-0.048175544 0.020246416 -0.059501838 -0.05198804 0.039437864 0.016395062 -0.019832784 -0.04124053
-0.012899067 -0.04837826 0.02198934 0.03186662 0.03627471 0.036691014 0.0042140083 0.053021178
0.01806915 0.0020558357 0.015795551 -0.011082966 -0.047934666 0.0010139963 0.012418207 0.054686625
0.047940657 0.021921031 0.04480975 -0.059145212 -0.04857754 -0.03735249 0.0069119725 0.030542832
0.0050414857 0.029911183 -0.05049312 0.0029169945 -0.0387383 0.02738275 0.014184874 0.03814602

cnn.conv_layer.3.conv.bias f4 [64]
00000000: 20c9 0fbd a0e2 bc3c 2207 4dbd efdb 6fbd
00000010: 4735 463d 2e4d 10bd 0232 e5bc 2ca3 ed3c
00000020: 1127 65bd 70e0 51bd 236f cd3c 9ad9 b53c
00000030: 87c3 503d c004 0abd 21d0 473d dd49 fc3c
00000040: 8e9e 2abd 69ec b33c a8fe a03c 22af 52bc
00000050: 2357 21bd 6789 24bd 2c76 0ebd 72a6 85bb
00000060: 170a 173d a577 043d 1447 5c3d 1863 5c3c
00000070: ff0e 52bc 923d 193d d4eb 163c a624 b8bc
00000080: 5d8b 50bb f734 5dbd 4843 c3bc e8f8 2d3b
00000090: 7e2f cbb9 a238 653d c900 07bc 548a 1abd
000000a0: 2030 f23c 7d7e 0abd b8a8 c7bb bdf5 243d
000000b0: 3372 153b 12b3 4b3c 7210 5fbc a472 2ebd
000000c0: 0bce 413d 54a7 f03c 8875 e53c a255 6bbd
000000d0: 6249 543d 18bc 2dbc d114 e43b a7a4 34bb
000000e0: 4bc1 3abd 3b80 94bb 688d 123d cefc 44bd
000000f0: 749c e6bc b727 89bc 2f77 fc3c a95b 28ba
-0.035103917 0.023057282 -0.05005563 -0.058559354 0.048390653 -0.035229854 -0.027977947 0.02900847
-0.05594546 -0.05123943 0.025077408 0.022198487 0.05096772 -0.033695936 0.04878247 0.03079694
-0.041655116 0.021963315 0.01965268 -0.012859138 -0.03938974 -0.0401701 -0.034780666 -0.0040786797
0.036874857 0.032340664 0.053778723 0.01345136 -0.012820958 0.037412234 0.009211499 -0.022478413
-0.0031821348 -0.05400559 -0.023835793 0.0026546065 -0.00038754562 0.055962212 -0.008239933 -0.037729576
0.029563963 -0.033812035 -0.006093111 0.040273417 0.0022803664 0.01243283 -0.013614761 -0.0425898
0.04731564 0.029376663 0.028010145 -0.057454713 0.051827796 -0.010603927 0.0069604893 -0.002756396
-0.045594495 -0.004531888 0.035779387 -0.048092656 -0.028150775 -0.01674257 0.03081855 -0.000642235

cnn.conv_layer.3.adn.N.weight f4 [64]
00000000: 431b 803f 513c 803f 1c1f 803f 90d6 7f3f
00000010: 7c29 803f b3df 7f3f 0f2f 803f bdf9 7f3f
00000020: 94cb 7f3f a02e 803f 4831 803f 1b9b 7f3f
00000030: 5476 7f3f 3e16 803f 1506 803f bffa 7f3f
00000040: e793 7f3f 593a 803f 4682 7f3f ac03 803f
00000050: d30f 803f f9a7 7f3f b734 803f 1a04 803f
00000060: 2d3f 803f e515 803f 6694 7f3f 0514 803f
00000070: a4a2 7f3f 5797 7f3f bbc5 7f3f 65ad 7f3f
00000080: 9117 803f 2a36 803f c882 7f3f cce0 7f3f
00000090: d385 7f3f 3a09 803f e72e 803f 5ecb 7f3f
000000a0: 0ca7 7f3f adc7 7f3f db9c 7f3f af47 803f
000000b0: e392 7f3f f917 803f 14b5 7f3f 3982 7f3f
000000c0: f434 803f 1ca4 7f3f 382d 803f 7032 803f
000000d0: f8e9 7f3f fa33 803f 7837 803f ef85 7f3f
000000e0: f5ee 7f3f f7c9 7f3f 559a 7f3f 79f9 7f3f
000000f0: 05ab 7f3f e945 803f 5c19 803f 563c 803f
1.000832 1.0018407 1.0009494 0.9993677 1.001266 0.9995071 1.0014361 0.99990445
0.9992001 1.0014229 1.001504 0.9984605 0.9978993 1.0006788 1.0001856 0.99991983
0.99835056 1.0017806 0.99808156 1.000112 1.0004829 0.9986568 1.0016087 1.0001252
1.001928 1.0006682 0.99835813 1.000611 0.99857545 0.998403 0.9991109 0.99873954
1.0007192 1.001653 0.9980893 0.9995239 0.99813575 1.0002816 1.0014313 0.9991969
0.9986427 0.99914056 0.9984872 1.0021876 0.99833506 1.0007316 0.9988568 0.9980808
1.001616 0.99859786 1.00138 1.0015392 0.99966383 1.0015862 1.0016928 0.9981374
0.99973994 0.9991755 0.99844867 0.9999004 0.9987033 1.0021335 1.0007739 1.0018413

cnn.conv_layer.3.adn.N.bias f4 [64]
00000000: 0b20 a3b9 4757 e03a d75d db3a 84bf 2338
00000010: fb86 b73a f9e0 82ba 3078 d73a b2ba b1ba
00000020: 7e7f dfba c131 96b9 86ac 9f3a 7d79 c2ba
00000030: 6a48 18bb 91c8 bb3a 6ccf b6ba 5823 c939
00000040: 25b1 e9ba 68d5 d93a 8274 eeba 8cdd 09b9
00000050: 42e5 883a 7499 ceba 12fa f43a 8d64 bc39
00000060: 0952 e13a 3cc6 2b3a 6e1a daba 6abb 833a
00000070: d601 423a 0940 e5ba e45b 92ba 93a4 25ba
00000080: e6b9 aeb9 f61a e23a d67e f9ba a8de 823a
00000090: 5817 fbba 66a6 be39 7565 ee3a 37cc 7dba
000000a0: ee5f b7ba 16d9 07ba 433d c7ba 2dbe 0d3b
000000b0: 02ba f9ba e4a6 533a 76e3 e4ba c0cb deba
000000c0: 3bf4 bb3a 8a92 afba a9d2 c73a 421f d13a
000000d0: 8c9f 953a bf4e 4b3a e072 833a 7949 f0ba
000000e0: c5d4 cc39 41d5 8eba b42b 80ba c58c 5aba
000000f0: 717b b2ba 6886 a43a e593 4bba b7a8 dc3a
-0.00031113657 0.0017115854 0.001673634 3.904059e-05 0.0014002019 -0.000998526 0.0016439017 -0.0013559668
-0.0017051545 -0.000286473 0.0012182153 -0.0014837232 -0.0023236522 0.0014326741 -0.0013947315 0.0003836404
-0.0017829282 0.0016619386 -0.0018192681 -0.00013147871 0.0010444301 -0.0015762285 0.0018690249 0.0003593307
0.0017190586 0.00065526715 -0.0016639957 0.001005036 0.0007400786 -0.0017490397 -0.0011166302 -0.0006318774
-0.0003332637 0.0017250467 -0.0019034992 0.000998457 -0.0019156737 0.000363636 0.0018188196 -0.00096816145
-0.0013990381 -0.00051821896 -0.0015200753 0.0021628246 -0.0019052627 0.000807388 -0.0017462808 -0.0016997978
0.0014339754 -0.0013395112 0.0015245277 0.001595475 0.0011415347 0.00077555695 0.0010028742 -0.0018332443
0.00039068438 -0.0010897295 -0.000977865 -0.00083370163 -0.0013617111 0.0012552263 -0.00077658735 0.0016834949

cnn.conv_layer.3.adn.N.running_mean f4 [64]
00000000: 0f6d 493c c163 433e 0a21 833d 4d6b d33d
00000010: 675c 3d3e ef61 913d ff7d 1abe f1ea 293e
00000020: b29c 2c3e 014a 843d 846a 89be 6459 853e
00000030: 6c4d f7bd 646c 1abe b395 55be 3df5 2b3e
00000040: 94f6 4cbd e39e ba3e 564a 11be afbf 13be
00000050: ea8b 97bd dc31 f3bd 4687 51be 3532 a5be
00000060: 1ed9 4f3e fb79 bdbd a528 d1bd 3e0a ab3e
00000070: c0b9 763e ce80 893c 5f92 14be 3846 313e
00000080: e586 4fbe c8d9 75be 15cd c7be 647c 12be
00000090: 4463 903e 9d5c 5b3c 08b0 a53c 46b4 913c
000000a0: bc06 b53e 69c6 81be 4333 063f d225 393e
000000b0: 5410 ce3d fdba 063e 1e34 103e fc82 8bbe
000000c0: 01c0 e43d ea87 193b cb8f 713e cc5b a1be
000000d0: 2648 a0be 75e0 863d fe93 e2bd baac acbe
000000e0: 3705 81bd 6ab8 08be 687f 2f3d c75a 263e
000000f0: 8146 20bd 6974 b2bd 474d 693e c675 4dbe
0.012294068 0.19081022 0.06402786 0.103232004 0.1849228 0.070987575 -0.15087126 0.1659353
0.1685665 0.064594276 -0.26839077 0.26044762 -0.12075314 -0.1508041 -0.20857887 0.1679277
-0.050039843 0.36449346 -0.14188513 -0.1442859 -0.07399733 -0.11874744 -0.20461759 -0.32264867
0.20297667 -0.092517816 -0.102128305 0.33406252 0.24094296 0.016785052 -0.14508961 0.17311943
-0.20266302 -0.24008858 -0.39023653 -0.14305264 0.28200734 0.01338878 0.02022554 0.017786156
0.353567 -0.25346687 0.5242197 0.18080834 0.10061708 0.13157268 0.14082381 -0.2724837
0.11169434 0.0023426958 0.23590009 -0.31515348 -0.31305045 0.065857805 -0.110633835 -0.3372553
-0.06299823 -0.13351598 0.042846113 0.16245566 -0.039129738 -0.0871361 0.22783385 -0.20064458

cnn.conv_layer.3.adn.N.running_var f4 [64]
00000000: 5e1a 103e fe57 b13e 1a1e 163e a718 a53e
00000010: c65e 413e a4cb 133e 1cb2 403e 5340 483e
00000020: 4aa4 b23e 69ce 653e 0af2 ca3e 3b94 b73e
00000030: 03f4 853e 64ca 023e db5f 833e 4b12 753e
00000040: 93b3 283e 9f24 7b3e 6091 a13e 673d 223e
00000050: 3a8f 353e 1ac7 243e b7f6 0d3e 1539 1f3e
00000060: 7853 a03e 85ba 5a3e 2484 de3e 4d53 243e
00000070: ebd7 2c3e 9cfd 083f eec9 1d3e 3766 853e
00000080: 527e 493e f4ee 763e b78e bb3e a4e7 193e
00000090: 1758 593e a6c8 0b3e dea5 313e 3cb5 0f3e
000000a0: 1cad 6d3e 28c5 5c3e 155d b13e 378b 2e3e
000000b0: c40e ca3e f67e dd3e d9e4 793e cc41 963e
000000c0: 3312 983e 0419 413e 5244 9e3e d32b 2b3e
000000d0: c77d b83e cc3f 583e b432 903e a48d da3e
000000e0: bf46 1a3e 6f33 033e 7ffa 2d3e c06a a23e
000000f0: a219 813e 7791 503e f29f 313e 51d7 5e3e
0.14072558 0.34637445 0.1465992 0.3224537 0.1888381 0.14433151 0.18817943 0.19555788
0.34890968 0.2244202 0.39637786 0.35855278 0.2616273 0.12772518 0.2565907 0.2393276
0.16474752 0.24525689 0.31556225 0.15843736 0.17730418 0.16091576 0.13863645 0.15549119
0.31313682 0.21360214 0.4346019 0.16047402 0.16879241 0.5351198 0.15409061 0.26054546
0.19677094 0.24114591 0.3663232 0.1502977 0.2122501 0.1365076 0.1734843 0.14033979
0.23210567 0.21559584 0.34641328 0.17045294 0.3946439 0.43260926 0.24403705 0.29347074
0.29701385 0.18857199 0.309115 0.16715936 0.3603346 0.21118087 0.28163683 0.42686188
0.1506605 0.12812589 0.16990088 0.3172207 0.2521487 0.2036799 0.1734617 0.21761824

gru.gru.weight_ih_l0 f4 [192, 512]
00000000: 05ae 1d3d 2aec 08bc 3aef e43d 31c8 b9bc
00000010: 6d5d e43d 8264 a9bd cd49 6ebc 876a 263d
00000020: 2111 f53d 7ec1 bbbd 596a 71bd f36c f1bb
00000030: 8fc1 943d d5b8 98bd 2f25 f2bd 7c5a 923d
00000040: 79f1 babc 2cfe 6cbd 0693 41bd bdd5 213d
00000050: 061b 973c 90b3 0d3d 3508 ee3d 4957 3dbd
00000060: c05b 503d 56e4 df3d 456a 91bd b861 a23d
00000070: 7a2e 8ebd 5c03 a03d 2bd4 e9bd e5db 82bc
00000080: d645 b5bd 6a3d 1d3d 2267 fd3d d824 f23d
00000090: 52e0 e63d 2c4f f9bd 88ae ccbd 3e35 db3c
000000a0: 31a1 793d a827 bebd abae 4d3d f1b2 d5bb
000000b0: 4261 47bd 23fc b33d b02d fbbb 0f3e 9dbd
000000c0: b7b1 da3d 1e96 b63d e0f1 bfbd 403f 68bc
000000d0: db94 ccbd 834f f1bd 555a 8e3d 1a30 023c
000000e0: 1ee1 af3d 8b73 f0bd 4e96 783d f899 b63c
000000f0: 316b 9bbd 8dad c0ba cfc4 6cbc 6946 8bbc
00000100: 3974 ac3d 5536 fbbc 37fc adbd bc54 fa3b
00000110: 6be2 a73d 5b25 2dbd 0b25 8a3d a2c5 e73c
00000120: 812d 98bd 6398 5e3d 4572 fd3d fe8d 4fbd
00000130: d1c6 ddbd 48e5 44bd 0ccb 123d 8e59 c03d
00000140: a114 adbd 7c7e 353d 0a89 f4bc 2105 c7bc
00000150: 3b00 05bd 9d18 e7bd 5872 8f3b 7332 35bd
00000160: d8be 2ebc 808b aa3d c9cf 443d 5ed9 2e3d
00000170: bf3d bdbc 7762 0c3d 0b90 c73d fb29 74bd
00000180: 4c3b d63d 07a9 ccbc 9940 ae3d 28ae e53d
00000190: 0aa5 a53d 6adc f9bd ede0 173c d154 52bd
000001a0: 2f70 f33d 5a57 f6bd ba0f a73d 83af 113d
000001b0: 23b1 abbd 9c95 003e 3dd2 70bd b232 0ebd
000001c0: 72cc 5839 0eec 853c 3e91 9dbb 9bea ca3d
000001d0: eb4a 013e 9a1d 77b9 99c6 cbbd ac3b a9bc
000001e0: ef44 ed3d 2c0d 84bd b05e a43a c97b 513d
000001f0: ddfb 88bd ff50 843d 484a efbd 5579 9abd
00000200: 477f d53d c19b 503d e519 fabd 804e 1a3c
00000210: 2f39 9f3c 670b 9c3b 4412 d3bd 3c87 d73d
00000220: 65eb cdbd 4981 333c b195 9cbd b6bf a23d
00000230: cd51 5b3b 2690 2fbd de2a 993d b474 ce3d
00000240: adbd 533d 5d77 fa3b ca16 cd3d 3986 c7bd
00000250: b053 c33d 5d62 7d3d ecf1 e33c d244 efbd
00000260: 7ead c23d 25d7 e7bd e8bd 19bd 9908 bdbd
00000270: 76f5 333d 9085 b9bd 3d66 77bc b19f a2bc
00000280: 975d bd3d ff7b a23d e142 b1bd cb9b b33d
00000290: e518 793c 9d24 a5bd f907 25bd dfad 1fbd
000002a0: ea06 8f3d b9a7 d8bd 6632 5bbd ffc2 8bbd
000002b0: d880 b93d e3f1 e73d 9a6f fbbc 8993 343d
000002c0: e585 d5bd 60ad f03d f6e7 64bd ce30 bdbd
000002d0: cc2b c13c eb46 efbd 5287 fcbd d03b c63d
000002e0: 4176 ee3d 9b90 0d3d 6a97 d43c 28d5 0ebd
000002f0: 85ab 1cbc 081b 8c3d de2e ecbd 86dc a5bd
00000300: 465d 5f3d 51b3 993d 4a54 87bd c40a c6bd
00000310: a720 373d c024 9e3d ec92 e3bd 4e0a 593d
00000320: cb68 56bc d1d4 483d 7b71 b33d 91c4 733d
00000330: d5e8 f03d 2230 d5bc 2d57 543d 4f12 843d
00000340: 858c 303d 00a5 a23c f07f ffbc df21 a63b
00000350: 0016 393c 6cd9 13bd fdb3 82bd a803 f8bd
00000360: 80c3 dbbd 9710 dfbd ef74 dc3d 3686 fc3d
00000370: 4af0 25bd b08d a9bd 8ae4 a23c c663 933d
00000380: 420a aabc f78d b73b 6579 943d 90a9 e03b
00000390: 551a b6bd cc21 d7ba c058 25bd 30ec 383d
000003a0: 9aa8 973d 49f1 b3bd f883 c03c cda6 c63d
000003b0: 5547 8abd dbf9 d6bc 1c85 86bd 68af ca3d
000003c0: 4325 f1bd 9417 aa3d ad8c 253c b810 223d
000003d0: 7126 cabd bd63 373d 36c7 a5bd 1e4f 5b3d
000003e0: 44b9 e2bd 69ce f23d 1d4a 21bd 781b 5a3c
000003f0: b1da 6b3c 214e 0c3c 9e08 a73d 4003 12bd
0.038496036 -0.008357087 0.11178441 -0.022678467 0.11150632 -0.082711235 -0.014543963 0.040628936
0.11966158 -0.09167765 -0.05893931 -0.007367724 0.07263481 -0.07457129 -0.118234985 0.07146165
-0.022820221 -0.057859585 -0.047259353 0.039510477 0.018445503 0.034595072 0.11622659 -0.04622582
0.05086875 0.109322235 -0.071003474 0.079287946 -0.069424585 0.07813141 -0.11417421 -0.015973995
-0.08851211 0.038388647 0.12373187 0.11823434 0.112732545 -0.12173304 -0.09994227 0.026758786
0.06094474 -0.092849076 0.050215404 -0.0065215756 -0.048676737 0.08788326 -0.0076653585 -0.07677852
0.10678428 0.08915351 -0.09372306 -0.014175236 -0.099893294 -0.11782744 0.06950823 0.007946039
0.085878596 -0.11740788 0.060690217 0.022290215 -0.075888045 -0.001470016 -0.01445122 -0.017001348
0.08420605 -0.030665556 -0.08495372 0.0076394957 0.08197483 -0.042271953 0.06745347 0.02829248
-0.07430554 0.054344546 0.12375311 -0.050672524 -0.10828937 -0.048070222 0.03583817 0.09392081
-0.084512 0.044310078 -0.029850502 -0.024294438 -0.032470923 -0.112839915 0.0043776445 -0.044237565
-0.010665618 0.08327389 0.048049722 0.042687766 -0.023100732 0.03427359 0.09744271 -0.05961035
0.10460529 -0.024982942 0.08508415 0.11214858 0.08088119 -0.12200244 0.009269935 -0.05135042
0.11886632 -0.1202838 0.081572965 0.03556777 -0.083833955 0.12557071 -0.05879425 -0.034716316
0.00020675527 0.016347911 -0.004808574 0.09908029 0.12626235 -0.00023566783 -0.09949989 -0.020658337
0.11585414 -0.06447825 0.0012540426 0.05114344 -0.06688664 0.06460761 -0.1168409 -0.075426735
0.10424667 0.05092979 -0.1221197 0.00941813 0.019436447 0.0047621015 -0.10306218 0.10523841
-0.100546636 0.010956117 -0.07645739 0.07946722 0.0033465505 -0.04286208 0.074788794 0.10080853
0.05169456 0.0076436237 0.10014112 -0.09742398 0.095374465 0.061861385 0.027825318 -0.11683048
0.09505747 -0.113203324 -0.037534624 -0.092301555 0.04393526 -0.09058678 -0.015100059 -0.019851537
0.092463665 0.07933807 -0.08655334 0.087699495 0.015203689 -0.08063624 -0.040290806 -0.038984176
0.06983741 -0.105788656 -0.05351486 -0.06824302 0.09057778 0.11325433 -0.030692864 0.044086013
-0.10425929 0.11751819 -0.055885278 -0.092378244 0.023580454 -0.116834484 -0.12330498 0.09679377
0.11643649 0.034561735 0.025951106 -0.03487125 -0.009562378 0.06841093 -0.11532377 -0.08098702
0.05453231 0.07504905 -0.06607874 -0.09670022 0.044708874 0.07721853 -0.111120075 0.052988343
-0.013086508 0.049031083 0.08761879 0.059513632 0.11763159 -0.026023928 0.05184095 0.064488046
0.04310276 0.019854069 -0.031188935 0.0050699557 0.011296749 -0.03609602 -0.06381986 -0.121100724
-0.10730648 -0.10891836 0.10764491 0.12330286 -0.04051236 -0.08278978 0.019884367 0.07196765
-0.020756844 0.0056016403 0.07249717 0.006856151 -0.08891741 -0.001641327 -0.04036784 0.04514712
0.07405205 -0.08786256 0.023500428 0.096997835 -0.06751887 -0.026242187 -0.06568357 0.09896737
-0.11774685 0.083052784 0.0101043405 0.039566725 -0.09870613 0.044772852 -0.08094637 0.05354225
-0.11070493 0.11855776 -0.03937732 0.013312213 0.014395402 0.008563549 0.081559405 -0.03564763

gru.gru.weight_hh_l0 f4 [192, 64]
00000000: bf79 39bd 3b40 90bd cd21 c1bd 2791 5f3c
00000010: e085 0a3c 525b f3bd c472 cdbd 314b 9bbd
00000020: 1065 94bd f496 ed3d ecd2 793b 9c9b 123d
00000030: f341 23bd 707b c53d 9f1b dcbd b72b bb3d
00000040: 3510 d2bd e2b2 763c 22e0 df3c 3f5b 34bd
00000050: 2149 35bd f060 c43d 1f2a e13b 9adc 3abc
00000060: ab2c 0d3c e815 23bd d775 9a3d bb43 293c
00000070: e578 853d a68f e3bd 5a30 4d3d 503d 433d
00000080: 59f9 ce3d e291 e73d eee1 8abc 381f cd3d
00000090: a569 4c3d 65cd 933d d21f 56bb 73da aabd
000000a0: edcc 9cbd 8d4c 093c b977 b8bd ff49 d73d
000000b0: 75d0 e93d 216a 0a3d 7bb8 58bd 1c6b cf3d
000000c0: b235 263d 4a38 ac3b 754f 90bd 3254 0b3d
000000d0: 0494 933c 0ada c33d 7479 e2bd fe38 463d
000000e0: df0e 973d 1a44 3dbd 965c f03d 80ec adbd
000000f0: 406c 773d a40f 8039 7ba6 0dbd 0665 c7bc
00000100: 5fcd abbd 8798 e1bc 9ac4 123d 17a4 abbd
00000110: 64e7 3dbd 5e61 83bd 34ad 883d 9366 48bd
00000120: 4167 c1bd 8cdb bfbd 5dd0 e3bd da84 903d
00000130: b96b 3fbd 7be6 b93c 0636 c93d 2918 423d
00000140: 367c 91bd 92e0 ef3d ed90 83bd 6e08 8ebd
00000150: f476 febd cb65 fcbc 8611 613d b90b d5bd
00000160: cbec ec3d 7a1e 6d38 9d87 933d de66 ba3d
00000170: ca19 2bbd 5839 8dbd 4cfc 45bd 2e8b 5ebd
00000180: 61be 833d 034b ef3b 7e43 6bbd 96b9 27bd
00000190: 16fd a8bd f19a 913d c41a 91bd 10b3 95bb
000001a0: f075 83bc a71a c739 0368 a43c 6f1b 82bb
000001b0: 379f bc3c abd1 e6bd 240c 023d 2665 e3bd
000001c0: e0b0 143d 2ebe 913d f59d 123c 970f 39ba
000001d0: fc88 f4bd 5d4e cdbc 9326 0ebd 2c4e e73c
000001e0: 5a60 a23d ebf2 2abd 87c7 b1bc 0c3f e23c
000001f0: ed14 ac3d c8eb 91bd ca35 ca3d 8c62 0dbd
00000200: 4386 73bd 0001 d63d fb54 b93d a683 cb3d
00000210: 1443 71ba 3181 ecbd 1152 20bd 39e5 b8bd
00000220: 4816 fdbd 591b acbd 487a a03d 7bf1 f7bd
00000230: 966a aa3d 48f0 293d 6844 1bbd 0d59 b0bd
00000240: 8af2 d33d 3a9c e1bd 5094 fa3d 5c20 fabd
00000250: ffc4 3bbc ee5d 3c3c 8d8a 5fbb f32b 0dbc
00000260: d4bd 3bbd a43d 893d 4bea 9cbd 7f94 2b3b
00000270: f4c5 98bc e14e 9fbc 4049 d53d ba7c c6bd
00000280: cbd8 313b 47d5 bc3d ce4d f93d 8335 d03c
00000290: ae9c cbbd a05f fcbc f873 c5bd 814c 9dbd
000002a0: b1c1 f13b beef 783d e016 553b 0359 4abd
000002b0: a2a7 fc3d cb87 87bd b6d5 c6bd 685b 793d
000002c0: 1e6f 633d 186c 5ebd e7ce 22bc 67eb d13c
000002d0: 76d4 e5bd 6405 c73d 95e5 693d 0dc1 ce3c
000002e0: 2fe2 e2bc cd25 00be f0c0 d4bd da3f 95bd
000002f0: aa9e 1bbd 8b68 cfbd ba42 24bd fa7c c33b
00000300: 6c66 9a3d 63ab 083b de6e 9f3d 3497 a5bd
00000310: 0a88 743b 3661 f63c cbf7 24bd 108f dabd
00000320: c9ef e2bd bf87 e4bd 07c3 f5bd 0647 e5bd
00000330: f11f adbd d1bd bfbd 4e48 23bd 5e85 cf3d
00000340: cc99 ad3c 3143 21bc 28b7 843d 36d0 cebd
00000350: 5b7e b9bc b827 363d e3f2 883d 3b8e e6bd
00000360: 7d62 9f3d fd85 27bc 4856 c63d 64ef c03d
00000370: 87ca e0bd 1f78 8a3d 2642 d8bc 560b dfbd
00000380: c77b f03d aaf3 b03d 63d5 ec3b 0d21 983d
00000390: b995 123d 73a3 9dbd 3080 2c3c 4d2c 913d
000003a0: a21e 8fbd e218 c93d 324d cdbd 3b28 dfbd
000003b0: f336 b63d c88d 50bd c9c8 0a3d 48ea beba
000003c0: 41aa 943c f307 9dbd 5fde 1e3c 40e8 2a3d
000003d0: 0fcf 81bd b107 d43c 4d58 963c 830b bcbd
000003e0: 5d78 febd 5c05 5d3d 4d78 17bc fb7a 08bc
000003f0: 43ac 013d b978 3ebd 869d 5abd ede4 ec3d
-0.04528212 -0.07043501 -0.09430275 0.013645447 0.00845477 -0.11882652 -0.100316554 -0.07582701
-0.07245839 0.11601058 0.0038120104 0.035792932 -0.039857816 0.096426845 -0.10747456 0.09139197
-0.102569975 0.015057297 0.027328555 -0.04403233 -0.044259194 0.09588802 0.0068714763 -0.011405135
0.008616607 -0.039815813 0.075420074 0.01033109 0.065171994 -0.11111383 0.05009494 0.047665894
0.10106153 0.11307122 -0.016953435 0.1001572 0.049905438 0.0721691 -0.0032672775 -0.08342447
-0.07656274 0.008380068 -0.0900721 0.105121605 0.11416713 0.03379262 -0.05291031 0.10127851
0.04057855 0.0052557336 -0.07046405 0.03401584 0.018014915 0.09563072 -0.110583216 0.048394196
0.07375883 -0.046207525 0.11736409 -0.084923744 0.06040597 0.00024425716 -0.034582596 -0.024340164
-0.08388781 -0.027538551 0.035832025 -0.08380907 -0.04636325 -0.06415056 0.06673661 -0.048925947
-0.09443522 -0.09368047 -0.111237265 0.070565894 -0.04673359 0.02269291 0.09824757 0.047386322
-0.071037695 0.11712755 -0.06424127 -0.069352016 -0.12425032 -0.030810257 0.054948352 -0.104026265
0.11568602 5.6533587e-05 0.072036006 0.091016516 -0.04177264 -0.06895703 -0.048336312 -0.05433195
0.06432796 0.0073026433 -0.057437412 -0.040948473 -0.08251397 0.07109631 -0.07085183 -0.004568465
-0.016047448 0.00037976095 0.020069128 -0.0039705555 0.023025138 -0.1127046 0.03174986 -0.11103277
0.036301494 0.07116352 0.008948793 -0.0007059513 -0.1194019 -0.02506178 -0.034704756 0.028235517
0.07928534 -0.04173557 -0.021701587 0.027617954 0.08402429 -0.0712505 0.09873541 -0.03451781
-0.059454214 0.104494095 0.09049412 0.09937219 -0.0009203416 -0.11548079 -0.039140765 -0.09028096
-0.123577654 -0.08403654 0.07835823 -0.121066056 0.08321111 0.041488916 -0.037907034 -0.08610735
0.10348995 -0.11016126 0.122353196 -0.12213203 -0.011460542 0.011497004 -0.0034109682 -0.008616435
-0.04583533 0.0670121 -0.07661875 0.002618104 -0.018649079 -0.019446792 0.10414362 -0.096917585
0.0027137275 0.09220367 0.12173043 0.025416141 -0.09941994 -0.030807316 -0.0964126 -0.076806076
0.007377826 0.06077551 0.0032514855 -0.049401294 0.12336661 -0.06617697 -0.09708731 0.060878187
0.05552589 -0.054302305 -0.009937025 0.025624944 -0.11222164 0.09717825 0.057103712 0.025238538
-0.027695743 -0.1251442 -0.103883624 -0.07287569 -0.03799311 -0.10127362 -0.040102698 0.005965826
0.07539067 0.0020854108 0.07784818 -0.0808548 0.003731253 0.03007565 -0.040275376 -0.10671818
-0.11080892 -0.11158704 -0.12000089 -0.11195187 -0.08453358 -0.093623765 -0.039863877 0.1013286
0.0211915 -0.00984268 0.06480247 -0.10098307 -0.022643259 0.044471473 0.06686952 -0.11257597
0.07782457 -0.010224816 0.096844256 0.0942066 -0.10976129 0.067611925 -0.02639873 -0.10890834
0.11742359 0.08640225 0.007227586 0.07428179 0.035787318 -0.07697191 0.010528609 0.07088528
-0.069882646 0.09819199 -0.100244895 -0.10896345 0.088971995 -0.050916463 0.03388289 -0.0014565671
0.01814759 -0.07667532 0.009696572 0.041725397 -0.063383214 0.025882574 0.018352652 -0.09181883
-0.12425301 0.05396019 -0.009244991 -0.008330102 0.031658422 -0.04650185 -0.053372882 0.11567102
