model_fmri_pre_20_ep_2022-10-27T22:43:39.557191/best_metric.pth (torch, 561209 bytes, 32 tensors)

cnn.conv_layer.0.conv.weight f4 [8, 1, 2, 2, 2]
-0.06913258 0.26742396 -0.10808361 0.24429594 0.254833 -0.13558361 0.00035308822 0.07024034
0.29098046 0.18345042 -0.10251655 -0.10563193 -0.30494854 -0.22707285 0.102520585 0.3055551
0.051452253 -0.26260498 -0.32395726 -0.06709353 0.15292583 -0.23209783 0.17993556 -0.20050235
-0.09645987 -0.16418508 -0.13574898 -0.28094232 -0.1564367 0.08706077 -0.04436063 -0.27707303
-0.12490867 -0.17168252 0.01042645 0.2947178 -0.23633786 0.24395202 0.22311372 0.15379553
0.05198475 0.34494847 0.33279017 0.24405582 0.13034065 0.08615331 0.21350525 0.17821158
0.19216602 -0.080369264 -0.30709317 0.3398124 -0.28724864 -0.08402953 -0.08667779 0.08384211
-0.25333813 0.11838393 -0.15194242 0.1601574 -0.18909957 -0.28278393 0.040490158 0.11372899
00000000: 6295 8dbd cbeb 883e f15a ddbd b728 7a3e
00000010: 7979 823e 6ed6 0abe b31e b939 2bda 8f3d
00000020: 64fb 943e 6dda 3b3e 32f4 d1bd 8e55 d8bd
00000030: 3722 9cbe c985 68be 50f6 d13d b871 9c3e
00000040: 99bf 523d 2974 86be badd a5be 5568 89bd
00000050: 9798 1c3e 0eab 6dbe 0741 383e 7d50 4dbe
00000060: c18c c5bd 2220 28be c801 0bbe acd7 8fbe
00000070: f130 20be eb4c b23d 7eb3 35bd 84dc 8dbe
00000080: 1ed0 ffbd 8bcd 2fbe b3d3 2a3c 40e5 963e
00000090: 8d02 72be 8fce 793e ec77 643e 937c 1d3e
000000a0: f6ed 543d 169d b03e 7963 aa3e c5e9 793e
000000b0: 0578 053e 2671 b03d 1fa1 5a3e 197d 363e
000000c0: 2bc7 443e a498 a4bd 513b 9dbe e4fb ad3e
000000d0: 4112 93be ad17 acbd 2084 b1bd 6ab5 ab3d
000000e0: 89b5 81be 4673 f23d cb96 1bbe 4d00 243e
000000f0: 51a3 41be 0ec9 90be 02d9 253d bfea e83d

cnn.conv_layer.0.conv.bias f4 [8]
-0.28351283 -0.0038666148 -0.1068648 0.23545475 -0.13568208 0.12816873 -0.34935236 -0.2010898
00000000: 9828 91be 0867 7dbb efdb dabd 0d1b 713e
00000010: 3ef0 0abe aa3e 033e 50de b2be 7cea 4dbe

cnn.conv_layer.0.adn.N.weight f4 [8]
0.9989429 1.000911 0.9992433 1.0008854 1.0008329 0.99998873 0.9989054 1.0007792
00000000: b9ba 7f3f da1d 803f 69ce 7f3f 031d 803f
00000010: 4b1b 803f 43ff 7f3f 44b8 7f3f 8819 803f

cnn.conv_layer.0.adn.N.bias f4 [8]
-0.0009598441 0.00091393274 -0.0010249414 0.0007241503 0.00042681905 0.0002530071 -0.0010191083 0.00091469963
00000000: 0c9e 7bba fd94 6f3a 5457 86ba e7d4 3d3a
00000010: afc6 df39 0aa6 8439 9a93 85ba 74c8 6f3a

cnn.conv_layer.0.adn.N.running_mean f4 [8]
-0.22899254 -0.0043367 -0.07971883 0.19490013 -0.11060321 0.08976008 -0.27573603 -0.1564526
00000000: 057d 6abe e01a 8ebb a043 a3bd e693 473e
00000010: f083 e2bd 22d4 b73d 462d 8dbe 1c35 20be

cnn.conv_layer.0.adn.N.running_var f4 [8]
0.3728838 0.22963847 0.5159503 0.8840011 0.3211048 1.6915996 0.25332668 0.33956358
00000000: a0ea be3e 5926 6b3e 5215 043f e54d 623f
00000010: d967 a43e 5686 d83f 09b4 813e 47db ad3e

cnn.conv_layer.1.conv.weight f4 [16, 8, 2, 2, 2]
0.025199013 0.022323566 -0.009938438 0.104937054 -0.019957567 -0.052426785 0.036862127 0.044335276
-0.05530304 -0.1095302 0.060650326 0.018814296 -0.003170193 0.124952555 0.08513642 -0.10451616
-0.0840801 -0.07632631 0.123488605 0.0004990595 0.05894205 -0.0815806 0.07275466 -0.08414654
-0.054282196 -0.06504643 -0.035425965 0.04335971 -0.066974446 -0.013281271 0.0720139 0.06882914
0.08549657 -0.11013366 -0.025833756 0.074516065 -0.1008428 0.020234922 0.009786473 0.109803386
0.08918299 -0.078535244 0.04724004 -0.025797551 -0.011125129 -0.031467535 -0.048172694 0.09627493
0.04004696 -0.038084876 0.011619924 0.101126 -0.04418099 0.098381415 -0.04487277 0.0182991
-0.08680836 0.10853426 -0.028656986 -0.10162452 -0.046925288 -0.032683562 -0.05955477 -0.04983136
0.0048463973 -0.10888135 0.07649898 0.07797419 0.080580644 -0.08636387 -0.00028274657 -0.06262063
0.05782259 0.00156339 -0.095384955 0.023780726 0.003188343 -0.041866805 -0.038692415 -0.112647645
-0.050816167 0.058053907 -0.05569005 -0.10772977 0.05337476 0.09094188 0.10826591 0.018991133
0.08231597 -0.121022984 0.04134221 -0.0054844483 -0.043844 -0.06803231 -0.0015919206 -0.0106843645
0.10136216 -0.015890107 0.087568656 -0.03683823 -0.023122702 -0.029056687 -0.044676613 -0.10757871
-0.024884777 -0.046534486 0.061498173 -0.08572057 -0.091590434 0.06805658 0.058326423 0.032644268
-0.003914436 -0.068699166 0.08623675 0.04626881 0.081738465 -0.009335591 0.123536125 0.077869415
0.0660453 -0.12033447 0.0076835677 0.019914402 0.029031854 -0.09119185 0.11566952 0.0075445063
0.018703572 -0.021769485 -0.11616424 -0.014099882 -0.020638358 -0.020658765 -0.021602364 -0.017278422
0.015914569 -0.05657007 -0.08898143 0.06142194 -0.075226575 -0.053443145 0.024862478 -0.076532744
0.09701721 -0.0012318628 -0.026508804 -0.020451859 0.059600532 0.12234883 0.030283106 -0.03963624
-0.032974545 0.028429892 0.015409519 -0.1179258 -0.03207625 0.1228042 -0.01254327 0.12240029
-0.078023545 0.031286925 -0.0047400496 0.010475564 -0.0060308552 0.05542624 -0.05661544 0.056707654
0.0076550567 -0.04389513 0.057526298 0.116762966 -0.058684047 -0.10770584 -0.07281911 0.007589763
-0.057832796 -0.09917501 0.010434097 -0.06079766 -0.07258506 0.09027876 -0.010530341 -0.08269125
-0.036706597 0.078237504 -0.021005305 0.05566607 -0.08514356 0.07962355 0.08811204 -0.11865095
-0.01837896 -0.073869556 0.0641803 -0.0677419 0.09990136 -0.11325947 -0.035409037 -0.07530068
-0.11108168 -0.06357188 0.059377886 -0.06409242 0.073863395 -0.033609483 0.12095876 -0.06528772
0.044616412 0.07336738 0.045845333 -0.080132514 -0.092745915 -0.113438874 0.003372503 0.07065666
-0.08910888 0.072615534 -0.012538458 -0.05124191 0.025401063 0.07690197 0.055142347 -0.10668213
-0.05854891 -0.09723368 0.05940813 -0.089013316 -0.11076283 -0.010352443 0.06807757 0.006022927
0.071369015 -0.000111470836 -0.01556945 -0.0027646609 -0.11141407 0.083738685 -0.040577248 0.08835359
-0.042689044 -0.056752108 -0.010588548 0.10004736 -0.013944247 0.098198146 0.018376997 0.067217
0.1110167 0.03770968 0.11918082 0.05901662 0.10033743 -0.0335976 -0.121935025 0.06259068
00000000: 296e ce3c e9df b63c d5d4 22bc 3de9 d63d
00000010: 0d7e a3bc 78bd 56bd befc 163d e898 353d
00000020: 7185 62bd 5f51 e0bd 7a6c 783d 7020 9a3c
00000030: 03c3 4fbb 20e7 ff3d 015c ae3d 920c d6bd
00000040: 3032 acbd f850 9cbd 98e7 fc3d 51d3 023a
00000050: 386d 713d bb13 a7bd 6500 953d 0555 acbd
00000060: 0257 5ebd 1037 85bd d11a 11bd f499 313d
00000070: e629 89bd b099 59bc 067c 933d 4bf6 8c3d
00000080: d318 af3d c28d e1bd 50a1 d3bc e19b 983d
00000090: ac86 cebd b5c3 a53c 7157 203c 99e0 e03d
000000a0: 92a5 b63d 16d7 a0bd c67e 413d 6355 d3bc
000000b0: 2c46 36bc 1ae4 00bd bb50 45bd ca2b c53d
000000c0: 4808 243d e3fe 1bbd 7e61 3e3c 261b cf3d
000000d0: 20f7 34bd 327c c93d 82cc 37bd ffe7 953c
000000e0: 95c8 b1bd 3647 de3d 0ec2 eabc 8420 d0bd
000000f0: bb34 40bd 33df 05bd b4ef 73bd f81b 4cbd
00000100: 87ce 9e3b 2ffd debd 7fab 9c3d efb0 9f3d
00000110: 7707 a53d 8adf b0bd 9a3d 94b9 3f3f 80bd
00000120: 61d7 6c3d aaea cc3a 3059 c3bd cccf c23c
00000130: 85f3 503b 877c 2bbd f07b 1ebd cfb3 e6bd
00000140: 9d24 50bd efc9 6d3d 401b 64bd 6da1 dcbd
00000150: 7e9f 5a3d bd3f ba3d 84ba dd3d 4b93 9b3c
00000160: 4695 a83d e6da f7bd 7356 293d e3b6 b3bb
00000170: c495 33bd 8654 8bbd fea7 d0ba 790d 2fbc
00000180: f796 cf3d f82b 82bc 3257 b33d afe3 16bd
00000190: d26b bdbc 4a08 eebc d3fe 36bd 3a52 dcbd
000001a0: 29db cbbc f29a 3ebd 82e5 7b3d 448e afbd
000001b0: c493 bbbd 4061 8b3d b0e7 6e3d ffb5 053d
000001c0: ab44 80bb 26b2 8cbd e59c b03d 5d84 3d3d
000001d0: 7f66 a73d 4ff4 18bc 8200 fd3d 007a 9f3d
000001e0: c242 873d eb71 f6bd 70c6 fb3b 8723 a33c
000001f0: 36d4 ed3c cbc2 babd 24e4 ec3d e837 f73b
00000200: 3c38 993c eb55 b2bc 84e7 edbd 3103 67bc
00000210: c611 a9bc 923c a9bc 71f7 b0bc 7a8b 8dbc
00000220: 455f 823c 05b6 67bd e53b b6bd 9295 7b3d
00000230: 6410 9abd 33e7 5abd 65ac cb3c 33bd 9cbd
00000240: f6b0 c63d 7576 a1ba fe28 d9bc a88a a7bc
00000250: b01f 743d 0692 fa3d 4714 f83c 9c59 22bd
00000260: 5110 07bd cee5 e83c 3578 7c3c 1583 f1bd
00000270: 6362 03bd c580 fb3d 4a82 4dbc 01ad fa3d
00000280: cfca 9fbd b826 003d 6b52 9bbb b3a1 2b3c
00000290: 7b9e c5bb a006 633d 97e5 67bd 4946 683d
000002a0: 45d7 fa3b 61cb 33bd b2a0 6b3d 6c21 ef3d
000002b0: af5e 70bd e194 dcbd 2f22 95bd 8cb3 f83b
000002c0: 15e2 6cbd 451c cbbd c6f3 2a3c f806 79bd
000002d0: 7aa7 94bd 12e4 b83d 7487 2cbc 085a a9bd
000002e0: a859 16bd fc3a a03d 5113 acbc 1b02 643d
000002f0: bf5f aebd ac11 a33d 1674 b43d 45ff f2bd
00000300: 798f 96bc ec48 97bd f670 833d 44bc 8abd
00000310: 1699 cc3d 95f4 e7bd 1109 11bd 3e37 9abd
00000320: cb7e e3bd f931 82bd 3a36 733d e342 83bd
00000330: b145 973d 19aa 09bd 3ab9 f73d 91b5 85bd
00000340: b3bf 363d a341 963d 51c8 3b3d 841c a4bd
00000350: 92f1 bdbd a452 e8bd 3605 5d3b 70b4 903d
00000360: b77e b6bd 74b7 943d 1b6e 4dbc 09e3 51bd
00000370: e415 d03c c87e 9d3d f1dc 613d 297c dabd
00000380: fbd0 6fbd 7422 c7bd f055 733d 9d4c b6bd
00000390: 9fd7 e2bd 4b9d 29bc 416c 8b3d f95b c53b
000003a0: eb29 923d 73c5 e9b8 0217 7fbc 502f 35bb
000003b0: 0f2d e4bd 307f ab3d 5434 26bd baf2 b43d
000003c0: b5da 2ebd e674 68bd 977b 2dbc a1e5 cc3d
000003d0: 6976 64bc 1c1c c93d 5b8b 963c 11a9 893d
000003e0: b95c e33d 7775 1a3d 1315 f43d 69bb 713d
000003f0: b67d cd3d a39d 09bd 12b9 f9bd 8b2f 803d

cnn.conv_layer.1.conv.bias f4 [16]
0.049859837 -0.045363497 -0.08928537 -0.05477989 -0.114450864 -0.08639715 -0.049809728 -0.1250192
-0.059746865 -0.0062927906 -0.012964102 -0.028535627 -0.09370637 0.09357871 0.078611925 -0.056897543
00000000: d439 4c3d 13cf 39bd 40db b6bd e160 60bd
00000010: 3765 eabd fdf0 b0bd 4905 4cbd 0805 00be
00000020: 21b9 74bd c133 cebb 6367 54bc 8cc3 e9bc
00000030: 20e9 bfbd 32a6 bf3d 4aff a03d 660d 69bd

cnn.conv_layer.1.adn.N.weight f4 [16]
1.0012856 0.99953264 1.000415 1.0005634 0.99980605 0.99902505 1.0008315 1.0000972
1.000089 1.0000845 1.0003939 0.9989694 1.0001395 0.99933386 0.9989549 1.0005379
00000000: 202a 803f 5fe1 7f3f 990d 803f 7612 803f
00000010: 4af3 7f3f 1bc0 7f3f 3f1b 803f 2f03 803f
00000020: eb02 803f c502 803f e80c 803f 75bc 7f3f
00000030: 9204 803f 58d4 7f3f 82bb 7f3f a011 803f

cnn.conv_layer.1.adn.N.bias f4 [16]
0.0008159508 -0.00025805537 0.00046482214 0.00046455994 -0.00082461984 0.00035761268 0.00057178794 0.0006433126
9.8864824e-05 0.0005456689 2.0829146e-05 -0.0006978137 3.136583e-05 -0.00039990284 -0.00043957896 -0.00018383324
00000000: 88e5 553a 9b4b 87b9 5fb3 f339 2e90 f339
00000010: 4d2b 58ba f67d bb39 0ae4 153a faa3 283a
00000020: a655 cf38 380b 0f3a 40ba ae37 7ced 36ba
00000030: ce8e 0338 0daa d1b9 4a77 e6b9 5cc3 40b9

cnn.conv_layer.1.adn.N.running_mean f4 [16]
0.060709357 -0.052712787 -0.28129023 -0.09597094 -0.23194304 0.30985522 -0.022842728 -0.09173905
-0.55153775 0.15262327 0.014588205 -0.10188366 -0.16301093 -0.09949855 0.2714802 0.021371711
00000000: 60aa 783d 5de9 57bd 4605 90be 6a8c c4bd
00000010: 7a82 6dbe 58a5 9e3e ac20 bbbc afe1 bbbd
00000020: 9431 0dbf 4649 1c3e 5e03 6f3c 61a8 d0bd
00000030: 56ec 26be e5c5 cbbd 74ff 8a3e ba13 af3c

cnn.conv_layer.1.adn.N.running_var f4 [16]
0.29214802 0.31877068 0.46660218 0.40842372 0.31764838 0.4349904 0.31819808 0.2387233
1.1377507 0.27595803 0.26064855 0.7078265 0.55532014 0.3006272 0.31867382 0.24958879
00000000: 6d94 953e e935 a33e 7be6 ee3e ea1c d13e
00000010: cfa2 a23e 10b7 de3e dcea a23e e173 743e
00000020: d1a1 913f 5f4a 8d3e ba73 853e 1e34 353f
00000030: 7629 0e3f cfeb 993e 3729 a33e 3494 7f3e

cnn.conv_layer.2.conv.weight f4 [32, 16, 2, 2, 2]
-0.08450424 -0.06890102 0.027916681 -0.036561865 0.018689748 0.025543183 0.027118377 0.079232015
-0.08226363 0.010246033 0.016561236 0.0033005995 0.018823711 0.05251595 0.068422645 -0.00983177
0.0083472105 0.00695693 -0.02780052 -0.07074196 -0.076269984 0.06653324 0.00093390536 -0.00811527
-0.07550088 0.024602024 0.07291872 0.05396667 0.04859069 -0.005131496 -0.07831254 -0.04241838
0.003288228 -0.034465533 0.069702186 0.06351232 -0.0870366 -0.022116184 -0.03534777 0.010710638
-0.0027999177 -0.024646698 -0.037172604 -0.011473685 0.027240882 -0.0853375 0.04244635 -0.046207108
-0.010401126 0.03976555 -0.061366554 0.05999516 -0.07830315 0.04362539 -0.06489348 0.029295038
0.052596398 0.08162502 0.012035159 0.019685127 0.028497592 -0.043187935 -0.08871931 -0.04277743
-0.07950457 0.008462141 -0.052328967 -0.032037895 0.06744507 0.022784283 -0.008658451 0.051161066
-0.011531445 0.07112668 0.06589538 0.060840752 0.025183897 0.05133161 -0.037381515 0.01746246
-0.08564393 0.017472293 0.045668237 -0.031956457 0.0794761 -0.032064885 -0.03221185 -0.089099884
0.03431081 0.034906216 0.035329532 -0.07440663 0.07526339 -0.04736257 0.0048764097 0.062544204
0.08802919 0.038050726 -0.067880124 0.030894091 -0.03742793 0.012765543 0.012239569 -0.07397637
0.027777951 0.06656431 0.06101892 0.013226662 0.003131919 -0.041939963 0.05741575 0.022535225
-0.07961851 0.004584116 -0.051595025 -0.010370363 -0.020373432 -0.066434644 -0.0881498 0.07779785
0.05508093 0.006282809 -0.0716814 0.07339849 -0.086186774 0.00021482694 0.08209899 -0.024150694
0.025130019 -0.08188765 0.046140336 -0.053047158 -0.03911811 0.015032875 0.0067190267 -0.08714225
-0.07225064 -0.014903248 0.043338925 0.052785464 -0.06922904 -0.060162716 -0.040483985 0.07841907
-0.03764913 0.08695395 0.08603911 -0.034318484 0.053329434 -0.06090304 0.008636041 -0.03820573
-0.015387632 0.062341206 -0.057107862 -0.058407966 -0.062238704 -0.014701682 0.01270896 -0.048692517
0.05035774 -0.012008699 0.02495847 0.07340622 -0.055254195 0.023288205 -0.058266815 0.05641828
-0.043881938 -0.07333739 0.026086248 0.020436639 0.0056156074 0.065483175 -0.026837718 -0.03599609
-0.058417354 -0.07040583 0.07773093 0.018422255 0.024529956 0.062496796 0.050571166 0.016947808
0.036793146 0.072691336 -0.0024231337 -0.039213553 -0.0252336 -0.04842453 -0.0302467 0.08351628
-0.013291746 0.040509548 0.019196108 -0.0029589627 0.03808063 0.03500688 0.07853767 -0.042551916
0.024161356 0.06470871 -0.036729947 0.016838552 -0.062461898 0.072835386 0.06382206 -0.055881996
0.00508453 -0.05505046 0.06566327 0.01981932 0.071237594 0.049944613 0.002212239 0.023210265
-0.062401246 0.041468434 0.0099667115 0.06922938 -0.06462458 -0.079247266 0.012824863 -0.08622057
0.0059994534 -0.08786841 0.05383904 -0.0082065705 -0.08747268 0.059139494 0.024870293 0.05610018
0.048834227 0.08157455 -0.0731706 -0.06250544 0.053264108 0.018280055 -0.025154693 0.02766211
-0.03090571 0.048120223 -0.02115601 -0.04949286 -0.070220895 0.0064984574 -0.055152368 0.06394287
0.00788725 -0.032963235 0.032325085 0.018451499 0.032602977 -0.08232363 -0.02591237 0.030185288
00000000: 8f10 adbd fa1b 8dbd 86b1 e43c e5c1 15bd
00000010: 3e1b 993c f03f d13c 5c27 de3c 6544 a23d
00000020: d679 a8bd fade 273c 6eab 873c df4e 583b
00000030: 2f34 9a3c f71a 573d 2c21 8c3d 6f15 21bc
00000040: bdc2 083c f5f6 e33b ebbd e3bc 29e1 90bd
00000050: 7033 9cbd 9442 883d 54d1 743a e9f5 04bc
00000060: 35a0 9abd 2f8a c93c 6956 953d 280c 5d3d
00000070: 0807 473d 1c26 a8bb 5362 a0bd e5be 2dbd
00000080: 507f 573b bb2b 0dbd 05c0 8e3d bf12 823d
00000090: 3f40 b2bd 002d b5bc d3c8 10bd ac7b 2f3c
000000a0: d37e 37bb dfe7 c9bc 4d42 18bd 1ffc 3bbc
000000b0: 4528 df3c 6dc5 aebd 39dc 2d3d aa43 3dbd
000000c0: 7c69 2abc 34e1 223d 7f5b 7bbd 7cbd 753d
000000d0: 675d a0bd 89b0 323d dfe6 84bd 26fc ef3c
000000e0: 526f 573d 052b a73d 1e2f 453c b442 a13c
000000f0: c873 e93c d5e5 30bd 78b2 b5bd 6337 2fbd
00000100: 4bd3 a2bd cba4 0a3c e656 56bd 2b3a 03bd
00000110: a420 8a3d 1ba6 ba3c 2ddc 0dbc 448e 513d
00000120: 63ee 3cbc ddaa 913d 28f4 863d 2734 793d
00000130: 764e ce3c 1841 523d 5c1d 19bd 6f0d 8f3c
00000140: 1666 afbd 0e22 8f3c 9e0e 3b3d c6e4 02bd
00000150: 5ec4 a23d 7856 03bd 93f0 03bd 007a b6bd
00000160: 7e89 0c3d d2f9 0e3d b3b5 103d 8162 98bd
00000170: b123 9a3d 41ff 41bd 4aca 9f3b 2d17 803d
00000180: a648 b43d 14db 1b3d bc04 8bbd 9b15 fd3c
00000190: 074e 19bd 9126 513c 7988 483c ec80 97bd
000001a0: 968e e33c de52 883d faee 793d a4b4 583c
000001b0: e240 4d3b 3dc9 2bbd c72c 6b3d cb9b b83c
000001c0: 080f a3bd 5a36 963b 4e55 53bd 74e8 29bc
000001d0: 2fe6 a6bc e30e 88bd e287 b4bd 7b54 9f3d
000001e0: 8b9c 613d 06e0 cd3b b3cd 92bd f351 963d
000001f0: b182 b0bd 2b43 6139 8423 a83d add7 c5bc
00000200: 78dd cd3c b6b4 a7bd a6fd 3c3d fa47 59bd
00000210: 503a 20bd 734c 763c 482b dc3b a377 b2bd
00000220: 25f8 93bd c12c 74bc 2884 313d 9235 583d
00000230: f4c7 8dbd 2e6d 76bd 89d2 25bd 2d9a a03d
00000240: f935 1abd ea14 b23d 4635 b03d 8a91 0cbd
00000250: f76f 5a3d 7775 79bd 2e7e 0d3c 9d7d 1cbd
00000260: 681c 7cbc 7e59 7f3d efe9 69bd 313d 6fbd
00000270: 03ee 7ebd 53df 70bc 3e39 503c ce71 47bd
00000280: eb43 4e3d 22c0 44bc b575 cc3c 0056 963d
00000290: 3952 62bd e8c6 be3c 2fa9 6ebd db16 673d
000002a0: 8cbd 33bd ea31 96bd d4b2 d53c bd6a a73c
000002b0: 2103 b83b 0b1c 863d c6da dbbc a370 13bd
000002c0: 0947 6fbd ef30 90bd 6531 9f3d 45ea 963c
000002d0: 0cf3 c83c a4fc 7f3d b623 4f3d 21d6 8a3c
000002e0: 69b4 163d 32df 943d 70cd 1ebb 649e 20bd
000002f0: b2b6 cebc cd58 46bd edc7 f7bc 950a ab3d
00000300: a0c5 59bc 57ed 253d 2841 9d3c 28eb 41bb
00000310: 6ffa 1b3d 6063 0f3d 5cd8 a03d eb4a 2ebd
00000320: 09ee c53c 0086 843d 2472 16bd 01f1 893c
00000330: 0cd8 7fbd b82a 953d 24b5 823d 85e4 64bd
00000340: 219c a63b 977c 61bd 777a 863d 205c a23c
00000350: 04e5 913d b992 4c3d 36fb 103b 7423 be3c
00000360: 7398 7fbd ceda 293d 6b4b 233c 22c8 8d3d
00000370: e459 84bd 644c a2bd 601f 523c 6994 b0bd
00000380: 1097 c43b 5af4 b3bd 5386 5c3d da74 06bc
00000390: e024 b3bd 413c 723d c9bc cb3c 4dc9 653d
000003a0: 6606 483d 8f10 a73d 78da 95bd da02 80bd
000003b0: 772b 5a3d 0ec0 953c 3711 cebc a69b e23c
000003c0: f92d fdbc b619 453d 5e4f adbc 06b9 4abd
000003d0: f9cf 8fbd 03f1 d43b 73e7 61bd 7bf4 823d
000003e0: 8639 013c 7504 07bd 4f67 043d 9927 973c
000003f0: b38a 053d 4b99 a8bd 2e46 d4bc 2347 f73c

cnn.conv_layer.2.conv.bias f4 [32]
-0.06147197 -0.0064523593 0.023674447 0.068556465 -0.071941964 0.06392802 -0.08799274 -0.015461519
0.002221152 0.0365789 0.08219965 -0.016312731 0.0148931695 -0.03466334 0.08399494 -0.06893508
-0.06651201 -0.056486126 -0.000357377 0.037392348 0.0022813089 0.04808804 -0.0221393 -0.016356574
0.015811022 -0.08024124 -0.032520834 -0.06853282 -0.05852669 -0.016706252 0.08123935 0.05763926
00000000: 08ca 7bbd 506e d3bb eaf0 c13c 5567 8c3d
00000010: 4f56 93bd b2ec 823d 8a35 b4bd 5052 7dbc
00000020: bf90 113b c2d3 153d 4a58 a83d 47a2 85bc
00000030: 7b02 743c 25fb 0dbd 8a05 ac3d d62d 8dbd
00000040: 7337 88bd ff5d 67bd 545e bbb9 b828 193d
00000050: 0382 153b f7f7 443d 7a5d b5bc 39fe 85bc
00000060: 1e86 813c 8555 a4bd 9134 05bd ef5a 8cbd
00000070: afb9 6fbd 8ddb 88bc d160 a63d 2517 6c3d

cnn.conv_layer.2.adn.N.weight f4 [32]
0.9992361 1.0006685 0.9999331 0.9993506 1.000864 0.9994548 0.99890065 1.0002848
0.998879 0.9998225 1.0009183 0.9991679 1.001075 1.0010546 0.9990837 1.0003914
0.9992579 0.9995411 1.0004891 0.9993415 1.0007573 0.99897516 1.0011044 1.0009264
0.9991276 1.0008484 1.0007633 0.9999696 1.0009722 0.999909 0.999556 1.0003146
00000000: f0cd 7f3f e815 803f 9efb 7f3f 71d5 7f3f
00000010: 501c 803f 45dc 7f3f f4b7 7f3f 5509 803f
00000020: 89b6 7f3f 5ef4 7f3f 171e 803f 78c9 7f3f
00000030: 3a23 803f 8f22 803f f3c3 7f3f d30c 803f
00000040: 5ecf 7f3f ede1 7f3f 0710 803f d8d4 7f3f
00000050: d118 803f d6bc 7f3f 3024 803f 5b1e 803f
00000060: d4c6 7f3f cd1b 803f 0319 803f 02fe 7f3f
00000070: db1f 803f 09fa 7f3f e7e2 7f3f 4f0a 803f

cnn.conv_layer.2.adn.N.bias f4 [32]
-0.0006024584 8.207077e-05 -0.00023819403 0.00050818356 0.0011363807 -0.00015231212 -0.0010947456 0.00012645396
-0.0009813046 0.0006706085 0.00034956523 -0.0012264537 0.00019932579 0.00023127368 -0.00024746047 -5.4689077e-05
4.3561573e-05 -0.00049241993 0.00078420376 -0.00030119802 0.00075170817 -0.00069394254 0.00096609694 0.0004883624
-4.8431633e-05 0.00018589171 0.00056913594 -0.0006731066 0.0009970805 0.00024697516 -0.0002678257 0.00029515877
00000000: 4dee 1dba 691d ac38 b9c3 79b9 9f37 053a
00000010: 9cf2 943a f9b5 1fb9 917d 8fba ba98 0439
00000020: 1e9f 80ba c6cb 2f3a da45 b739 f5c0 a0ba
00000030: 1c02 5139 0e82 7239 95bd 81b9 f361 65b8
00000040: e2b5 3638 be15 01ba 0693 4d3a 1dea 9db9
00000050: 480e 453a b2e9 35ba ab41 7d3a 7205 003a
00000060: 1223 4bb8 edeb 4239 1132 153a 6b73 30ba
00000070: 78b0 823a 727c 8139 f56a 8cb9 8abf 9a39

cnn.conv_layer.2.adn.N.running_mean f4 [32]
-0.06800137 -0.012525703 -0.030851435 -0.32026997 -0.027823523 0.45534295 0.23793769 -0.2057206
0.26325482 0.19659045 -0.29499334 0.38572297 0.16851054 -0.12896606 0.28636158 0.15145367
-0.03748477 -0.21294674 0.055613592 0.046219222 -0.16522965 0.19268456 -0.16600844 -0.0503476
-0.1318093 0.19856068 -0.20590208 0.087452315 -0.050439037 -0.1888215 0.002673908 -0.0266662
00000000: 4d44 8bbd 9b38 4dbc 26bc fcbc 6dfa a3be
00000010: 28ee e3bc b622 e93e f0a5 733e 6ca8 52be
00000020: 56c9 863e 024f 493e 5e09 97be 7b7d c53e
00000030: 078e 2c3e ae0f 04be fc9d 923e ac16 1b3e
00000040: a189 19bd b60e 5abe 14cb 633d 5e50 3d3d
00000050: f631 29be 1a4f 453e 1efe 29be 4939 4ebd
00000060: 04f9 06be 7e53 4b3e ffd7 52be 331a b33d
00000070: 2a99 4ebd 6c5a 41be bb3c 2f3b 1373 dabc

cnn.conv_layer.2.adn.N.running_var f4 [32]
0.3669963 0.31770155 0.31078494 0.53658056 0.2769944 0.4188028 0.30373526 0.32782084
0.34281573 0.37144402 0.44425273 0.34094134 0.30303225 0.2911259 0.33419085 0.30047745
0.3203742 0.3027336 0.31540716 0.2900392 0.32539743 0.27121928 0.35215962 0.2489325
0.3409329 0.41874632 0.57602656 0.30811876 0.29360434 0.3435623 0.3306364 0.28704318
00000000: f0e6 bb3e c7a9 a23e 341f 9f3e 585d 093f
00000010: 36d2 8d3e 526d d63e 3083 9b3e 22d8 a73e
00000020: 8b85 af3e e92d be3e 1875 e33e dd8f ae3e
00000030: 0b27 9b3e 740e 953e 101b ab3e 2ed8 993e
00000040: 1608 a43e e6ff 9a3e 0c7d a13e 0580 943e
00000050: 7e9a a63e 41dd 8a3e 444e b43e 29e8 7e3e
00000060: c28e ae3e eb65 d63e 7a76 133f bec1 9d3e
00000070: 4f53 963e 66e7 af3e 2d49 a93e 53f7 923e

cnn.conv_layer.3.conv.weight f4 [64, 32, 2, 2, 2]
0.051835533 -0.017079512 -0.03186905 -0.024353959 0.060212705 -0.032288436 -0.051197976 0.04403524
-0.05322426 0.054723162 -0.052068356 0.012121682 -0.05810627 -0.048084997 -0.006000289 0.056164682
0.00214167 0.037661225 -0.027563965 -0.016222691 -0.030548178 0.04885837 0.015841689 0.03481411
-0.04623583 -0.010335003 0.027538696 0.054822817 0.0160443 0.022861766 -0.012991314 0.038025845
0.05866593 -0.039750423 0.050540473 -0.042221766 0.026148267 0.052966993 -0.015783941 -0.023517774
0.057971854 -0.04898699 0.009837716 -0.052995168 -0.010864598 -0.0046543973 -0.040474027 0.04237362
0.01837583 -0.003836458 0.012927821 -0.062171623 0.028084038 -0.0054855 0.047623582 0.05621336
-0.015660658 -0.047347188 0.051202707 -0.021586565 -0.044274773 -0.061860543 0.026310114 0.052071657
0.046902034 -0.06065193 0.048862144 -0.02086899 0.029284105 0.04252572 -0.02802081 -0.045435514
-0.058246586 -0.026252726 0.039022796 -0.05260054 0.062060174 0.025393559 0.04493066 -0.025680529
0.040024143 -0.059306554 0.05727162 0.015889818 -0.015550539 0.040228408 0.008517799 0.035937857
0.017789586 -0.027533565 0.016889066 0.02742314 -0.046094798 -0.052384093 -0.011280237 0.009945225
0.007729936 0.04904013 0.047597278 -0.036782075 0.034414876 0.023002764 -0.00807426 -0.029935656
0.026200522 -0.009106542 -0.0531351 0.05002119 -0.061979372 -0.022560718 -0.05666403 0.003178111
0.0029354324 -0.01606918 -0.0076353964 -0.005575124 -0.044302538 -0.0011660064 0.043374117 0.015237815
0.0032896444 0.023284055 0.046892166 0.027038004 0.008141299 0.028069926 0.055383593 0.028177429
0.051030032 0.010959255 0.055310123 0.012828923 0.046457116 -0.0030818586 -0.032413904 -0.037416898
-0.01774326 -0.06056646 -0.028639765 -0.029820852 -0.049761686 0.055846773 0.019518036 -0.013700015
0.051979862 0.053902864 -0.0031617656 0.03882557 0.027392581 -0.039435815 -0.039076895 0.011451303
-0.01604914 0.045813654 0.057948586 -0.03460891 0.034394838 -0.053216502 0.03596073 -0.0080740005
-0.014557575 0.0038201797 0.001609913 0.01492411 -0.05791336 0.045500644 -0.019110473 -0.05217573
0.02266127 -0.012428025 -0.03592565 0.053221997 0.06165884 -0.03956496 -0.04854527 -0.05586366
0.01050875 0.052077208 -0.030587504 -0.046597023 0.02767497 0.0055551473 0.039033752 0.040828563
-0.035203964 0.027828395 -0.015491026 0.018926721 0.03569011 0.024127342 -0.033408593 0.05539866
0.028817263 0.0271899 0.040791493 -0.052536763 0.052675307 0.014292804 -0.024278786 0.04577923
-0.049797226 -0.043917257 0.004610271 0.055164058 0.029656334 -0.0489615 -0.031120991 0.05730928
-0.03079492 -0.027772415 0.052814018 0.037603505 0.027881255 0.05266844 0.03462198 0.05858582
0.0075168973 -0.02823672 0.035216283 -0.05979343 -0.006236556 -0.05992216 -0.009801765 -0.04761921
0.008553351 0.010211881 0.008125049 0.057185832 -0.035194684 -0.0340732 0.0368551 0.015365191
-0.03795395 -0.038807783 -0.040686894 0.03356505 0.004098151 -0.038686175 -0.0034106341 -0.021951817
-0.011864002 -0.021184042 0.016929187 0.03779899 -0.0597514 0.044649173 -0.0039178026 0.044556312
-0.052626908 0.04562217 0.062130015 0.037821643 -0.029168028 0.029894354 -0.027926397 0.008034791
00000000: 7f51 543d 55ea 8bbc 1f89 02bd f481 c7bc
00000010: 99a1 763d e140 04bd f8b4 51bd 4c5e 343d
00000020: af01 5abd 6525 603d a145 55bd 059a 463c
00000030: d700 6ebd c6f4 44bd 139e c4bb f00c 663d
00000040: 435b 0c3b a842 1a3d d3cd e1bc 73e5 84bc
00000050: 2c40 fabc b71f 483d 6ec6 813c 3d99 0e3d
00000060: c861 3dbd 2554 29bc d598 e13c e48d 603d
00000070: 566f 833c 9948 bb3c 85d9 54bc fdc0 1b3d
00000080: b04b 703d 57d1 22bd 8703 4f3d bbf0 2cbd
00000090: e434 d63c ebf3 583d 534d 81bc 59a8 c0bc
000000a0: e573 6d3d 95a6 48bd 5f2e 213c 7611 59bd
000000b0: 6d01 32bc ea83 98bb 18c8 25bd f68f 2d3d
000000c0: e988 963c 166d 7bbb 36cf 533c aca7 7ebd
000000d0: 7f10 e63c b6bf b3bb f210 433d fb3f 663d
000000e0: c84a 80bc 20ef 41bd eeb9 513d 4fd6 b0bc
000000f0: 7759 35bd 7b61 7dbd 4f88 d73c 1749 553d
00000100: 591c 403d 286e 78bd ac23 483d 72f5 aabc
00000110: 38e5 ef3c 732f 2e3d e68b e5bc 971a 3abd
00000120: f993 6ebd f50f d7bc 5ed6 1f3d aa73 57bd
00000130: cf32 7e3d 2706 d03c 3609 383d f95f d2bc
00000140: 5bf0 233d 6eeb 72bd a595 6a3d 5d2b 823c
00000150: b0c7 7ebc 8bc6 243d 3d8e 0b3c 9333 133d
00000160: 77bb 913c 128e e1bc f05a 8a3c 7ea6 e03c
00000170: e6cd 3cbd b490 56bd bed0 38bc 4cf1 223c
00000180: 674b fd3b 4ede 483d 5df5 423d cda8 16bd
00000190: 9df6 0c3d 4b70 bc3c e749 04bc 9f3b f5bc
000001a0: 7aa2 d63c 9b33 15bc 31a4 59bd 05e3 4c3d
000001b0: 15de 7dbd 41d1 b8bc 8b18 68bd db47 503b
000001c0: 6260 403b 83a3 83bc 5932 fabb 88af b6bb
000001d0: 9476 35bd afd4 98ba 0fa9 313d 07a8 793c
000001e0: 1397 573b 34be be3c 0012 403d ce7e dd3c
000001f0: 1563 053c e7f2 e53c e8d9 623d 5ad4 e63c
00000200: de04 513d 728e 333c de8c 623d 6730 523c
00000210: d149 3e3d 02f9 49bb 71c4 04bd 7642 19bd
00000220: 505a 91bc 8914 78bd f19d eabc dc4a f4bc
00000230: e9d2 4bbd 96bf 643d 4ae4 9f3c 0776 60bc
00000240: d6e8 543d 40c9 5c3d a035 4fbb 9007 1f3d
00000250: 6866 e03c 7387 21bd 180f 20bd 3f9e 3b3c
00000260: 7c79 83bc 19a7 3b3d 7f5b 6d3d 13c2 0dbd
00000270: 9ae1 0c3d 8cf9 59bd 8f4b 133d d048 04bc
00000280: e582 6ebc fb5b 7a3b b703 d33a 4184 743c
00000290: 8f36 6dbd e25e 3a3d 918d 9cbc 38b6 55bd
000002a0: 21a4 b93c ea9e 4bbc c626 13bd 4fff 593d
000002b0: fb8d 7c3d de0e 22bd 68d7 46bd 4bd1 64bd
000002c0: e42c 2c3c e94e 553d a592 fabc 85dc 3ebd
000002d0: 9eb6 e23c f407 b63b dbe1 1f3d da3b 273d
000002e0: 0832 10bd 60f8 e33c 13ce 7dbc 360c 9b3c
000002f0: cb2f 123d b4a6 c53c 73d7 08bd b5e9 623d
00000300: 2e12 ec3c 5abd de3c fb14 273d ca30 57bd
00000310: 10c2 573d 5d2c 6a3c 4ee4 c6bc 0083 3b3d
00000320: 2df8 4bbd 95e2 33bd c211 973b b5f3 613d
00000330: d7f1 f23c db8b 48bd 73f1 febc 23bd 6a3d
00000340: a145 fcbc fa82 e3bc 8353 583d 2206 1a3d
00000350: 3b67 e43c ddba 573d c7cf 0d3d aff7 6f3d
00000360: 4e50 f63b b250 e7bc f33e 103d f5e9 74bd
00000370: 065c ccbb f070 75bd 9597 20bc 5c0c 43bd
00000380: 5b23 0c3c bc4f 273c ed1e 053c b13b 6a3d
00000390: 4d28 10bd 5790 0bbd 60f5 163d 48be 7b3c
000003a0: 9a75 1bbd e9f4 1ebd 4da7 26bd 827b 093d
000003b0: c849 863b 6575 1ebd f284 5fbb 4cd4 b3bc
000003c0: 3b61 42bc 288a adbc 14af 8a3c 1dd3 1a3d
000003d0: e2bd 74bd 0de2 363d e960 80bb ae80 363d
000003e0: 508f 57bd 50de 3a3d 0b7c 7e3d deea 1a3d
000003f0: caf1 eebc 01e5 f43c e6c5 e4bc 5ba4 033c

cnn.conv_layer.3.conv.bias f4 [64]
0.052907802 0.05120244 0.010240303 0.0557629 -0.024489675 0.060189657 -0.019486465 0.036297314
0.035975438 0.009405422 -0.0044128555 0.04922545 0.05250008 -0.035882648 -0.034886546 0.01828853
0.021768423 -0.020870594 -0.0020148696 -0.035745233 0.030402178 -0.003371511 0.034839764 0.030939732
0.024591323 -0.046413254 -0.037266593 0.02186226 -0.006454609 -0.050690677 -0.00747151 -0.019685924
-0.05196755 -0.043229196 0.014026889 0.038430165 -0.021096315 0.031799626 -0.027554924 0.027293693
0.04510449 -0.0055100364 0.030652806 -0.016492976 -0.04604134 -0.039951023 0.0010376472 -0.04158307
-0.006759415 -0.02166295 -0.044523086 0.024559615 0.03938315 0.044017956 -0.008843551 0.034156013
-0.01723931 -0.05547353 -0.02379171 -0.040734418 0.05055234 0.056722622 0.052521914 0.061414924
00000000: dab5 583d a6b9 513d f2c6 273c a367 643d
00000010: 929e c8bc 6e89 763d 14a2 9fbc 7eac 143d
00000020: fb5a 133d 3319 1a3c b799 90bb a0a0 493d
00000030: 530a 573d aff9 12bd 32e5 0ebd d4d1 953c
00000040: b153 b23c cff8 aabc e70b 04bb 9869 12bd
00000050: fd0d f93c 91f4 5cbb 24b4 0e3d 5275 fd3c
00000060: be73 c93c d31b 3ebd dba4 18bd 7b18 b33c
00000070: 2f81 d3bb 07a1 4fbd 92d3 f4bb 6044 a1bc
00000080: eddb 54bd 1911 31bd 09d1 653c f368 1d3d
00000090: 2ed2 acbc 5340 023d ddba e1bc 0697 df3c
000000a0: 7cbf 383d 898d b4bb 981b fb3c 471c 87bc
000000b0: d895 3cbd afa3 23bd aa01 883a 0253 2abd
000000c0: 157e ddbb 8076 b1bc d75d 36bd 3f31 c93c
000000d0: 3a50 213d 2c4c 343d 8be4 10bc 2de7 0b3d
000000e0: 7439 8dbc 3638 63bd d5e6 c2bc 22d9 26bd
000000f0: f80f 4f3d fb55 683d 3821 573d 378e 7b3d

cnn.conv_layer.3.adn.N.weight f4 [64]
1.0002186 0.99908286 1.0009955 1.0010172 0.9987542 1.000366 1.0011148 0.9992178
0.9992332 1.0006223 0.9997804 1.0010989 1.0005928 1.0002723 0.99905896 1.0009121
0.99885076 0.9987811 0.99931973 1.0009078 1.0009832 1.0002713 0.9994627 0.99900424
0.9999012 0.9992004 0.99903506 0.99996203 1.0007948 0.99971795 0.99908453 1.00104
0.9992945 1.0012819 0.99915475 1.0011961 0.9988212 1.0001882 1.0008154 1.0009712
1.0007329 0.9997885 0.9999095 1.0008967 0.99885756 1.0004596 0.99985147 0.99976695
1.0012202 1.0005938 1.0009847 1.0007282 1.0010748 0.9993186 1.0005475 1.0008634
0.9991612 1.0012162 1.0011313 0.9990298 0.9997624 1.0009606 1.0009998 0.9995107
00000000: 2a07 803f e5c3 7f3f 9f20 803f 5521 803f
00000010: 5bae 7f3f fe0b 803f 8824 803f bdcc 7f3f
00000020: bfcd 7f3f 6414 803f 9cf1 7f3f 0224 803f
00000030: 6d13 803f ec08 803f 54c2 7f3f e31d 803f
00000040: afb4 7f3f 1eb0 7f3f 6bd3 7f3f bf1d 803f
00000050: 3820 803f e408 803f cadc 7f3f bebe 7f3f
00000060: 86f9 7f3f 99cb 7f3f c3c0 7f3f 83fd 7f3f
00000070: 0b1a 803f 84ed 7f3f 01c4 7f3f 1422 803f
00000080: c4d1 7f3f 012a 803f 9bc8 7f3f 3227 803f
00000090: bfb2 7f3f 2b06 803f b81a 803f d31f 803f
000000a0: 0418 803f 24f2 7f3f 12fa 7f3f 621d 803f
000000b0: 21b5 7f3f 0f0f 803f 44f6 7f3f baf0 7f3f
000000c0: fc27 803f 7513 803f 4420 803f dd17 803f
000000d0: 3823 803f 58d3 7f3f f111 803f 4b1c 803f
000000e0: 07c9 7f3f da27 803f 1225 803f 6bc0 7f3f
000000f0: 6ef0 7f3f 7a1f 803f c320 803f efdf 7f3f

cnn.conv_layer.3.adn.N.bias f4 [64]
2.4934077e-05 -0.00083904364 0.0010826723 0.0011099833 -0.0010196347 0.0006987251 0.0010852988 -0.00078911864
-0.00030263423 0.00026750236 -0.0001073247 -0.000996162 0.00085722184 -0.0003775619 -0.0010434893 0.00075339596
-0.0007849387 -0.00096577266 -0.000994791 0.00093367253 0.0012439324 0.00014791226 -0.00035991918 -0.0011325746
-0.00079398975 -0.0009352658 0.00024754967 0.00040073023 0.0004959617 0.000657968 -0.00036116893 0.0008384129
-0.0006127856 0.001081001 -0.00016878672 0.0011148071 -0.0010692044 -0.00032066132 0.0008287752 0.00092587556
-0.00047388455 -0.0006016083 -0.0006613975 0.00071548286 -0.00057428406 0.0006206118 0.0011008031 0.0003485706
0.00067291316 0.0009948313 0.0007892478 0.00014987115 0.0010459535 -0.00035039478 8.091841e-05 8.602057e-05
-0.001069203 0.0011392585 0.0009760791 -0.00093668397 -0.0003635038 0.00088285294 0.0010491959 -0.0003018491
00000000: 8629 d137 44f3 5bba 74e8 8d3a dc7c 913a
00000010: 43a5 85ba a62a 373a 9640 8e3a dbdc 4eba
00000020: e1aa 9eb9 8f3f 8c39 8213 e1b8 a691 82ba
00000030: 2fb7 603a 80f3 c5b9 b1c5 88ba 8c7f 453a
00000040: 58c4 4dba e82b 7dba a663 82ba b4c1 743a
00000050: 720b a33a e518 1b39 89b3 bcb9 e672 94ba
00000060: c023 50ba a02c 75ba 8ec9 8139 1a19 d239
00000070: 6d03 023a 7c7b 2c3a 465b bdb9 f0c8 5b3a
00000080: 58a3 20ba 60b0 8d3a 57fc 30b9 b81e 923a
00000090: 8c24 8cba 6f1e a8b9 2a42 593a 75b6 723a
000000a0: b573 f8b9 40b5 1dba a361 2dba 3e8f 3b3a
000000b0: 8d8b 16ba 8eb0 223a d348 903a 5bc0 b639
000000c0: 7066 303a 0065 823a 86e5 4e3a bb26 1d39
000000d0: 6018 893a 31b5 b7b9 beb2 a938 f165 b438
000000e0: 8024 8cba 2c53 953a 8fdf 7f3a cc8b 75ba
000000f0: a794 beb9 426f 673a 2c85 893a 8041 9eb9

cnn.conv_layer.3.adn.N.running_mean f4 [64]
0.30036035 -0.30887255 -0.08636335 -0.18891843 -0.19566225 0.18172729 0.03835455 -0.14863789
0.23149966 -0.024896313 0.04768521 0.20700563 -0.028396405 0.07509198 0.09418847 0.06599476
0.011930808 -0.20646 0.23514701 -0.014335727 0.06910112 -0.3670858 -0.013574012 0.29441237
0.29646266 0.26316318 0.07010067 0.41899192 0.10795611 0.40940034 0.46534607 -0.19906925
0.2304622 0.027211407 0.10858963 0.11056861 0.19546859 0.15878674 0.09797742 0.23766221
-0.15515606 -0.11285857 0.3476659 -0.45018423 -0.043632746 0.19693948 0.008553026 -0.4559565
-0.06113132 0.24836202 -0.15553308 0.14713421 -0.22412209 0.38568723 -0.029409962 -0.24022283
-0.24730626 0.07792227 0.20363662 -0.16748542 -0.16258268 -0.059240304 0.15591481 -0.0006004005
00000000: d5c8 993e 8b24 9ebe 45df b0bd d573 41be
00000010: af5b 48be b816 3a3e a919 1d3d 8834 18be
00000020: 3f0e 6d3e 5af3 cbbc 9151 433d 49f9 533e
00000030: 949f e8bc d3c9 993d e2e5 c03d 4328 873d
00000040: 7079 433c 406a 53be 61ca 703e 66e0 6abc
00000050: e384 8d3d acf2 bbbe 8865 5ebc 38bd 963e
00000060: f4c9 973e 53bd 863e f190 8f3d 1c86 d63e
00000070: 1818 dd3d ec9c d13e d741 ee3e cfd8 4bbe
00000080: 48fe 6b3e 75ea de3c 3d64 de3d cc71 e23d
00000090: eb28 483e fe98 223e 63a8 c83d b95d 733e
000000a0: 3be1 1ebe 6522 e7bd 4401 b23e 8c7e e6be
000000b0: 40b8 32bd 81aa 493e fe21 0c3c 2173 e9be
000000c0: d664 7abd 9d52 7e3e 1044 1fbe 5aaa 163e
000000d0: 4380 65be cc78 c53e 29ed f0bc f9fc 75be
000000e0: da3d 7dbe b695 9f3d 1e86 503e 4c81 2bbe
000000f0: 137c 26be f6a5 72bd 22a8 1f3e 3264 1dba

cnn.conv_layer.3.adn.N.running_var f4 [64]
0.3312253 0.44968182 0.29186785 0.39824453 0.31720364 0.41568324 0.38351756 0.37128773
0.29589525 0.29346254 0.33241808 0.305088 0.39084446 0.36755234 0.32746294 0.32701713
0.34436402 0.2930054 0.4002547 0.33310366 0.36020145 0.3963477 0.3747298 0.427599
0.36980924 0.4333954 0.4175487 0.4526189 0.5162454 0.48190063 0.43079156 0.3620449
0.43225265 0.28748965 0.31004617 0.3368461 0.41450864 0.3371662 0.3693466 0.418161
0.35933095 0.35408518 0.5405319 0.5910103 0.28671354 0.3366009 0.29865053 0.50785804
0.30593768 0.3511699 0.3040108 0.29871413 0.3202675 0.52533996 0.34618536 0.3658602
0.4055533 0.31378296 0.32823685 0.3192748 0.31428325 0.33597097 0.36671114 0.35556227
00000000: 5d96 a93e b23c e63e b46f 953e b5e6 cb3e
00000010: 8468 a23e 6fd4 d43e 6a5c c43e 6d19 be3e
00000020: 957f 973e b940 963e b432 aa3e 7f34 9c3e
00000030: c41c c83e d22f bc3e 39a9 a73e ca6e a73e
00000040: 7b50 b03e ce04 963e 2fee cc3e 908c aa3e
00000050: 536c b83e 16ee ca3e 96dc bf3e 42ee da3e
00000060: a357 bd3e 00e6 dd3e f1c8 d53e aabd e73e
00000070: a928 043f aebb f63e b690 dc3e f35d b93e
00000080: 3850 dd3e d831 933e 5fbe 9e3e 1877 ac3e
00000090: 7a3a d43e 0ca1 ac3e ff1a bd3e 3319 d63e
000000a0: 3afa b73e a74a b53e 4c60 0a3f 734c 173f
000000b0: 1ecc 923e f456 ac3e b9e8 983e fc02 023f
000000c0: dda3 9c3e 8bcc b33e 4ea7 9b3e 0ff1 983e
000000d0: 1afa a33e ae7c 063f 353f b13e 0752 bb3e
000000e0: afa4 cf3e 29a8 a03e a90e a83e fd77 a33e
000000f0: bce9 a03e 6304 ac3e 90c1 bb3e 420c b63e

gru.gru.weight_ih_l0 f4 [192, 512]
0.032833572 0.048821796 0.0188441 0.082747616 -0.034180693 0.08529121 0.026873661 -0.12299158
-0.0767532 0.09255899 -0.056809444 0.051649537 0.016097952 -0.042647198 0.015435658 -0.08196929
0.080227934 -0.064146094 -0.001845566 0.03872708 -0.060402848 -0.0499351 0.03055308 0.07831074
0.12215177 -0.049384024 0.10265045 -0.08616585 0.10440943 0.040178206 -0.023284478 0.08798221
0.051397387 0.04971839 0.03574926 -0.1028894 -0.023341687 0.06296884 0.0900871 -0.07885524
-0.008668363 0.07724865 -0.03669805 -0.11490837 0.04853146 -0.09260035 0.05705691 -0.01624319
0.037975017 -0.12327349 0.08264164 0.034624778 -0.020914549 0.093666136 0.075307906 0.096380495
-0.11700413 0.096066274 0.09955926 -0.01873672 -0.04193337 0.059740487 0.072743535 -0.0017137026
-0.0367319 0.07855163 0.05015565 0.08924004 -0.05484704 0.07616844 -0.062267687 -0.029116912
-0.042968325 -0.017448682 -0.11354181 -0.039421663 0.014610616 0.044738334 0.00987126 -0.039417386
-0.03084033 0.11905235 -0.11325906 0.089042164 0.099796064 0.03661975 0.11091112 0.11566816
-0.07245992 -0.044160523 -0.09595037 -0.1245709 0.055966135 0.115132205 0.028820429 0.08918601
-0.08452299 0.1076112 0.04290528 0.021351099 -0.0965274 -0.04782161 -0.12108732 -0.046145506
0.055787876 0.095888324 0.05835561 0.06617665 -0.09971831 0.11926318 0.0061691385 -0.107242584
0.04694488 0.08390085 0.03460114 0.0040072766 0.110416554 0.061057806 -0.093464985 0.10997059
0.07604005 -0.023147406 0.11888981 0.12297713 -0.09528546 -0.07175356 0.098901615 0.03237211
-0.08416328 0.04330674 -0.06464401 -0.08362051 0.10217224 -0.02438849 0.0880859 0.072758794
0.109266296 0.03665397 -0.052681252 -0.048584737 -0.10867522 0.015056561 0.029840525 0.08945158
0.092935935 -0.092550434 -0.038643785 0.008556584 -0.1223904 -0.08821423 0.06856611 0.07075772
0.06858028 0.09822333 0.10686187 -0.030152028 0.025547072 -0.0895788 -0.03129038 0.026045784
-0.041522592 0.10340821 -0.056776803 0.07937613 -0.086794175 -0.0004448459 -0.043589555 -0.05490358
0.017440317 -0.08681546 -0.10985682 0.014096545 0.097445875 0.016758833 0.09338033 -0.06547971
-0.11185983 -0.1195321 -0.014586509 0.11278636 -0.07161725 0.11551707 -0.027833955 -0.08381717
0.08740925 0.018963208 0.108728915 0.044085357 -0.062161505 -0.037635032 0.06743489 0.039731886
0.008004999 -0.088308826 -0.030442504 -0.04654601 0.030499281 0.085436575 0.12157256 -0.0082488535
-0.09886087 -0.015345362 -0.08338352 -0.063079104 -0.025589688 -0.029793268 0.013427669 0.017183775
0.003390225 0.12371995 0.036503747 -0.035737205 -0.0055902405 0.008857092 -0.045767967 0.057478014
-0.06241416 0.11839346 0.053274795 -0.045551166 -0.11656759 -0.103351824 0.0694198 -0.0374122
0.05405747 0.08053734 -0.05892063 0.12070401 -0.012542379 0.034258164 0.101436645 -0.12098061
-0.06481311 -0.054637913 -0.08351913 0.012837782 0.116225384 0.022892615 0.0643874 -0.09223516
0.11610789 -0.036228117 0.0080113225 -0.090255655 -0.02432697 0.11940926 0.039955635 0.034182288
0.013180395 -0.00061173504 0.07268972 0.04873843 -0.013520297 -0.039779376 -0.021912456 -0.12209672
00000000: 7f7c 063d 5df9 473d f15e 9a3c 9577 a93d
00000010: 0e01 0cbd 28ad ae3d 2726 dc3c 02e3 fbbd
00000020: c830 9dbd 918f bd3d 05b1 68bd 778e 533d
00000030: dadf 833c d4ae 2ebd d8e5 7c3c 84df a7bd
00000040: 8b4e a43d 075f 83bd ebe6 f1ba 49a0 1e3d
00000050: fa68 77bd bf88 4cbd 744a fa3c 6261 a03d
00000060: b52a fa3d e746 4abd 663a d23d b977 b0bd
00000070: 9cd4 d53d e791 243d 17bf bebc 0430 b43d
00000080: 1186 523d 83a5 4b3d d16d 123d aeb7 d2bd
00000090: 1137 bfbc cff5 803d 967f b83d db7e a1bd
000000a0: c005 0ebc 8a34 9e3d b250 16bd 1455 ebbd
000000b0: edc8 463d 41a5 bdbd 82b4 693d 7010 85bc
000000c0: b18b 1b3d d076 fcbd 0540 a93d b6d2 0d3d
000000d0: fd54 abbc 08d4 bf3d 083b 9a3d 2363 c53d
000000e0: dc9f efbd 65be c43d bae5 cb3d c07d 99bc
000000f0: 53c2 2bbd 71b2 743d 90fa 943d 519e e0ba
00000100: 3074 16bd addf a03d 0370 4d3d 7bc3 b63d
00000110: 4aa7 60bd 33fe 9b3d 670c 7fbd 9786 eebc
00000120: 8eff 2fbd 8af0 8ebc 9c88 e8bd 9c78 21bd
00000130: 5d61 6f3c 8b3f 373d 11bb 213c 2074 21bd
00000140: dca4 fcbc b8d1 f33d 5ef4 e7bd bd5b b63d
00000150: e161 cc3d 97fe 153d 5f25 e33d 6ee3 ec3d
00000160: de65 94bd aae1 34bd a181 c4bd 071f ffbd
00000170: bf3c 653d 6fca eb3d d218 ec3c 28a7 b63d
00000180: 641a adbd 4363 dc3d 72bd 2f3d 80e8 ae3c
00000190: 28b0 c5bd 98e0 43bd a1fc f7bd 1203 3dbd
000001a0: d481 643d 1961 c43d 4b06 6f3d a087 873d
000001b0: 1d39 ccbd 4140 f43d 7c26 ca3b 00a2 dbbd
000001c0: 4649 403d 35d4 ab3d edb9 0d3d 794f 833b
000001d0: 1322 e23d c017 7a3d 926a bfbd 4338 e13d
000001e0: e3ba 9b3d a19f bdbc 807c f33d 6fdb fb3d
000001f0: 0625 c3bd 88f3 92bd ee8c ca3d 9e98 043d
00000200: cc5d acbd 6862 313d 1464 84bd 3b41 abbd
00000210: ae3f d13d 5fca c7bc 6166 b43d 9002 953d
00000220: 02c7 df3d 7922 163d 4cc8 57bd ca00 47bd
00000230: 1d91 debd cbaf 763c 1e74 f43c 6432 b73d
00000240: 3255 be3d 158b bdbd f248 1ebd ea30 0c3c
00000250: d1a7 fabd aaa9 b4bd 646c 8c3d 6ce9 903d
00000260: d173 8c3d 5029 c93d 65da da3d 6301 f7bc
00000270: 1848 d13c 1775 b7bd 572a 00bd f85d d53c
00000280: 9813 2abd afc7 d33d cb8e 68bd f48f a23d
00000290: 25c1 b1bd 353a e9b9 f68a 32bd 94e2 60bd
000002a0: ffde 8e3c 4ecc b1bd 9dfc e0bd 32f5 663c
000002b0: b491 c73d d249 893c 303e bf3d 3a1a 86bd
000002c0: c416 e5bd 3fcd f4bd 41fc 6ebc 89fc e63d
000002d0: 11ac 92bd 3794 ec3d 0904 e4bc 56a8 abbd
000002e0: 9f03 b33d bb58 9b3c 44ad de3d d992 343d
000002f0: 109d 7ebd 3127 1abd 4e1b 8a3d e7bd 223d
00000300: 6627 033c 42db b4bd 8f62 f9bc 07a7 3ebd
00000310: a1d9 f93c 5ff9 ae3d 09fb f83d 3326 07bc
00000320: 9177 cabd 1d6b 7bbc fbc4 aabd 9e2f 81bd
00000330: 77a1 d1bc 0311 f4bc baff 5b3c fdc4 8c3c
00000340: 8a2e 5e3b e360 fd3d f484 153d 2d61 12bd
00000350: 562e b7bb 561d 113c 3177 3bbd 116e 6b3d
00000360: fea5 7fbd 4578 f23d ac36 5a3d dc93 3abd
00000370: fdba eebd 1faa d3bd f82b 8e3d 893d 19bd
00000380: 5e6b 5d3d c3f0 a43d c256 71bd aa33 f73d
00000390: 8d7e 4dbc 4a52 0c3d 04be cf3d afc4 f7bd
000003a0: bcbc 84bd 01cc 5fbd 140c abbd 8f55 523c
000003b0: 9307 ee3d 4b89 bb3c 8bdd 833d cae5 bcbd
000003c0: f9c9 ed3d ef63 14bd ec41 033c f5d7 b8bd
000003d0: 5b49 c7bc d88c f43d 85a8 233d ba02 0c3d
000003e0: 95f2 573c d85c 20ba 59de 943d f3a1 473d
000003f0: 3c84 5dbc b3ef 22bd c081 b3bc d80d fabd

gru.gru.weight_hh_l0 f4 [192, 64]
0.09134677 0.11499318 -0.114184596 0.075915486 0.10469665 -0.02201553 0.118406594 -0.07385809
-0.078900635 -0.07275394 0.022769818 0.020389374 -0.08060823 -0.045182917 -0.048318017 0.12221159
-0.07204571 -0.08007026 -0.058860525 0.07778847 0.09998279 0.07520272 -0.089675754 -0.095229015
0.058312327 0.0107884845 0.02586236 0.08062349 -0.104880385 0.10188491 -0.119028986 0.09933322
-0.12348096 0.04651275 -0.023633204 -0.09996424 -0.11173684 -0.09012678 -0.08934627 -0.104634605
0.081723385 -0.06437987 0.105904154 0.022470454 -0.0958726 -0.11793284 -0.09734464 0.012481377
0.022963174 0.0118878195 0.116687134 -0.03718371 0.03905511 -0.0681136 0.08973466 -0.10431557
0.00783004 -0.08666999 -0.014883754 -0.007374097 0.08569772 0.011390866 0.058885433 0.11229344
0.005973307 -0.039130323 0.049538597 0.11649091 0.035695683 0.008969851 0.054353654 -0.050500005
-0.0003234197 -0.021250967 -0.027417287 -0.008957658 0.07918994 0.05014384 -0.0055276295 0.07675783
-0.008445561 0.070212506 -0.07796608 -0.11091115 -0.1081565 0.108251534 0.0650591 0.0277874
-0.093865514 0.115670085 0.12269442 0.071506284 0.09380815 -0.0131587135 0.06668545 -0.10670196
0.012367298 -0.027215125 0.014901419 0.033382464 0.045269452 -0.0562641 -0.06455165 0.06686125
-0.07814491 0.10123639 -0.05417367 -0.09087457 0.02479929 -0.12325973 -0.099580325 0.0903781
-0.014504058 -0.060119897 -0.07601241 -0.0979864 0.08203493 0.052753635 -0.03411938 0.0635086
0.099465266 0.09124634 0.015654057 -0.08019966 0.0759553 -0.117211215 -0.017143244 0.07095132
-0.033679616 0.006022667 0.020392174 0.12160296 -0.09115167 -0.08924041 -0.11453116 0.08407507
0.12279084 0.001419321 -0.014855181 -0.02797194 0.021324638 0.007123021 -0.09657228 0.02592051
-0.03573025 -0.031327873 -0.034191575 0.021827495 -0.11006274 0.07264717 -0.050649364 0.0033123507
0.052589796 -0.068526454 -0.08252455 -0.062060744 -0.097115315 -0.012752811 -0.03595168 0.0709525
0.07265714 -0.0053780163 -0.048763677 0.048455585 0.0645176 -0.0578034 0.11078811 0.09671332
0.057078533 0.11316092 0.048565447 0.12326608 -0.041563496 0.005761547 0.10973982 0.014145075
0.107427225 0.049606916 0.013103058 -0.11246713 0.06775263 -0.040449504 0.10074753 -0.02413002
0.022124363 0.10607709 -0.058463357 -0.049519587 -0.052798256 -0.057556998 -0.0845621 -0.061949693
0.10433575 -0.021257756 -0.10401906 0.10290928 0.018372145 -0.06902327 -0.020009074 0.06387831
-0.089134835 -0.031525742 -0.06371444 0.05647129 -0.11423892 -0.011480211 -0.03665291 -0.055637453
-0.040509533 0.08392186 -0.05876099 -0.0809718 -0.09320914 -0.057713594 -0.07314227 0.041088022
0.07696317 0.00034723422 -0.03433018 -0.09845164 0.008057912 -0.036848035 0.052213266 0.056591928
-0.119721815 -0.11929823 0.067844324 -0.01595418 0.071797684 -0.0546612 -0.010767006 0.12200106
-0.104865246 0.02478553 0.06772131 0.09937165 -0.031014275 -0.047428798 0.030693084 0.12418388
0.044515062 0.121969365 -0.044751942 0.03418408 0.026722606 0.1126314 -0.027032088 -0.013175801
-0.12300008 0.077972315 0.009987076 -0.051359337 -0.02323136 0.053630408 0.038606633 -0.0022868654
00000000: 0414 bb3d 8b81 eb3d 9dd9 e9bd 9479 9b3d
00000010: 326b d63d ea59 b4bc 287f f23d e942 97bd
00000020: a896 a1bd 0500 95bd c587 ba3c 9e07 a73c
00000030: ed15 a5bd b911 39bd 1de9 45bd 124a fa3d
00000040: b48c 93bd e0fb a3bd bc17 71bd 904f 9f3d
00000050: c7c3 cc3d e203 9a3d eca7 b7bd 6e07 c3bd
00000060: e8d8 6e3d 2fc2 303c 4ddd d33c ee1d a53d
00000070: 87cb d6bd 09a9 d03d 78c5 f3bd 376f cb3d
00000080: 96e3 fcbd 2784 3e3d 6c9a c1bc 0dba ccbd
00000090: 49d6 e4bd 6494 b8bd 2dfb b6bd ab4a d6bd
000000a0: 975e a73d 98d9 83bd 47e4 d83d f513 b83c
000000b0: db58 c4bd c686 f1bd a05c c7bd b17e 4c3c
000000c0: 441d bc3c 21c5 423c aaf9 ee3d f24d 18bd
000000d0: 40f8 1f3d 257f 8bbd cec6 b73d 67a3 d5bd
000000e0: 9149 003c 0980 b1bd fdda 73bc 69a2 f1bb
000000f0: 4982 af3d c1a0 3a3c da31 713d 1afa e53d
00000100: bbbb c33b 1e47 20bd fce8 4a3d c992 ee3d
00000110: a335 123d 48f6 123c f0a1 5e3d 18d9 4ebd
00000120: a890 a9b9 8216 aebc 389a e0bc 24c3 12bc
00000130: 562e a23d a163 4d3d 1e21 b5bb 3633 9d3d
00000140: 405f 0abc 93cb 8f3d aeac 9fbd 6325 e3bd
00000150: 2881 ddbd fbb2 dd3d b53d 853d 67a2 e33c
00000160: 903c c0bd 70e4 ec3d 3647 fb3d e371 923d
00000170: 7d1e c03d a597 57bc 6292 883d 8f86 dabd
00000180: 35a0 4a3c 41f2 debc 1525 743c 0dbc 083d
00000190: 766c 393d 2f75 66bd a833 84bd 8dee 883d
000001a0: 700a a0bd 0655 cf3d 36e5 5dbd 721c babd
000001b0: e127 cb3c 996f fcbd c5f0 cbbd 2718 b93d
000001c0: 6ea2 6dbc 4840 76bd 65ac 9bbd 18ad c8bd
000001d0: ee01 a83d 3214 583d c3c0 0bbd cc10 823d
000001e0: 72b4 cb3d 5cdf ba3d f03c 803c b83f a4bd
000001f0: 748e 9b3d 6f0c f0bd fd6f 8cbc ed4e 913d
00000200: a3f3 09bd cb59 c53b 7d0d a73c f90a f93d
00000210: baad babd adc3 b6bd 508f eabd 8d2f ac3d
00000220: c479 fb3d 8308 ba3a 2563 73bc 6925 e5bc
00000230: 02b1 ae3c 3b68 e93b b0c7 c5bd 4057 d43c
00000240: e259 12bd a851 00bd 770c 0cbd 93cf b23c
00000250: 9368 e1bd 0ac8 943d b575 4fbd 0614 593b
00000260: 6668 573d 9957 8cbd a202 a9bd 6833 7ebd
00000270: 65e4 c6bd 2bf1 50bc 1242 13bd 8b4f 913d
00000280: 44cd 943d 123a b0bb 6cbc 47bd 5d79 463d
00000290: ce21 843d 42c3 6cbd e0e4 e23d a211 c63d
000002a0: 2ecb 693d eac0 e73d 90ec 463d ed72 fc3d
000002b0: 7c3e 2abd 5ccb bc3b 45bf e03d bfc0 673c
000002c0: ce02 dc3d 9f30 4b3d 35ae 563c 2b55 e6bd
000002d0: e4c1 8a3d 61ae 25bd b954 ce3d 52ac c5bc
000002e0: 273e b53c f23e d93d 4677 6fbd 0dd5 4abd
000002f0: fc42 58bd e3c0 6bbd e52e adbd f6be 7dbd
00000300: fbad d53d bf24 aebc f207 d5bd 1ac2 d23d
00000310: 2e81 963c 125c 8dbd 12ea a3bc a2d2 823d
00000320: 538c b6bd 2321 01bd b77c 82bd 704e 673d
00000330: 18f6 e9bd 7f17 3cbc 5d21 16bd 19e4 63bd
00000340: 53ed 25bd 39df ab3d 5daf 70bd 8bd4 a5bd
00000350: 6fe4 bebd 1765 6cbd 9dcb 95bd ea4b 283d
00000360: de9e 9d3d fd0c b639 ce9d 0cbd 03a1 c9bd
00000370: 5505 043c f7ed 16bd 94dd 553d f0cc 673d
00000380: b630 f5bd a152 f4bd f7f1 8a3d 57b2 82bc
00000390: aa0a 933d 6ce4 5fbd 1968 30bc b1db f93d
000003a0: 97c3 d6bd 060b cb3c 78b1 8a3d 5d83 cb3d
000003b0: a611 febc b344 42bd 1070 fb3c 1e54 fe3d
000003c0: 6d55 363d 13cb f93d d04d 37bd 9b04 0c3d
000003d0: 5ee9 da3c 4bab e63d 6672 ddbc 51df 57bc
000003e0: 77e7 fbbd f3af 9f3d d5a0 233c 2b5e 52bd
000003f0: b14f bebc 8fab 5b3d fd21 1e3d 3cdf 15bb
