model_smri_40_ep_2022-10-26T23:51:25.021764/best_metric.pth (torch, 561209 bytes, 32 tensors)

cnn.conv_layer.0.conv.weight f4 [8, 1, 2, 2, 2]
00000000: 4abb 20be 9aff 7fbe 9e2e 7bbe 5ced 9cbe
00000010: b353 35be d80c a6be 8170 853e 984e ed3d
00000020: 5554 5f3e e69b 34be a218 b43e 731e 313e
00000030: 65a9 01be 597c 0cbc 3217 00be bec8 063e
00000040: 3960 aebd 0c7f a6be 69b0 a93b d508 0abe
00000050: 305c 69be 1e1f 0e3e c9ef f33d 8ac5 50be
00000060: fdd1 debd 50f0 35be dc5b 98be c94d aa3e
00000070: 5bf0 80be edeb 99be bb0a 613e 29b8 603e
00000080: 6e14 1c3b 866a 71be 9441 adbe 0cb1 013e
00000090: 3b53 74be 2764 4d3e de44 1f3e 6693 4dbd
000000a0: fc1c 29be eed2 9b3e cd34 06bc b6a4 573e
000000b0: 5402 a7be d0fe d63d bb46 9d3e 1e2d 51be
000000c0: 9081 8fbd cc82 6a3e 70f2 713e 7052 3f3e
000000d0: dbb7 afbe 4b83 3a3e 7c1d 9e3e d6bf 3fbe
000000e0: 9ce0 2b3e e8f6 38be 8054 a33d 44c2 f53d
000000f0: 20e6 ab3e f381 16be 46c9 f63d 29a5 72ba
-0.15696445 -0.24999848 -0.24529502 -0.3064984 -0.1770771 -0.32431674 0.26062396 0.11587256
0.21809514 -0.17637596 0.35175043 0.17296772 -0.12662275 -0.008574569 -0.12508848 0.13162515
-0.08514447 -0.32518804 0.0051785004 -0.13479932 -0.22789073 0.13879058 0.1191097 -0.20387855
-0.10879896 -0.17767453 -0.29757583 0.3326247 -0.25183377 -0.3006281 0.2197675 0.21945252
0.0023815888 -0.23575792 -0.33839095 0.12665194 -0.23859875 0.20057736 0.15553614 -0.0501894
-0.16514963 0.30434364 -0.0081913 0.21058926 -0.32618964 0.104978204 0.30718026 -0.20427367
-0.07007134 0.22901458 0.23627639 0.18683791 -0.34319958 0.18214147 0.3088187 -0.18725523
0.167849 -0.18062937 0.079751015 0.11999944 0.3357401 -0.14698009 0.120501086 -0.0009256178

cnn.conv_layer.0.conv.bias f4 [8]
00000000: fb6f 3dbe c023 63be bc07 ae3e 3f5d b2be
00000010: e01d 8bbe 20d5 3b3e 5a53 b3be 4d58 9bbd
-0.18499748 -0.22181606 0.33990276 -0.34836766 -0.2717123 0.1834302 -0.3502453 -0.075852014

cnn.conv_layer.0.adn.N.weight f4 [8]
00000000: 0ff8 7f3f 4905 803f abef 7f3f 0802 803f
00000010: 5504 803f b0f8 7f3f 6506 803f 9af1 7f3f
0.9998788 1.0001613 0.9997508 1.000062 1.0001322 0.9998884 1.0001951 0.9997803

cnn.conv_layer.0.adn.N.bias f4 [8]
00000000: eba8 05b8 729c 1b39 1ccb 5bb9 f39f 1f39
00000010: af4e 8338 80dd 54b9 42df b138 1e82 4fb9
-3.1866988e-05 0.00014840232 -0.00020961132 0.00015223007 6.261223e-05 -0.0002030041 8.481603e-05 -0.00019789531

cnn.conv_layer.0.adn.N.running_mean f4 [8]
00000000: c63f 31be 1b31 5bbe 2305 a83e b31a aabe
00000010: ab7d 84be b905 333e 3bc4 acbe ce95 98bd
-0.17309484 -0.21405451 0.3281642 -0.33223495 -0.25877127 0.17482652 -0.33743462 -0.07450448

cnn.conv_layer.0.adn.N.running_var f4 [8]
00000000: 399a 593f 3ec4 433e 9347 c63e 0eca 2f3e
00000010: e20b 183e d243 c13d 5522 843e 692e 603e
0.8500095 0.19117829 0.38726482 0.17166921 0.14848283 0.09436764 0.25807443 0.21892704

cnn.conv_layer.1.conv.weight f4 [16, 8, 2, 2, 2]
00000000: 9177 fbbd 4328 e6bd 2fc5 3fbd aebd 4b3d
00000010: cfdb 49bd 00d0 e63d 973d 7f3d 0274 b6bd
00000020: 2ae1 3fbd f861 833c 72ef bc3d 1235 9d3c
00000030: 02ae a93d 31c9 8cbd c71d d03d 973a 6e3d
00000040: d961 98bd ddd6 90bc 7897 dcbd a8f7 8e3c
00000050: 0d20 98bd c54f 203d dc6c 81bd 439d ad3d
00000060: 6753 d03d 86e0 d93d fb34 ff3d 6907 cbbd
00000070: 1f0d 43bd 22ee eebd 972d a2bd 11f0 89bd
00000080: 274c 56bd 7c47 c1bd d5d0 c4bc 1974 0abd
00000090: d75d 3ebd 7831 83bc 2e62 fa3d b02c 81bb
000000a0: 86a1 30bc 5546 633d 37f8 10bd 8282 e73d
000000b0: b419 d7bd 7864 ac3d 3caf 313d 7324 3b3d
000000c0: e125 9fbd 6fd2 0c3c 1f18 ab3d c512 853d
000000d0: d732 9e3d 5fd9 913d fdfe d53d 214c f1bd
000000e0: dedb e53d ce8b d4bb f5ed ab3d 15b2 aa3d
000000f0: b8e7 fabd 96d5 2cbd d534 343d 813e b03d
00000100: 56f7 bd3d 25ed ea3d 26e3 e13c 0d85 cebb
00000110: 5cca 2fbd d306 fbbd b38b 113d 2ce7 fa3d
00000120: 0741 afbd 7128 7c3d c9ea ad3d 189e a33d
00000130: 28da c3bd 7699 e6bc b481 d9bc fb5a babd
00000140: 1007 55bb 247c a93c b9e6 4b3d c555 12bd
00000150: 215f 1bbc 3051 afbd 4dde a73d 913e a0bd
00000160: 53b3 593d e067 e339 3771 e9bd 0c83 89bd
00000170: 149a 01bd e373 a3bc f541 85bd ce1e a8bd
00000180: 4f93 98bc f4b1 7fbd 4c3b ac3d d129 f1bd
00000190: e644 ad3d ae43 87bd 8319 bb3c 0313 afbd
000001a0: caec d33d 0afb dfbd b872 93bd 0704 50bd
000001b0: c493 9fbd 5eeb 94bd f55f 943b 5ea5 2f3b
000001c0: fbdb e63d 46d8 ad3d def0 6c3c 3b05 a73d
000001d0: 6f81 c8bd 10f8 c43b 5f4e c8bd 337e 87bd
000001e0: 0591 f33d e0ab fb3d a8c7 a4bd bce5 e43b
000001f0: 5a69 c03c ccb7 c0bc 5775 843b fdc4 e1bc
00000200: 993d 953d 5368 e5bc a507 f73d 4e1d 963c
00000210: 4088 9dbd c1f6 c93b 4e4c d1bb 8fdc a63d
00000220: e9a5 1a3d 0bd0 49bd 1152 d93c 044b 0bbd
00000230: 3549 c03d e706 c33d fb32 13bd 8cea 23bb
00000240: cbdf b1bd 5060 ea3d 4d0c c23d 3968 b63d
00000250: dbd5 b0bd b917 04bc 5385 f13d bdba 113d
00000260: 1a51 37bd db00 bdbd 2ca4 a0bd 6b4a fe3b
00000270: 8c5e efbd 3768 eabd 672e f9bd d74d 2abc
00000280: e1e9 b0bd 482d 373d aa3d 63bc 90a8 b63d
00000290: 2610 c9bd c34f 0e3d 68ea 573c b6d4 863d
000002a0: fb67 8b3c d5c8 8e3d 7de6 c03b 489a ef3d
000002b0: bc1b 56bd 9693 97bc 17bd 28bd 2248 54bd
000002c0: 12bb 253d b0ea fcbb 2c25 3b3b 69f4 d33d
000002d0: 4d3a 4e3d ec18 0abd 483a efbd 7b5b a8bc
000002e0: 2d88 ce3d 914e dbbd 7997 35bd d49e f6bd
000002f0: eeda d43d fa23 fb3d 43ce aabc dd59 c13a
00000300: ac83 5bbc 1cc4 e23d 47d7 22bd bfd7 fa3c
00000310: 794b cd3d 309c 983d 4a1e 383d 711f 8d3d
00000320: 89ca f13d cc1b c03d 17eb 543d 6788 df3c
00000330: 0d29 e33d c24d edbd 2f4c 833c aa58 a6bd
00000340: d419 0a3d 84ba d9bc 8a4f fe3c f6bb 56bc
00000350: 947b f5bc 5ce7 75bd 9d6c a73d 0ac6 8dbc
00000360: 1cd6 a0bd 8fd3 bd3c 95d4 1d3d 11e2 b93d
00000370: 67dc eabb 3054 92bc de76 a33d 25e6 c23d
00000380: 26f7 5e3d fb14 35bd 34fa 933d 10ab f23d
00000390: 05b8 62bd 8c92 4a3c 77a4 5e3d 745a 653d
000003a0: f751 ba3d f80c 0bbd 5bdd fcbd efdb 003d
000003b0: 8e07 623d bf27 043d ae37 8cbd f636 ab3d
000003c0: c8b9 10bd 61de 5a3c a404 5e3d c25c eebd
000003d0: b6c3 093d 7bbf b3bd 6aad b13d 3ec4 863d
000003e0: a9b7 2c3d d88f fbbd 98c7 583d 26f2 e7bd
000003f0: 3255 d4bd 0a84 adbd 32ec 9a3d 83ba 3c3d
-0.12278665 -0.11238148 -0.04681891 0.04974144 -0.04928189 0.112701416 0.062314596 -0.089088455
-0.046845593 0.016037926 0.09225358 0.019190345 0.082851425 -0.06874312 0.101619296 0.058161344
-0.07440538 -0.01768058 -0.10771078 0.017452076 -0.07427988 0.039138574 -0.063195914 0.08477261
0.10172158 0.106385276 0.12461277 -0.09913523 -0.047619935 -0.11666514 -0.07918852 -0.06735242
-0.05231872 -0.09437463 -0.02402536 -0.033802126 -0.04647621 -0.0160148 0.122257575 -0.0039420947
-0.010780698 0.055486996 -0.035392966 0.11304189 -0.10502949 0.084176004 0.043380007 0.045689058
-0.07770897 0.008595093 0.0835421 0.06497721 0.07724541 0.07121538 0.10449026 -0.117820986
0.11223577 -0.0064863926 0.08394996 0.08334748 -0.12251228 -0.04219588 0.043995697 0.08605672
0.09275691 0.11471013 0.027574133 -0.006302482 -0.042917594 -0.12257161 0.03553362 0.12251124
-0.08557325 0.061562005 0.08492047 0.07989138 -0.095630944 -0.028149348 -0.026551105 -0.090993844
-0.003250543 0.020689078 0.04978058 -0.035726327 -0.00948313 -0.08560407 0.081966974 -0.078244336
0.053149533 0.00043374207 -0.11398547 -0.06714448 -0.03164108 -0.01995272 -0.06506721 -0.082090005
-0.01862493 -0.06242557 0.084097475 -0.11775554 0.08460407 -0.06604706 0.022839313 -0.08548548
0.10347898 -0.10936554 -0.07199615 -0.05078509 -0.07791856 -0.07271455 0.0045280405 0.0026801447
0.11272427 0.084885165 0.014461724 0.081552945 -0.097903125 0.0060110167 -0.09780573 -0.066158675
0.11892895 0.12288642 -0.08045894 0.0069853943 0.023487736 -0.023525141 0.0040423083 -0.027559752
0.072871394 -0.028003847 0.12062005 0.01832452 -0.07692003 0.0061634486 -0.00638727 0.08147537
0.03775588 -0.04927067 0.02652839 -0.034007087 0.09388963 0.09522801 -0.03593729 -0.0025011627
-0.08685263 0.114441514 0.094750024 0.08906598 -0.0863454 -0.008062297 0.11793008 0.035578478
-0.04475508 -0.09228679 -0.07843813 0.007760336 -0.11687955 -0.11445659 -0.12167054 -0.010394535
-0.08638359 0.044720918 -0.013869682 0.089188695 -0.09817533 0.034744035 0.013178445 0.0658354
0.017017355 0.069718994 0.0058868513 0.11699349 -0.052272543 -0.018502992 -0.041195955 -0.051826604
0.040461607 -0.0077184066 0.0028556092 0.10349352 0.05034857 -0.033715174 -0.11681038 -0.020551434
0.10084567 -0.10708345 -0.04433391 -0.12042013 0.1039332 0.12262721 -0.020850306 0.0014751513
-0.013398092 0.11072561 -0.039756086 0.030620454 0.10024161 0.074516654 0.04495076 0.068907626
0.11806209 0.09380302 0.05198201 0.027286721 0.11091814 -0.11587097 0.016027538 -0.0812238
0.033716038 -0.026578195 0.031043787 -0.013106337 -0.029966153 -0.060035095 0.08175013 -0.017306346
-0.07853338 0.023172168 0.038532812 0.09076322 -0.0071673873 -0.01786241 0.079816565 0.09516553
0.054434918 -0.04420946 0.07225457 0.11849034 -0.055351276 0.012364041 0.054356065 0.055994466
0.09097665 -0.033947915 -0.12346908 0.031459745 0.055182986 0.032264467 -0.068465576 0.08360092
-0.035333425 0.013358683 0.054203644 -0.11638786 0.03363391 -0.087767564 0.08675654 0.06580399
0.04216734 -0.122832954 0.052924722 -0.11325483 -0.10367812 -0.0847245 0.07564582 0.04607631

cnn.conv_layer.1.conv.bias f4 [16]
00000000: 3cc4 be3c fbdb 82bd bd8a d4bc 90dc e53d
00000010: 0cd4 7bbd dd13 5a3a c142 e1bd 789c 403d
00000020: d77f 693d 0423 cf3d 6755 823d d489 26bd
00000030: eba0 7fbd a45e dcbd 759b f3bc 85b1 2bbd
0.023286931 -0.06389614 -0.025945062 0.112237096 -0.06148152 0.0008319 -0.109990604 0.04702422
0.057006683 0.101141006 0.063639455 -0.040658787 -0.062409323 -0.10760239 -0.029737214 -0.041917343

cnn.conv_layer.1.adn.N.weight f4 [16]
00000000: be07 803f 3b06 803f b8f1 7f3f 0ff3 7f3f
00000010: 8501 803f 2a04 803f 5205 803f fa06 803f
00000020: cff0 7f3f fdef 7f3f 0508 803f 54fe 7f3f
00000030: acfe 7f3f 2cf7 7f3f defb 7f3f c103 803f
1.0002363 1.0001901 0.9997821 0.99980253 1.0000464 1.0001271 1.0001624 1.0002129
0.9997682 0.9997557 1.0002447 0.9999745 0.99997973 0.9998653 0.99993694 1.0001146

cnn.conv_layer.1.adn.N.bias f4 [16]
00000000: 2b96 1439 ffcd 46b9 77fb 16b9 fceb 3b39
00000010: ffbb 2239 e8a6 0539 e80a 8a38 b4d7 7f38
00000020: 1d3d a638 6999 81b9 3daf 8839 8311 51b9
00000030: f48a 8739 5e5b fab8 2ddc e3b8 6ea4 9f37
0.00014170322 -0.00018959491 -0.00014398793 0.00017921621 0.00015519558 0.00012746046 6.582384e-05 6.0997627e-05
7.92688e-05 -0.00024719097 0.00026070504 -0.00019938317 0.00025852735 -0.000119379474 -0.000108652144 1.9030846e-05

cnn.conv_layer.1.adn.N.running_mean f4 [16]
00000000: 2ff9 853e de71 a0be 64ff 593d 1af4 fc3e
00000010: a6e1 a93e eff6 2b3e 2d6d 30be 41b8 c93e
00000020: a5f8 4c3d 9176 3fbe 2fb8 b03e 5825 d83d
00000030: 1434 f4bd f3fe 69bd 2e86 223e dcb6 f8bc
0.26166674 -0.31336874 0.053222075 0.49404985 0.3317997 0.16793416 -0.17229147 0.39398387
0.050041813 -0.18697573 0.3451552 0.10553998 -0.119239956 -0.057127904 0.15871498 -0.030360632

cnn.conv_layer.1.adn.N.running_var f4 [16]
00000000: 9a49 5e3f 2aa2 143e 7f4d 1a3e 1ed1 d03d
00000010: 59d6 233e dc3e 253e d9ff b13e ead0 a23d
00000020: 2798 f63d de09 203e 1120 a23e 89c3 0c3e
00000030: 37cc a13d f9e7 b03e 2eed 123e bdbe 1c3e
0.8683106 0.14514986 0.15068625 0.10196136 0.15999736 0.1613726 0.3476551 0.079500034
0.120407395 0.15628764 0.3166509 0.13746466 0.07900279 0.3455198 0.1434829 0.15307136

cnn.conv_layer.2.conv.weight f4 [32, 16, 2, 2, 2]
00000000: 2b3e 85bd 87e2 2c3d d675 583d 5903 5ebb
00000010: 6684 993d 6843 b8bc 0fb9 78bd 8b71 243d
00000020: 563b 0e3d d64f a2bd b78d 29bd 7ff0 4ebd
00000030: 8ebb 72bb a89a bfbb 4a4e 5fbd cbf1 5dbd
00000040: 0c51 6abc 78bc 62bd 3022 363d 5ceb 2c3d
00000050: 904d 2dbc 7a90 c63c ce9a adbd d07d 16bd
00000060: 619b 593d 8acc 86bd 2cb9 4e3d e807 4b3c
00000070: d1d8 2bbc 9164 9f3d fbf3 a23d 8c42 fa3c
00000080: 3587 f23c 4cd7 413d e000 06bd e300 15bd
00000090: 1571 353c 44e2 8bbd 055e e5bc 5270 aa3d
000000a0: ce0a a83d d369 cebc 77b9 93bc 05cb 9ebd
000000b0: e4a6 7f3d 0198 a03d fad2 f13b 9629 0fbd
000000c0: cc89 223d 71b8 263d 401b 7cbc ef17 193d
000000d0: d4ab 3abc dc96 a13d 40ef a53d 2976 19bd
000000e0: 23ef 2e3d 53f2 fe3c c207 6e3c 2eab 223d
000000f0: 31f5 5fbd 7903 8bbd 99cc 623d d0c9 0b3a
00000100: f03f 0e3d e127 a4bd d745 43bc 586a 78bd
00000110: ee32 9cbd cb68 e13c 199c 84bc f47a 0c3b
00000120: 5f80 26bd 7810 8d3d f5b0 b73c 2c77 95bd
00000130: 5473 033c 838e c03c f200 a43d 8129 98bd
00000140: 3793 adbd 3e89 8b3d 30d5 83bd f29c a5bd
00000150: 1361 0d3b 153c d0bc f35c 853c e1e3 8bbd
00000160: 65a1 1cbd 6031 d83c 035c a13d da79 ab3d
00000170: fbc3 d7bc 9b3c 5ebd 595a 603d e297 6b3d
00000180: 4bb0 f93c c0a8 823d deac 07bd 9515 d4bc
00000190: 98ac 503d ffa5 9e3d 1cfc 39bc f463 9d3d
000001a0: c81e 40bb d03f 9d3d e176 4b3d 74b8 9dbd
000001b0: 780b 263d 92a5 673c 50b7 2b3c 5b48 24bd
000001c0: 015f 26bc 5003 c23b 46e9 a73d 5426 22bd
000001d0: 4691 a7bd be6c 9e3d 5a21 483d 1d17 5b3d
000001e0: 4636 65bd aca5 a63d 493b 5ebd 394b ebbc
000001f0: 644b 913d 0560 973d 52ca 96bd 230d 72bd
00000200: f0f3 a1bd 3c0e b13d 8752 313d da0d 8e3d
00000210: e646 dd3c 09b6 ffbc c396 9bbd 8b3e 7d3d
00000220: 8906 1c3d 3102 29bd b9f9 a63c db46 203d
00000230: f19a 72bc 4a60 3e3d b621 d83c 90d5 173d
00000240: 56e0 a03d 46d6 573d fa23 0a3d 1a86 a53c
00000250: a779 babc 451a ae3d 6483 563d 54b2 d33c
00000260: c971 073b 8c31 96bd 1702 583d c2de af3d
00000270: dde1 773c f638 debc 44c8 ee3c b228 2fbc
00000280: d8af 98bd d11a 30bc fe87 da3c d34a 4b3d
00000290: 945c 96bd 1ee5 35bd 9fb1 6cbd 087c d93c
000002a0: 3c08 06bd adbc a0bb 2f22 dfbc 355e 243d
000002b0: c1af 8a3d aea4 fe3c 153c 853d 1b73 ca3c
000002c0: 6eb4 2c3d cf92 5cbd cc92 3f3d 4b37 45bd
000002d0: c98d 9b3d 7f79 02bc 2bce 19bd 69ef aabd
000002e0: b18a 8bbd 13d4 60bd 8541 99bd db67 343c
000002f0: 4c03 cebc 16ef dc3c 6d29 99bc 6b55 d83c
00000300: 15af 78bd 46c0 153c 39c0 0b3d eecb 03bc
00000310: 3e4f aebd 0dbb 6abd 33c3 b23d 44f4 55ba
00000320: 928f 073d fa56 143d 218a a2bd a343 abbd
00000330: a1e1 ae3d 2049 3b3d c32a 9fbd 746c b4bd
00000340: 2e37 6c3c dbc0 31bd 4b55 98bd b8c2 b2bd
00000350: 5633 a93d a3f9 a93d d2fe 323d ef46 11bd
00000360: 983d 233c 3137 00bd 247e 59bd 0122 41bd
00000370: 7dd2 75bc 4ee7 79bd 32f9 983d 1b71 b33a
00000380: 0211 903d 75e9 01bc 32b3 463d abc5 e83b
00000390: eaa7 1dbd cbef d5bc 98a4 f6bc 6a76 b13d
000003a0: 6626 613c 69be 9c3d 13bc 5f3d 245a 943d
000003b0: 4702 bd3c b3e9 b23c 9234 b23d 37bd e03c
000003c0: 1940 933d e1d2 9a3d cc2c 16bc d9ee 86bd
000003d0: 2d19 cc3c 7b4a 83bd fa0c ac3d e7a2 5b3d
000003e0: 8264 913d 0620 943d 94ea 253d 068f ae3d
000003f0: f98e 9dbc 4192 ad3d 3961 3abd db69 99bd
-0.06505998 0.04220822 0.052846752 -0.0033876507 0.07495956 -0.02249308 -0.06072336 0.040147346
0.034724556 -0.07925384 -0.041394915 -0.050522324 -0.003703806 -0.005847294 -0.05451802 -0.05418567
-0.01430155 -0.05535552 0.044466197 0.042216644 -0.010577574 0.024238814 -0.08476792 -0.036741078
0.053126696 -0.065819815 0.050469562 0.012392022 -0.010488705 0.077828534 0.07956692 0.03054931
0.029605487 0.047324464 -0.03271568 -0.0363778 0.011074324 -0.06830266 -0.027998934 0.08322205
0.08205186 -0.025196945 -0.018032772 -0.07753567 0.06241502 0.078414924 0.0073798867 -0.03495177
0.039682195 0.04070324 -0.015387356 0.03737634 -0.011393506 0.07890102 0.08102274 -0.037466202
0.042708527 0.031121409 0.014528217 0.03971403 -0.054677192 -0.06787772 0.0553709 0.00053325016
0.034728944 -0.08015419 -0.011918507 -0.060648292 -0.076269016 0.02751579 -0.016187714 0.002143559
-0.040649768 0.06887907 0.022423247 -0.07298121 0.008023102 0.023505455 0.08007993 -0.07429791
-0.08475345 0.06813286 -0.06437147 -0.080865756 0.0021572753 -0.025419274 0.016279673 -0.06830574
-0.038239855 0.026390731 0.07878878 0.08372851 -0.026338568 -0.054257017 0.054773662 0.057517894
0.03047957 0.06379843 -0.033123843 -0.025889197 0.05094585 0.07746505 -0.011351611 0.0768508
-0.0029315222 0.07678187 0.04967392 -0.07701197 0.04053828 0.014138596 0.010480717 -0.040108066
-0.010154487 0.005920805 0.0819879 -0.039587334 -0.081820056 0.07735585 0.04885993 0.05348884
-0.055959962 0.08137068 -0.054255757 -0.028722392 0.07094458 0.07391361 -0.07362808 -0.05909456
-0.079078555 0.08645293 0.043291595 0.06936236 0.027011346 -0.03121473 -0.07597115 0.061827224
0.03809217 -0.041261856 0.020382749 0.039130073 -0.014807449 0.046478547 0.026383262 0.037068903
0.07855289 0.05269458 0.033725716 0.020205546 -0.022763086 0.08501104 0.052371398 0.02584187
0.0020667186 -0.07333669 0.052736368 0.085874096 0.015129534 -0.02712677 0.029148228 -0.010690855
-0.074554145 -0.010748581 0.026676174 0.049631905 -0.073418766 -0.044407956 -0.05778658 0.0265484
-0.032722697 -0.0049053044 -0.02723798 0.040128905 0.06771804 0.031084385 0.065056 0.02471309
0.04216426 -0.053850945 0.046770856 -0.048148435 0.07595403 -0.007963537 -0.037550133 -0.08346445
-0.06813563 -0.05488975 -0.074832 0.011011089 -0.025148056 0.026969474 -0.018696511 0.026407918
-0.060713846 0.00914008 0.034118865 -0.008044226 -0.08511208 -0.05730729 0.087286375 -0.00081617036
0.033095904 0.03621576 -0.07936502 -0.0836251 0.08539129 0.045724034 -0.07771828 -0.08809748
0.014417453 -0.043396812 -0.07438143 -0.08728546 0.08261745 0.082995676 0.043700047 -0.03546804
0.009963416 -0.031302635 -0.053098813 -0.04715157 -0.015003798 -0.061011605 0.07469405 0.0013690324
0.07034494 -0.007929196 0.048510738 0.007103642 -0.038490213 -0.026115319 -0.030107781 0.08665164
0.013742065 0.07653505 0.05462272 0.072437555 0.023072375 0.021839952 0.08701433 0.027433975
0.0718996 0.07559753 -0.009165954 -0.06588525 0.024914348 -0.064106904 0.084009126 0.053622153
0.070992485 0.072326705 0.040506914 0.08523373 -0.019233214 0.08475161 -0.045502875 -0.074908935

cnn.conv_layer.2.conv.bias f4 [32]
00000000: 4c45 a03d 1e0e 7dbc e965 e9bc 2e62 bd3c
00000010: d573 503d b9a4 ae3d 333a 21bc f748 a1bc
00000020: 57f0 12bd e7d4 f73c b5fe fe3c 2228 32bd
00000030: 353d 66bc 979f 7dbc 92db 99bb 1c9b abbc
00000040: cb30 2bbd 8ba6 4e3d ec66 97bd 2c57 24bd
00000050: fe66 02bd 9aea 7c3d 1a86 733d 06af 34bd
00000060: 5774 f93b bdc9 e53c 7711 b2bd 062c 35ba
00000070: 2f38 303d cf27 053d 92a7 15bd 775d 973d
0.07825717 -0.01544526 -0.028490977 0.023118105 0.050891716 0.08527512 -0.009840536 -0.019688113
-0.035873737 0.030252887 0.031127313 -0.043495305 -0.014052679 -0.015479944 -0.0046953643 -0.020947985
-0.04179458 0.050451797 -0.07392678 -0.040122196 -0.031836502 0.06174717 0.05945406 -0.044112228
0.0076127457 0.028050298 -0.086947374 -0.0006911162 0.04302233 0.032508668 -0.03653676 0.07390874

cnn.conv_layer.2.adn.N.weight f4 [32]
00000000: cdfa 7f3f faf0 7f3f 3c05 803f 32f3 7f3f
00000010: 3df2 7f3f 54ed 7f3f bbef 7f3f 0ff1 7f3f
00000020: 49f3 7f3f 9200 803f 9f01 803f e804 803f
00000030: c805 803f 0df6 7f3f 4b07 803f 0f08 803f
00000040: ef07 803f 61f5 7f3f 63f6 7f3f 7df7 7f3f
00000050: b7ee 7f3f c0ff 7f3f fd05 803f 7308 803f
00000060: 9f08 803f 0605 803f 2708 803f 1608 803f
00000070: b808 803f a701 803f cc06 803f a502 803f
0.99992067 0.99977076 1.0001597 0.9998046 0.99979 0.9997151 0.99975175 0.999772
0.999806 1.0000174 1.0000495 1.0001497 1.0001764 0.9998482 1.0002226 1.0002459
1.0002421 0.99983793 0.9998533 0.9998701 0.99973625 0.9999962 1.0001827 1.0002578
1.0002631 1.0001533 1.0002488 1.0002468 1.0002661 1.0000504 1.0002074 1.0000807

cnn.conv_layer.2.adn.N.bias f4 [32]
00000000: 179a 60b9 fc38 68b9 e2ad 1539 2755 23b9
00000010: 48bc 7fb8 43bd 7938 bd2c 84b9 f45a 64b9
00000020: 5fbc 65b9 3f24 66b9 db1b 95b7 e0f2 8039
00000030: 3c28 c438 03ad e338 370a edb8 3063 8db6
00000040: 702f f838 a40b 3db9 142e 52b8 c9e3 5cb9
00000050: 480e 98b7 a85d 26b9 c5e6 9538 addf 4e39
00000060: e1f4 8239 23a7 1339 caa3 2b39 3386 8239
00000070: b3b4 0538 65fe 4d39 2a24 a0b8 989b 6339
-0.00021419708 -0.00022146472 0.00014274524 -0.00015576613 -6.097209e-05 5.954249e-05 -0.00025210335 -0.00021777657
-0.00021909316 -0.00021948012 -1.7775155e-05 0.00024595018 9.3535025e-05 0.000108564294 -0.00011302943 -4.2136744e-06
0.000118343974 -0.00018028781 -5.0110815e-05 -0.00021065692 -1.8126462e-05 -0.00015865883 7.147858e-05 0.00019729017
0.0002497798 0.00014081276 0.00016368847 0.00024895518 3.187796e-05 0.00019645093 -7.6361306e-05 0.0002170637

cnn.conv_layer.2.adn.N.running_mean f4 [32]
00000000: 07b1 ba3e bb38 d63e 3443 b2be 1098 2b3e
00000010: 8719 443e f5bd 083e 43fd 2b3e 3b23 553f
00000020: b04d b83e 42d0 b73d 73c8 38be 6bc3 29be
00000030: 3aee 273e 010f ab3d 76aa 453d ce04 74be
00000040: 9a60 473e e799 c6bd 5821 29bd 6ef8 e5be
00000050: fa9e e3be 1e2f fd3e 4243 7b39 ffa2 f7be
00000060: 9a87 b33e fe6e 94bd ffaa 0ebe 81a3 94be
00000070: 4dcd 2fbc b5bb 8ebe 4d59 a43c bae4 fb3d
0.36463186 0.41840157 -0.34816897 0.16757226 0.19150363 0.13353713 0.1679583 0.8325688
0.3599677 0.08975269 -0.18045215 -0.16578452 0.1639947 0.08352471 0.048258267 -0.23829958
0.19470444 -0.09697323 -0.041291565 -0.449161 -0.44457227 0.4945001 0.00023962281 -0.48366544
0.35064393 -0.072477326 -0.13932417 -0.29030994 -0.0107301 -0.27877584 0.020062113 0.122994855

cnn.conv_layer.2.adn.N.running_var f4 [32]
00000000: 422d 313e e473 4c3e 119e 4e3e 14db 603e
00000010: 20a2 093e 5cca 133e a5ef a03e 4463 9f3f
00000020: d9eb 313e fe11 0d3e e2e6 903e ae20 513e
00000030: 4198 0a3e 1f42 3b3e a445 173e ce4b 733e
00000040: 3096 593e 8859 5c3e 8d27 123e 9d9c ac3e
00000050: 39c5 613e 12a2 e23e b64a f93d eb14 ec3e
00000060: 87f2 233e 7902 7c3e 6529 673e befa d53e
00000070: ff76 043e e954 da3e 9629 f73d dbe3 213e
0.1730242 0.19966084 0.20177485 0.21958572 0.13440752 0.14432663 0.31432834 1.2452168
0.17375125 0.13776395 0.2830115 0.20422623 0.13534643 0.18286942 0.1477266 0.23759386
0.21248698 0.21518528 0.142729 0.33713236 0.2204789 0.44264275 0.12172453 0.4610971
0.16010486 0.24610318 0.22574385 0.41792864 0.12936018 0.42642906 0.12068479 0.15809576

cnn.conv_layer.3.conv.weight f4 [64, 32, 2, 2, 2]
00000000: 1840 42bd 3a1e 153c e3f9 6b3d 0983 3bbd
00000010: 91c8 90bc 6125 74bd c669 42bd 3db4 b43c
00000020: c865 90bc 0b13 77bd d683 daba 9a48 893c
00000030: e7f9 29bd 9288 e73b 5a33 42bd e3bf ed3c
00000040: d61f aabb 4ab3 e4bc fb2a f63c 73fd 4b3d
00000050: b066 713d 403f 6c3d 1904 74bc 7188 34bd
00000060: 4bd4 733d 62e3 52bd d04e 73bd 6ee0 bcbc
00000070: 4df6 3b3b 0c62 67bd d19b 123d 2898 4cbd
00000080: 0ab2 f73c 7629 73bd 92c2 5f3c bceb 5fbc
00000090: 5184 59bd 8373 04bd 4674 3fbd ff4c 58bd
000000a0: 50f2 9b3c 1849 7bbd 03b7 a93c 1ec0 37bd
000000b0: 8b9b 663c 7227 dcbc f9f6 89bc 92ac 01bd
000000c0: 6686 4dbc dbb7 7cbd 90d6 103b 6419 6f3d
000000d0: 106e d43c 585b 40bc 818b cf3c 2be0 843c
000000e0: 94eb 1dbd 9f13 7fbd 27c1 3bbd 2a8f 61bd
000000f0: 81e9 563d 2f82 283d 873c 51bd 736b e93c
00000100: bddb 073d 092a d53c 7b71 f73c 7540 363d
00000110: f81c 16bd 4590 a5bc eac7 54bd 43fc 35bd
00000120: 701d 9bbc 8d2b 7ebd 31ab cabc e3a7 ad3c
00000130: 6f3e cfb9 de20 513d 5095 4c3d e6d6 9c3c
00000140: dfc0 50bd 6b3f ae3b db9a 543d 0fd3 793d
00000150: b6c9 b93b a10c 49bc d9f9 fbbc fb3b f63c
00000160: b652 73bd ebf2 71bd e350 4d3c 15dd 583c
00000170: 6d3f 69bd 5400 f53c 65ea 083c 49f8 f7bc
00000180: 0004 2bbd 334a 5dbd 313c 61bc 15bf fdbc
00000190: 5c78 3abd fa7b a23b 53a5 f63c a494 8ebc
000001a0: 279b 0dbd c823 d6bb a812 67bd 0a9b 99bc
000001b0: a67b 0c3d cea9 7a3c f506 5d3d 40eb 603d
000001c0: 4fbf 6b3b ba6e 193c b118 713c d032 4cbd
000001d0: 1645 f9bb 5a51 04bc c91f 4fbd 48ff 2b3d
000001e0: 0ea4 34bc 67a6 bd3b 0e7f 60bd e0f6 f5bc
000001f0: b8dc 793c 0ef9 1f3d 745c 713d 735f e6bc
00000200: ade9 663d 3699 2c3c 61fa 4e3d 36b6 dd3c
00000210: ce99 383d 50c8 3d3d 9118 403c 171f 08bd
00000220: f808 c93c 9cd9 8e3c 2709 7abd e356 dc3c
00000230: e7a9 0c3d 98df dc3b dd62 563d 8157 17bd
00000240: ff89 ffbc d68f 3f3d f263 2ebc ebc3 10bd
00000250: 4eb6 663b bbf4 b5bc 36b5 60bd cfc6 06bd
00000260: 85c2 593d ee87 1dbd e5cc e5bb 95c7 303d
00000270: 83d3 763c e94b 4ebd 2cde 4f3d bbeb dfbc
00000280: 96a9 b0bb a5be 3dbd 2691 d8bb 7c9f 603d
00000290: ebbe 133d 7b7a 5cbc c35a 2e3d b256 d53c
000002a0: 8d21 5dbd 6978 d53c 8862 713d 7b18 deba
000002b0: 2aba 4d3d 8635 a3ba 287f 303d a00d cebc
000002c0: df0d cf3c 67fc 61bd f43e 6d3a 7aaa fd3b
000002d0: 3e0a 413c c54f 14bd 515d dd3c 7bf3 703d
000002e0: 0c1c b8b9 983e b2ba fbd9 eb3c 3f00 1d3d
000002f0: e9cb 50bd dc41 3dbd e3ef 53bc 4cd7 423c
00000300: fd0a ee3c f16e 093d 21b3 543d 22f0 47bd
00000310: 22e2 3ebd 9140 b73c 55fc 6f3d 34d5 423c
00000320: fb92 48bd dd84 6dbd 53fd 133d 0eec 4dbd
00000330: 8291 2abd 40c2 633d f323 5d3d b9ca 83bc
00000340: 60ba 643d ff52 813c feef 40bd 9494 12bc
00000350: 8974 fc3c 473e b2bc 1e13 45bd dd84 65bd
00000360: 35ec 6fbb 6c76 0c3d 881a 5f3d 571e 03bd
00000370: 6728 a13c c318 7cbc 3827 e13c 8b41 f33c
00000380: a584 fc3c 45f0 873c cfc0 993c ef93 35bd
00000390: 5270 023d 9e07 46bd 3be1 433d d0e7 f53c
000003a0: 8f7c 5fbd b402 993c 446c 26bd 404b 31bc
000003b0: 836c 11bd 8660 443d 993f 35bc c385 72bc
000003c0: 7c04 0ebd 59a9 f03c 8ab2 84bc f2b1 7dba
000003d0: b79a 003d 017a db3c 63ca 1cbd 67c3 3d3d
000003e0: 0bb0 6ebd 6add 23bd 8ed0 f93c 1663 14bd
000003f0: 7095 413d 9f6d 20bd 1c10 873c 6580 85bc
-0.047424406 0.009101445 0.057611357 -0.04577926 -0.017673763 -0.05960596 -0.047464155 0.0220586
-0.017626658 -0.060320895 -0.001667137 0.016758252 -0.04149809 0.007065841 -0.047412254 0.029022163
-0.0051917834 -0.027917523 0.030049792 0.049802255 0.05893582 0.057677507 -0.014893555 -0.044075433
0.05952863 -0.05148638 -0.059401333 -0.023056235 0.0028680742 -0.05648999 0.03579313 -0.049949795
0.030236263 -0.059365712 0.013657229 -0.013667043 -0.053104702 -0.032336723 -0.046741746 -0.052807804
0.019036442 -0.061349005 0.02071715 -0.04486095 0.01407517 -0.026874278 -0.016841399 -0.031658716
-0.01254425 -0.061698776 0.0022100545 0.058373824 0.025931388 -0.011740528 0.025335075 0.016220173
-0.038554743 -0.06227457 -0.0458385 -0.055068173 0.05246878 0.041139778 -0.051083114 0.028493619
0.033168543 0.02602102 0.030205479 0.044495065 -0.03664872 -0.020210395 -0.051948465 -0.04443003
-0.018934935 -0.062053252 -0.024739834 0.021198219 -0.00039528633 0.051056735 0.049947083 0.01914544
-0.050965186 0.0053176186 0.051905494 0.060992297 0.005669798 -0.012271077 -0.030758785 0.030057898
-0.05940505 -0.059069555 0.012531492 0.013236304 -0.056945253 0.029907383 0.008356665 -0.030269759
-0.04175186 -0.05402584 -0.013747261 -0.030974904 -0.04552494 0.004958627 0.03010813 -0.017404862
-0.034571793 -0.006535027 -0.056414276 -0.018750686 0.034297608 0.015299274 0.053961713 0.054911852
0.0035972183 0.009364778 0.01471536 -0.049853146 -0.0076071126 -0.008076036 -0.050567422 0.041991502
-0.011025442 0.005787659 -0.05480867 -0.030024946 0.015250377 0.039055876 0.05892606 -0.028121686
0.056375194 0.010534575 0.05053175 0.027064424 0.045068555 0.04633361 0.011724607 -0.033232775
0.02454041 0.017437749 -0.061043885 0.0268969 0.03434172 0.0067405216 0.052340377 -0.036948685
-0.031193731 0.046768032 -0.010643946 -0.035343092 0.0035203877 -0.022211423 -0.054860316 -0.032904442
0.053164024 -0.03845971 -0.0070129507 0.043159086 0.015065077 -0.050365362 0.05074899 -0.027334085
-0.00539131 -0.04632439 -0.0066091 0.054839596 0.036070745 -0.013456936 0.042567026 0.026042316
-0.053987075 0.026058393 0.058931857 -0.0016944552 0.050226368 -0.0012451864 0.043090016 -0.025152981
0.025275169 -0.05517235 0.0009050213 0.0077412697 0.011782227 -0.036208887 0.027022036 0.05882595
-0.0003511611 -0.0013598977 0.028790465 0.038330313 -0.050975714 -0.046205387 -0.012935611 0.011892151
0.029057974 0.033553068 0.051928643 -0.048812993 -0.046602376 0.022369655 0.058590252 0.011891652
-0.048968296 -0.057988036 0.03613026 -0.050273947 -0.041642673 0.055605173 0.053989362 -0.016087877
0.055841804 0.015786646 -0.047103874 -0.008946557 0.030817287 -0.021758212 -0.048113935 -0.05603491
-0.0036609296 0.034292623 0.05446866 -0.032011356 0.019672586 -0.015386763 0.027484521 0.02969434
0.030824969 0.016594062 0.018768696 -0.044330534 0.0318454 -0.048347108 0.04782222 0.030017763
-0.054562148 0.018678047 -0.040630594 -0.010821164 -0.035503875 0.047943614 -0.011062526 -0.014802399
-0.034672245 0.029377626 -0.016198415 -0.00096777 0.031397548 0.026791574 -0.03827895 0.04632893
-0.058273356 -0.04000608 0.030494954 -0.03622731 0.047261655 -0.039167043 0.016487174 -0.016296575

cnn.conv_layer.3.conv.bias f4 [64]
00000000: 6ab3 5f3d f820 90ba b992 123c 0480 41bd
00000010: 3a47 7dbb e274 173d f4ed 033d 682d 8fbc
00000020: 2223 003b 0559 803c 7e14 1fbd a6e7 e33c
00000030: a293 00bd 4b6c 35bb fd58 653c 9717 5abd
00000040: cee0 633c 43e1 2fbd 6cbc bf3c 3ab5 38bd
00000050: c14c 11bd 05f0 79bd a5cb 0d3b 401d 613d
00000060: fd56 6dbc 89c6 3dba 3d97 5a3a 02d3 7c3d
00000070: db39 09bc 1f88 ca3a 61a0 ddbb eed7 6e3d
00000080: 11a0 5ebd 20fb 00bc 328f cbbc f47e 713d
00000090: 213c 06bd 23b5 6fbd 1097 b2bb d17d 4a3d
000000a0: 5dca d4bc 18f8 6dbd 0206 61bd db25 09bc
000000b0: 5e63 57bc 3109 5b3c 8792 233c 14d6 d83b
000000c0: 5902 3ebd 7f17 233d c4ed 0c3c d846 1d39
000000d0: 6616 0b3d d533 62bc 9fbd 99bb a1b8 183d
000000e0: 969c e93a c26d 0e3d 7abd 373d 8041 19bd
000000f0: 58db c93c 9c56 173d d76f 1a3d edd1 323d
0.054614462 -0.0010996154 0.008946114 -0.047241226 -0.003864719 0.036976703 0.03220935 -0.017477706
0.001955219 0.015667448 -0.038837902 0.02782042 -0.031390794 -0.0027682956 0.013998267 -0.053245153
0.013908578 -0.042939436 0.023405276 -0.045094706 -0.03547359 -0.061019916 0.0021636274 0.054959536
-0.014486072 -0.0007239362 0.00083385763 0.06172467 -0.00837561 0.0015451944 -0.0067635034 0.058311395
-0.05435187 -0.007872373 -0.024848554 0.058958963 -0.032772187 -0.058522355 -0.005450137 0.049436394
-0.0259754 -0.05809793 -0.05493737 -0.008370842 -0.01314625 0.013368891 0.009983665 0.006617317
-0.046388958 0.03981733 0.00860161 0.00014999078 0.033956908 -0.013806303 -0.004691794 0.03728545
0.0017823156 0.034772642 0.044858433 -0.03741598 0.024640724 0.03694783 0.037704315 0.043657232

cnn.conv_layer.3.adn.N.weight f4 [64]
00000000: 34f0 7f3f a507 803f ca07 803f 9007 803f
00000010: 57f0 7f3f a508 803f 5608 803f 2ef0 7f3f
00000020: 67f0 7f3f 09f3 7f3f 7607 803f 4a03 803f
00000030: 36f2 7f3f 07f0 7f3f 6207 803f 94ef 7f3f
00000040: a8f3 7f3f c603 803f bef1 7f3f e1f2 7f3f
00000050: a405 803f 10f3 7f3f 6708 803f d9fb 7f3f
00000060: 91ef 7f3f 8aff 7f3f 1208 803f 9d07 803f
00000070: 8bfa 7f3f 6bf7 7f3f 7ff1 7f3f a0f1 7f3f
00000080: 2008 803f 41ef 7f3f 3206 803f ebf1 7f3f
00000090: 0800 803f b2f1 7f3f 3208 803f fffc 7f3f
000000a0: 7907 803f 4ff1 7f3f fb07 803f a702 803f
000000b0: a5f1 7f3f 0108 803f 1307 803f 9b08 803f
000000c0: f608 803f 39f0 7f3f 50ee 7f3f 3307 803f
000000d0: 2300 803f 37ee 7f3f 42ef 7f3f 06f0 7f3f
000000e0: 43ef 7f3f b308 803f 7201 803f 3508 803f
000000f0: d0f6 7f3f 1100 803f 29f1 7f3f ad08 803f
0.99975896 1.0002333 1.0002377 1.0002308 0.99976104 1.0002638 1.0002544 0.9997586
0.999762 0.9998022 1.0002277 1.0001004 0.9997896 0.9997563 1.0002253 0.9997494
0.99981165 1.0001152 0.99978244 0.9997998 1.0001721 0.9998026 1.0002564 0.99993664
0.99974924 0.99999297 1.0002463 1.0002323 0.99991673 0.99986905 0.9997787 0.99978065
1.000248 0.9997445 1.0001891 0.9997851 1.000001 0.9997817 1.0002501 0.99995416
1.000228 0.9997758 1.0002435 1.000081 0.99978095 1.0002443 1.0002159 1.0002626
1.0002735 0.99975926 0.9997301 1.0002197 1.0000042 0.9997286 0.99974453 0.9997562
0.9997446 1.0002655 1.0000441 1.0002505 0.9998598 1.000002 0.99977356 1.0002648

cnn.conv_layer.3.adn.N.bias f4 [64]
00000000: 0bf6 62b9 d318 7339 f6c4 2639 99fc 8339
00000010: 30e6 87b9 756f 8739 b29d 8b39 f757 81b9
00000020: 9ae3 78b9 fc86 62b9 d455 8d39 1c49 8737
00000030: 6b5b 54b9 ee38 71b9 5c4d 7d39 6af8 83b9
00000040: 1891 5ab9 0d1d 9835 340c 89b9 084c 68b9
00000050: 6ca6 96b8 2c51 79b9 a8d5 8c39 dc87 a9b6
00000060: 2857 86b9 e0cb 56b9 b3fb 5e39 7f17 7a39
00000070: b206 4b38 e753 22b9 7969 7bb9 4000 5bb9
00000080: 2c39 8339 c28b b4b8 71b2 6939 8252 c836
00000090: 76ba 5fb8 4867 78b9 8dfd 8539 bd85 78b8
000000a0: 4cb2 7b39 0ca3 4db8 c13f 8139 458b 1039
000000b0: cc7c 56b9 cab3 7339 39ea 9038 8070 5539
000000c0: 7251 9539 0fb3 71b9 0b53 80b9 d95c 64b9
000000d0: a7ef c2b8 faf0 82b9 5b62 8ab9 6f19 25b9
000000e0: 7357 88b9 362b 7039 e999 6239 6f10 8639
000000f0: 8b83 3fb9 de0f 41b8 c845 77b9 b2bb 8c39
-0.00021644698 0.00023183534 0.00015904367 0.00025174467 -0.0002592071 0.00025832249 0.00026629638 -0.00024670336
-0.00023735911 -0.00021603325 0.00026957563 1.6127298e-05 -0.00020251951 -0.00023004759 0.00024156779 -0.0002517135
-0.00020844152 1.1333337e-06 -0.00026139768 -0.00022153568 -7.183556e-05 -0.0002377673 0.00026862067 -5.0524086e-06
-0.00025623408 -0.0002048458 0.00021265335 0.00023850611 4.8405207e-05 -0.0001548078 -0.00023976517 -0.0002088556
0.00025028863 -8.609101e-05 0.00022287086 5.9700697e-06 -5.3341e-05 -0.00023689598 0.00025556647 -5.925236e-05
0.00024003646 -4.9027658e-05 0.00024652298 0.00013784792 -0.00020455121 0.00023241263 6.9100824e-05 0.00020355172
0.00028480176 -0.00023050256 -0.00024475934 -0.00021778363 -9.2952796e-05 -0.00024975074 -0.00026394692 -0.00015745101
-0.00026005096 0.00022904281 0.00021610376 0.00025570716 -0.00018264183 -4.6029563e-05 -0.00023581751 0.00026842725

cnn.conv_layer.3.adn.N.running_mean f4 [64]
00000000: fa89 89be c034 4bbd 5320 c4bd 0b64 d83d
00000010: b3e7 853d 6a96 a1bd 9741 353d e7f9 8ebe
00000020: 240e 383e 4041 36bf 2923 6fbe 7654 2f3e
00000030: 19b0 f9bd 8b36 5c3e 30dc 9c3e c582 f33d
00000040: 404a c1be 0406 69bd 0ad2 413f 0b22 07be
00000050: a78a c03e 2ed4 b3be 592e 05be 89c9 9f3c
00000060: 72a3 203f e256 013f 4930 8e3e a7b5 cd3e
00000070: 1af6 11be 9d5e 06bf 2ef0 a0be 6dfe 05be
00000080: 72bb 38bd 494c 3bbe befd 803e 52b1 7f3e
00000090: e87f a6be ab74 003e fd4f bebe a005 9e3d
000000a0: a50d d3be 5ee3 22be fc12 013e 3805 3a3e
000000b0: 58f5 42be fc7e acbe 8746 423e 774d ad3e
000000c0: 13fb 523e 9574 e33e 1a71 273b b02e bc3e
000000d0: 89ce e3be 9489 303e 2ceb afbe 76b4 2f3e
000000e0: e911 cf3d f65f 6f3d 3e19 873e 25c5 b93e
000000f0: 80e0 cebd 7deb 87bd b4ee cfbe e419 3bbd
-0.2686308 -0.049610853 -0.09576478 0.10565957 0.06538334 -0.07890017 0.044252004 -0.27925035
0.17974144 -0.71193314 -0.23353256 0.17122063 -0.12191791 0.21505181 0.3063674 0.11890177
-0.3775196 -0.056890503 0.7571112 -0.1319658 0.37605783 -0.35122818 -0.13005961 0.01950528
0.627494 0.505232 0.27771214 0.40177652 -0.14254037 -0.5248812 -0.31433243 -0.13085337
-0.045100637 -0.18290819 0.2519359 0.24969986 -0.3251946 0.12544505 -0.371704 0.07715917
-0.41221347 -0.15907046 0.12604898 0.18166053 -0.19038904 -0.3369063 0.18972217 0.33848163
0.2060359 0.44424883 0.0025549592 0.3675437 -0.4449351 0.17239982 -0.3435911 0.17158684
0.10110838 0.058441125 0.26386446 0.36283222 -0.10101414 -0.06636713 -0.40611804 -0.045678988

cnn.conv_layer.3.adn.N.running_var f4 [64]
00000000: b8b3 723e 8485 4f3e 53cd 863e aa52 f13e
00000010: e881 ff3d 45f5 823e 70ce 413e 1a92 813e
00000020: b4d5 3a3e 5c8d 143f afb3 663e 189a 6f3e
00000030: 2351 1a3e 1eea 9a3e 8073 983e 995e 5c3e
00000040: 4a54 be3e 8781 523e 4db2 023f 343f 2f3e
00000050: 67f5 e63e 59ed 9a3e 737e 8d3e e5f5 813e
00000060: f9d3 043f 32d3 0d3f 005b b13e c00d 633e
00000070: bde6 293e 4c8c ce3e e0ec c53e 1a55 803e
00000080: 0aee 583e d1ba 3d3e d424 ad3e 203d 893e
00000090: d00d 733e 2d3d 0c3e 54bf fe3e f521 663e
000000a0: 129a 943e f202 643e f931 753e 13b6 553e
000000b0: df5c ac3e 57d9 573e 1e5c 733e b1b6 b83e
000000c0: 465b b33e 7be2 af3e cee6 593e 127b 923e
000000d0: c79d ba3e b101 b73e 0908 783e 3373 1b3e
000000e0: f7bc 4a3e 1fc1 f53d 200f 4f3e 58f2 9e3e
000000f0: ab4c 8b3e 5ec2 2d3e 7718 cf3e cf9a 2c3e
0.2370137 0.20265776 0.26328525 0.4713338 0.124759495 0.2557775 0.18926406 0.2530678
0.18245584 0.580282 0.22529481 0.23398626 0.15070014 0.30256742 0.2977562 0.21520461
0.37173682 0.20557223 0.51053315 0.17113954 0.45109102 0.30259207 0.27635536 0.25382915
0.51885945 0.55400383 0.3463974 0.22173214 0.16591926 0.40341413 0.38657284 0.25064927
0.21184555 0.18528296 0.3381716 0.26804447 0.23735738 0.13695212 0.49755347 0.22473891
0.29023796 0.22266749 0.23944844 0.20870237 0.33664605 0.21079002 0.23765609 0.36076882
0.35030574 0.34352478 0.21279451 0.2860952 0.364485 0.35743478 0.24221815 0.15180664
0.19798647 0.119997256 0.20220613 0.3104427 0.2720693 0.16968676 0.40448353 0.1685593

gru.gru.weight_ih_l0 f4 [192, 512]
00000000: 0ab2 89bd 3cd1 9f3d 8d1b 00be 900e 56bd
00000010: 08da c6bd 4ad6 d33d 1d09 1f3d 7fd4 2f3d
00000020: 0852 803d 8c6e ddbd ee79 4bbc dc25 a4bd
00000030: db1b eebd 6182 703d 2c0b 95bd 7c39 813b
00000040: a36c fa3d b7b3 933d 0a0a d1bc 9d12 debd
00000050: 2fe7 b2bd 9d03 9a3d 9fc8 f5bc 7655 493c
00000060: 8aca ac3d efa4 2dbd f9d2 393d d700 323b
00000070: c7f2 b93d 543b f8bb 60f5 05bd 1958 a53d
00000080: 5230 713d 3d4c 8fbd c01e a43c d2b7 65bb
00000090: 6da8 94bc c63b 4f3b 5956 ff3d 5d23 fbbd
000000a0: 734a b3bd a36c acbd 7c54 0b3d 04d9 83bd
000000b0: 502d 5a3d af1c 8f3d eb5a 93bb 73f6 653a
000000c0: 1a61 963d 0c5d 6a3c ff03 fdbd adce 083b
000000d0: a531 bebd 06f9 90bd 67f1 cf3d 0415 9c3a
000000e0: 3d02 d63d ba51 273c 09f9 d4bd a1d9 8cbc
000000f0: 1cde eb3d c747 9cbb f39b 72bd 76e1 ff3c
00000100: a626 82bd ebe1 d4bd d50b acbc f909 573d
00000110: 1691 26bd b85f 383d e172 28bd 6d14 903d
00000120: d9e1 d43d 0599 723d bc9d a63c 8076 ae3d
00000130: bf8a 8d3d 844a 92bd adc8 9f3b c01b 203d
00000140: 6dce cf3d 2b40 2dbd 8aca 8f3d c36b 923c
00000150: 52b5 ddbd 5b85 dbbd 75b6 edbd 8b62 a6bd
00000160: 39b6 243d b0cf 923c b290 dabd f07b 953d
00000170: b4e2 a3bd 56b9 5dbd 2b69 7a3a 2523 3dbd
00000180: 35b8 fcbd 36c8 79bc 9606 69bc fcd6 ffbd
00000190: fd35 dabd 54f0 c83c 57df 363d ae81 903d
000001a0: 9047 063d 3c71 163d 07b8 183d 923b e4bd
000001b0: b385 7ebd 074a 25bd 7a82 373d 5ea0 89bd
000001c0: 777e 403d 753b 953d 9d12 c2bd dc63 cb3d
000001d0: f698 dbbd 9823 c5bd fc34 333d 8bc8 013d
000001e0: 641d 8d3d 2d23 613d 336f 9b3d a6a2 b33d
000001f0: 688b b33c 78c9 973d 0f0e a5bd ed40 4c3c
00000200: b364 6f3d 3a49 96bd 1633 debd 852f 973d
00000210: 0e01 1cbd f50c 5b3c a102 d4bd dc36 9abd
00000220: ade2 b8bb c642 c73d d6bc e03d b5dc 5abd
00000230: 7d56 24bd 1be4 a3bd 3a9f f23d 0b29 debd
00000240: bba3 9dbb 1e62 cebd 8f24 aabd c482 083b
00000250: ec70 ac3d a527 d5bb 155a fc3d c6ec de3d
00000260: a421 803d 1e71 03bd 790e ec3d c837 0ebd
00000270: 7071 d4bd 32cb 5abd d4b2 953d afb0 d63d
00000280: c611 c73c 205a de3c f81f 893d ac25 89bd
00000290: a789 37bd ba1f 8cbd 8c22 ebbd 15f7 453d
000002a0: f2b0 f5bd 0985 983d 504b 3abc 28a9 e6bd
000002b0: 046b 8ebd c953 723d b67a b8bd f57b f43d
000002c0: 0936 89bd c950 353c f972 68bd bbe8 ba3d
000002d0: 449d 78bd f59a 503d e952 c8bd 2a8c 8ebd
000002e0: c82b d1bd 284c b43c 66ac 8d3d 22b3 d0bd
000002f0: c8ce 9cbd 78c0 80bd 4d61 a7bc 3571 fb3c
00000300: 448a 813d 7cb8 893d c05c c93d 4d84 9f3c
00000310: c381 fcbc a45d 8f3d 9b13 3dbd a35a 46bd
00000320: 364d f23d ede4 62bd 43d3 dbbd d632 0bbd
00000330: e64e d43d 2415 fe3d 2ccc 21bc fc97 ccbd
00000340: 3051 2dbd 64fe 30bd b3bb dfbd 4ffb 46bd
00000350: cb8f 56bc a2bd ec3d ec69 743d 602b 333d
00000360: 0eda cb3d 4bb5 2e3d 1d21 f43d 3a53 dbbd
00000370: e101 273c 9451 94bd 4cbd a13d 8e77 b3bd
00000380: df0b 56bd f5dc 95bc cd80 45bd 14d3 c83a
00000390: ed17 3abc 3841 9f3d 00ac b43d 7368 b2bd
000003a0: f6fa 173d 6545 e83d 01b6 c3bd e78b a1bd
000003b0: 68aa 45bd b933 553d 6615 ff3d 8d1b 09bd
000003c0: 18e4 7cbc 141b f0bd 6772 813d 73a8 c9bd
000003d0: d9df ef3c a88e e9bc 3812 af3d 54a4 e6bd
000003e0: 8225 f5bd 845e c6bc 4688 543d cbbc 25bd
000003f0: 5814 d2bd 7613 f83d 8024 c3bd a3ca 423d
-0.067234114 0.0780358 -0.1251051 -0.05225998 -0.09709555 0.10343607 0.03882705 0.04292726
0.06265646 -0.10812101 -0.012419207 -0.080150336 -0.11626407 0.05871809 -0.072775215 0.0039436202
0.12227752 0.07212012 -0.025517482 -0.10843394 -0.08735501 0.075202204 -0.03000289 0.012288442
0.08437069 -0.04239362 0.045367215 0.0027161145 0.09079509 -0.007575432 -0.03270471 0.08073444
0.058883972 -0.06996963 0.020034194 -0.0035052192 -0.018146718 0.003162132 0.124676414 -0.122626044
-0.087544344 -0.08419158 0.034016117 -0.06437877 0.05326587 0.06987893 -0.0044969223 0.00087723805
0.073427394 0.014304411 -0.12354278 0.0020875141 -0.09286813 -0.070787475 0.10153466 0.0011908119
0.10449646 0.010212356 -0.10399062 -0.017193617 0.115169734 -0.0047692987 -0.059230756 0.031235438
-0.06355028 -0.10394653 -0.021001736 0.052499745 -0.04066571 0.04501316 -0.041125182 0.07035146
0.103946395 0.059227962 0.020338885 0.08518696 0.06911229 -0.07143119 0.0048762173 0.039088964
0.101467945 -0.042297523 0.07021053 0.01787365 -0.108256 -0.10718795 -0.116070665 -0.08124264
0.040212844 0.017921299 -0.1067213 0.0729903 -0.080022246 -0.05413183 0.00095524144 -0.046176095
-0.12339822 -0.015245488 -0.014222762 -0.12492177 -0.10654829 0.02452866 0.044646587 0.070559844
0.03278309 0.036729082 0.037284877 -0.11144175 -0.062139224 -0.0403538 0.044802167 -0.06720041
0.046995606 0.07286731 -0.094762065 0.09931156 -0.10722534 -0.096259296 0.0437517 0.031685393
0.068903714 0.054965187 0.07589569 0.08771257 0.02191706 0.07411474 -0.08059322 0.012466651
0.058445644 -0.073381856 -0.108495876 0.073821105 -0.038086943 0.013369788 -0.10352064 -0.07529995
-0.0056422562 0.09729533 0.109735176 -0.05343314 -0.040121544 -0.08002492 0.11846776 -0.10847672
-0.004810778 -0.10077308 -0.08307754 0.0020829896 0.08419976 -0.00650497 0.12321869 0.10885005
0.062564164 -0.0320903 0.11526198 -0.034721166 -0.10373199 -0.05341644 0.073094994 0.104829185
0.024300467 0.027142584 0.06695551 -0.066966385 -0.04480901 -0.06841989 -0.11481199 0.04833134
-0.1199664 0.074472494 -0.011370495 -0.11262733 -0.06954005 0.059161935 -0.0900778 0.119377054
-0.066997595 0.011066624 -0.05675027 0.09126421 -0.060696855 0.05092903 -0.09781439 -0.06960328
-0.10213429 0.02200897 0.06917648 -0.10190417 -0.07656628 -0.062867105 -0.020432139 0.03069363
0.063252 0.06724641 0.09832144 0.019472266 -0.030823594 0.070002824 -0.046161275 -0.04842628
0.11831133 -0.055394102 -0.10733654 -0.033984028 0.10366611 0.12406376 -0.0098753385 -0.09989926
-0.042313755 -0.043211356 -0.10924473 -0.04857951 -0.013095806 0.11559607 0.059671327 0.043742537
0.099537 0.042653363 0.11920378 -0.107092336 0.010193319 -0.07242122 0.07897434 -0.087630376
-0.052257415 -0.018293837 -0.048218537 0.0015321695 -0.011358243 0.07776111 0.08821869 -0.08711328
0.03710457 0.11341361 -0.09556199 -0.078880124 -0.048258215 0.05205128 0.12455253 -0.03347354
-0.015435241 -0.11723915 0.06320649 -0.09846582 0.029281544 -0.028510407 0.08548397 -0.11261812
-0.11970045 -0.02421499 0.051887773 -0.04046325 -0.102577865 0.12113087 -0.09528446 0.04755653

gru.gru.weight_hh_l0 f4 [192, 64]
00000000: e0a5 b8bd 4418 6ebd 80c5 da3b d6db 9cbd
00000010: 604d f5bb 989c 273d 2077 fbbd f459 55bd
00000020: 34ad 3cbd 1ee9 87bd ec4f d9bd f0ef cc3c
00000030: b0bf 4c3d c060 85bb 2426 12bd 18a7 fbbd
00000040: f6dd f0bd 206c 783c e88d d23d f4fd 603d
00000050: 7480 1abd d098 7b3c fc61 d53d 3263 d3bd
00000060: 5afc b83d e4b0 80bd 96a5 b53d ac6f 57bd
00000070: 941a 82bd cedf f9bd 00c8 143c 600c da3c
00000080: cca3 993d 3a7d d23d 08a8 75bd f03e a93d
00000090: fc68 193d 70b6 6c3c 1073 2f3c 206c 7a3c
000000a0: 304f ae3d a0a3 4f3d 50f5 8c3d 422f a9bd
000000b0: 38a1 4dbd 3054 af3c 48f5 243d 30ed 5fbd
000000c0: aa96 d03d 6c57 173d f04f 36bc e816 b9bd
000000d0: 80fc bc3b e8b4 bb3d 70d4 7fbd 100f b7bc
000000e0: 50d3 12bd 60b0 f6bc c00f e8bb 4071 7c3d
000000f0: ac74 0dbd 407a 35bb 906a 023d 449d cf3d
00000100: a63a b2bd 2491 e8bd 7c75 623d f8a7 373d
00000110: f4b3 f0bd 885f dc3d b870 8f3d 1c99 6abd
00000120: 0401 fa3d 863c d1bd 201d b8bb 8c95 47bd
00000130: 2862 263d 72ee aebd 8abb ce3d 68d1 92bc
00000140: 60f9 6d3d a438 8f3d 98ef 6d3d aa69 82bd
00000150: f6b4 ff3d fca3 c6bd 70de 6dbc ba7e df3d
00000160: a007 6f3c 9004 783c 86b6 c5bd 28ba 82bc
00000170: 3c3b 07bd 80bd d0bd e095 bcbb 6c0f d23d
00000180: 70dd 82bc 7c2b 103d 2a7f ea3d c846 d0bd
00000190: 98d4 b83c e87e e63c 9824 a23d cae6 eebd
000001a0: e037 883b f043 17bc 1447 9abd 80b8 8c3d
000001b0: 9a9d f93d 32d1 e83d a0a1 88bc b80c 9ebc
000001c0: 9845 fbbd 407b ac3c 2868 f03d 4ee3 e73d
000001d0: 04b7 463d 7c1b 19bd 34a6 c83d 88ee 6ebd
000001e0: 284e ea3d 98d5 943c 0077 d3ba 4c0e b4bd
000001f0: bc27 493d 9478 2fbd 007d d63a a09b f3bb
00000200: 327d eb3d 427c 87bd 20d9 343c 3cbd cbbd
00000210: e83e 2abd e2ff c4bd 4020 7f3b 6e06 cbbd
00000220: 56e4 c5bd 8698 bd3d a8be 82bc 6022 73bc
00000230: 60b8 0d3c 90ff 9abd f6be 9bbd 6a44 923d
00000240: 48bd 9a3d e03d 9ebd 0423 00bd 1097 5d3d
00000250: 4234 823d 7e79 803d 744a 31bd 04f7 eebd
00000260: f62b 83bd eee3 d9bd d41d 56bd 10f4 53bd
00000270: ee4a a7bd e2bf 87bd e45e 9abd 4cf0 e23d
00000280: 78f8 f1bd ec27 e7bd a045 183c 9cae a13d
00000290: 7861 f33c 9046 0e3c c494 dd3d 70e1 c13d
000002a0: 788b aa3c 24d7 d73d c2cf ed3d 58df 953d
000002b0: f231 bf3d 4eb3 c53d 0059 963b fc8f 70bd
000002c0: 864b eabd 405f c9bd 5ada b63d 6aab 9d3d
000002d0: 4227 e23d e826 e3bd 7455 723d bcf2 3b3d
000002e0: 786a b83c 4a75 8dbd e27d c5bd 944c 0c3d
000002f0: 3c5a 8cbd e451 863d 78bd df3d 8efd e33d
00000300: 703a 073c 6e09 d23d 2a33 bebd 8090 9ebd
00000310: 8cd9 313d 549d 2b3d b487 d03d 8493 d5bd
00000320: ceb5 d93d 2073 d03b dc16 6f3d 80c1 ecbb
00000330: 502d 79bd d0e8 003c c065 fdbd 9611 aebd
00000340: c6cf cd3d a6d7 bbbd 8455 a13d 2a33 a53d
00000350: 5aff 93bd e85f 4c3d de50 963d 5638 873d
00000360: 6c00 64bd 64b1 473d 223c ff3d 207d 5b3d
00000370: 70d4 433d 142c 3d3d c8a0 fbbc 005f 123c
00000380: ccfa 233d 8208 e73d 7c6d a73d 6a85 eebd
00000390: 2018 433c 4682 933d 2889 f6bc 12ee 8abd
000003a0: 849e 48bd e088 383c c098 3cbb a60c a6bd
000003b0: 0c75 ebbd d02c d0bd fe62 db3d b896 9b3c
000003c0: 94e0 89bd e627 823d 6ec4 fb3d ec72 603d
000003d0: 6cd8 ee3d e8c5 e9bc 6880 acbc 04f4 f3bd
000003e0: 0ac8 99bd 608e 7cbc accb 81bd e83b fabc
000003f0: 907e 163c 4053 d0bc f047 03bd 887c c8bc
-0.09016013 -0.05812861 0.006676376 -0.07659118 -0.0074860305 0.040920824 -0.12278581 -0.05208774
-0.046063617 -0.066362604 -0.10610947 0.025016755 0.049987495 -0.0040703714 -0.035680905 -0.1228773
-0.11761086 0.015162498 0.10280973 0.05492969 -0.03772016 0.015356258 0.1041908 -0.103216544
0.09032507 -0.06283739 0.08869474 -0.052596733 -0.063527256 -0.122008905 0.009080887 0.026617229
0.07501945 0.10277791 -0.0599747 0.082639575 0.037453637 0.014447793 0.010708585 0.015284568
0.085111976 0.050693154 0.06882727 -0.08260967 -0.05020258 0.021402448 0.04027298 -0.05466956
0.10184987 0.036948606 -0.011127457 -0.09037572 0.005767405 0.091653645 -0.062458456 -0.02234605
-0.035846055 -0.030113399 -0.0070819557 0.06163144 -0.034535095 -0.0027691275 0.031839907 0.10137418
-0.087025926 -0.113558084 0.055287823 0.04483792 -0.11753073 0.10760409 0.07003921 -0.057274923
0.12207225 -0.10216622 -0.0056187063 -0.048726603 0.040620953 -0.085415736 0.10094364 -0.017922118
0.05809915 0.06993225 0.058089823 -0.0636781 0.124856874 -0.09699246 -0.014518365 0.10912843
0.01458922 0.015137807 -0.09653954 -0.015957907 -0.033015475 -0.10192394 -0.005755171 0.10256848
-0.01597473 0.03519772 0.11450036 -0.101697505 0.02256231 0.028136685 0.07917136 -0.11665113
0.0041570514 -0.009232506 -0.07533088 0.06871128 0.12188263 0.11368026 -0.016678631 -0.019293174
-0.12269133 0.021054864 0.11738616 0.11322652 0.04851438 -0.037379727 0.09797326 -0.05833295
0.11440688 0.018168256 -0.0016133487 -0.087917894 0.04911016 -0.0428396 0.0016364157 -0.0074343234
0.114984885 -0.06615497 0.011038095 -0.09948203 -0.0415639 -0.09619118 0.0038929135 -0.09913336
-0.09662692 0.09257607 -0.015960053 -0.014839739 0.008649915 -0.07568276 -0.07604782 0.07141955
0.07555634 -0.077266455 -0.031283394 0.054099143 0.06357624 0.06273173 -0.043283895 -0.11668208
-0.06404869 -0.10639177 -0.05227454 -0.051746428 -0.081685886 -0.066283956 -0.0753763 0.11080989
-0.1181497 -0.11286911 0.009293944 0.07894632 0.029709563 0.008683816 0.108193904 0.09466827
0.020818457 0.10539082 0.11611892 0.0731799 0.09335698 0.0965334 0.0045882463 -0.058731064
-0.11440186 -0.098326206 0.08928366 0.0769871 0.11042644 -0.11091405 0.059163526 0.045885786
0.022511706 -0.06907137 -0.09643151 0.034252718 -0.06853148 0.06558588 0.1092481 0.11132346
0.008253679 0.10255705 -0.092871025 -0.07742405 0.04342036 0.041898087 0.10182133 -0.10428527
0.106303796 0.00636138 0.05837141 -0.0072252154 -0.06083423 0.007868007 -0.12372923 -0.08499448
0.10049395 -0.09171991 0.07877639 0.080663994 -0.07226439 0.04989615 0.07339643 0.06602542
-0.055664465 0.048753157 0.12462641 0.053586125 0.047810018 0.046184614 -0.030716315 0.008933783
0.0400341 0.112809196 0.08175179 -0.116465405 0.011907607 0.07202582 -0.030094698 -0.067836896
-0.048979297 0.011263102 -0.002877757 -0.08107881 -0.11496934 -0.10164797 0.10712241 0.018992767
-0.06732288 0.06355266 0.12293325 0.054797098 0.11662373 -0.028536752 -0.021057323 -0.11911777
-0.075088575 -0.015414804 -0.063376755 -0.030546144 0.009185448 -0.025430322 -0.032051027 -0.024473444
