model_smri_pre_20_ep_scheduler_2022-10-27T14:24:17.488203/best_metric.pth (torch, 561209 bytes, 32 tensors)

cnn.conv_layer.0.conv.weight f4 [8, 1, 2, 2, 2]
00000000: 0a36 a1bd 8880 3db9 648d 8ebe 6330 1abe
00000010: 2fea aa3e 85fc 113d 2541 8bbe 1c12 96be
00000020: 8137 9e3e 95e5 a73e 0890 833e 5162 3d3e
00000030: 1bd6 c63b 1025 48be 235f 483d 7d2b 05be
00000040: 8d5d d9bd ca3c 0a3e 4b61 3d3e 8e97 fb3d
00000050: b02a af3e 128f b0be ee3f acbd a14e a7be
00000060: c9db 083e 1e15 603d 1b49 153e 7079 a2bc
00000070: ec6f d9bc 2c67 ae3d 568d bebd d3ed efbd
00000080: 200d bcbd 36b3 6bbe 58a8 023e f5e8 0e3e
00000090: 48ef 133e 287b c03d abf6 c2bd 926f 98be
000000a0: 9a9b 6d3d 07f4 7bbe 89aa 943e 0d3a 043e
000000b0: c8a6 93be 32ef d2bd a305 3d3e f402 853e
000000c0: 7fcf 943e c9ac ddbd 281a f63d e7f8 ac3e
000000d0: 39b4 5abe 5ee7 f63d 267e 943d 59e6 9ebe
000000e0: f27d a53e 8d45 a1be d31e a13d e931 a73e
000000f0: 7197 adbe f2e0 2bbd f394 ae3d f832 34bd
-0.07871635 -0.00018072326 -0.27842247 -0.1505752 0.33381793 0.035641212 -0.2719814 -0.2931069
0.3090172 0.32792345 0.25695825 0.18494536 0.006068004 -0.19545388 0.048918854 -0.1300487
-0.106135465 0.13499752 0.18494146 0.12284766 0.34212255 -0.34484154 -0.08410631 -0.32677177
0.13365091 0.05470764 0.14578669 -0.019833297 -0.026542626 0.08515772 -0.093043014 -0.11715283
-0.09182191 -0.23017582 0.1275953 0.13956054 0.14446747 0.0939849 -0.095197044 -0.2977262
0.05800972 -0.24604808 0.29036358 0.1291277 -0.28838181 -0.10299529 0.18459181 0.25978816
0.29064557 -0.10823972 0.12016708 0.33783647 -0.21357812 0.120558485 0.072506234 -0.31035116
0.3232265 -0.31498376 0.078672074 0.32655266 -0.33904603 -0.04196257 0.085245036 -0.04399392

cnn.conv_layer.0.conv.bias f4 [8]
00000000: 12ab 2c3e 9651 a83d f913 8dbd a54e 6d3e
00000010: 88a2 043e 2e93 233e 956e b23e 3a9e 21bc
0.16862133 0.08218686 -0.06888575 0.23174532 0.12952626 0.15974113 0.34849992 -0.009864384

cnn.conv_layer.0.adn.N.weight f4 [8]
00000000: 2ac9 7e3f 7337 803f 30ed 7e3f ce39 803f
00000010: d77b 803f 7bef 7e3f fead 803f ff0f 803f
0.995257 1.0016922 0.9958067 1.001764 1.0037793 0.9958417 1.0053098 1.0004882

cnn.conv_layer.0.adn.N.bias f4 [8]
00000000: 2e28 3dbb a527 97ba 1b23 a3bb e8ed 8039
00000010: a088 fe3a 6811 baba fb92 ec38 2d08 d9ba
-0.002886306 -0.0011532201 -0.00497855 0.00024591316 0.001941938 -0.0014195861 0.00011280734 -0.0016558223

cnn.conv_layer.0.adn.N.running_mean f4 [8]
00000000: 21c4 2d3e fd8f a63d bd27 8ebd 73fd 6c3e
00000010: 9204 053e 244e 233e 8c56 b23e c582 22bc
0.16969348 0.08132932 -0.06941173 0.23143558 0.12990025 0.15947777 0.34831655 -0.009918873

cnn.conv_layer.0.adn.N.running_var f4 [8]
00000000: 7df7 c83e 354b 023f 8d2f 3e3d ad8f f73c
00000010: 72b1 333d 255c 003e b9b3 d23d 4577 543d
0.3925132 0.50896007 0.046432067 0.030219877 0.043870397 0.1253515 0.102881856 0.051871557

cnn.conv_layer.1.conv.weight f4 [16, 8, 2, 2, 2]
00000000: 326c fc3d fb3a d03c 1796 babc bc6b e93c
00000010: 31b5 af3d 006d 1bbd ce37 c3bd 022d a9bd
00000020: 4b76 21bd 98f0 d93c 34d8 56bc a371 00bd
00000030: 679e 833c 8029 9cbd a3b8 933c 1ac3 96bd
00000040: 7427 a2bb de0b b4bd 349b d93d 09e5 8f3c
00000050: 4739 053d 53cd 5f3d 63db 33bd fba8 debc
00000060: 5335 2cbd 9801 eabd 671c c5bd f8d8 a53c
00000070: 02b8 b33d 5d7b 4a3c 9236 cf3d 3657 01bd
00000080: ca50 2abd 93b0 0cbc d7fc 10bd 9397 b93d
00000090: 8376 78bd 8e34 b93d 26ec f839 bfac 143d
000000a0: e519 e4bd 83df c1bc b86a 523d 1701 b6bd
000000b0: c268 6fbd 4aeb 193c e09e e2bc f7e2 63bd
000000c0: c9c3 2c3d d2b2 be3c 2434 8b3d 311a df3d
000000d0: 30ea a93d 0a43 22bd 603a b53d 6755 e7bd
000000e0: a2da fdbc 9e77 fd3d dab6 00bd db01 163d
000000f0: 4f61 143d 5417 a5bc 0ae6 a93d ae62 af3c
00000100: 2bb9 9abd a219 593d d452 833d 7a57 6fb9
00000110: aba0 f9bd 1a07 c73d 8008 813d 01b2 723d
00000120: 5fed 59bd 4cb2 a33d 66fb cc3d 6554 9a3d
00000130: bcea 6dbd 7c17 a4bc 0e32 7cbd c30a fcba
00000140: 38b2 0bbd bd30 51bd f097 df3d b1e7 b5bd
00000150: 3807 e5bd eec2 2cbd 05f9 edbd a82a 3cbd
00000160: f0d3 f4bd 0c4e 0f3c 9aef bb3d c8a7 6e3d
00000170: 7338 3f3d 507e 43bc 12d4 95bd bb35 83bd
00000180: 93c2 85bd 6df4 bebd 56b8 a4bd ec39 2bbd
00000190: d04d 483c f0c8 743d 15c2 e5bc addc 123c
000001a0: 876c 74bd af7a 45bd edd5 db3d bbf3 83bc
000001b0: e483 5cbc f290 b2bd 8303 9ebd c819 d93d
000001c0: bae4 c03d 20e1 dc3d dc80 7e3d bfe5 1fbd
000001d0: 4cbc f33d a4f3 b13b bf26 8d3d 349a 383d
000001e0: fc29 f3bd f077 fdbc 31d5 9b3d c211 a53d
000001f0: c819 00bd 47c9 febd c058 ee3c e352 d5bd
00000200: cfe7 64bd 47bc a83b 2a55 893c c6ce 4b3d
00000210: dbf0 243d 599f f33d 27f3 d03d cdc6 5abd
00000220: 79b7 c4bd 60b6 123d a990 b53d 51ef dbbd
00000230: 9283 00bd 2843 f9bd 0d5c 56bd 0204 22bd
00000240: d219 2439 5ab2 80bc 86fa 443c f43a 633d
00000250: ffb2 883c 050e fd3d ed64 193d fac9 4d3c
00000260: 99bb a73d 6ed6 3f3d ab14 96bd f955 973d
00000270: 649e e53c 893e 70bc 1dbe f5bd b598 d03d
00000280: 4c41 98bc 4d88 e1bd d917 d43d 6041 38bd
00000290: 04f3 debd a918 933d 7807 afbd 6d35 38bd
000002a0: 11b4 e8bd 27af 91bd 5bcb c6bd 6046 72bb
000002b0: 1725 993d c149 8f3d 3b12 a9bd e03b 40bd
000002c0: a79a 9d3d cf45 3a3d ecc3 3dba b8a0 99bd
000002d0: 6434 123b cd73 f23d af0f 9dbd a66e 92bd
000002e0: 2cf6 1d3c b2ee 7b3d e631 96bd 10f1 403c
000002f0: 84e0 1dbb e61c c53d fd3e b43d 6d6e ad3d
00000300: bcb0 fb3d 69cb 27bd 5d48 553d 8ec9 f4bd
00000310: f4ad 983d 14ba bbbd 2618 563c 16d2 9ebd
00000320: 85b6 d3bb 1633 15ba f98a b13d bc5d e8bd
00000330: afba d3bd 15a5 9c3d 5e85 87bd 0d11 babd
00000340: 1976 bcbc a5f0 ed3d 307d d5bc 7755 203d
00000350: ea50 aebd 420d 97bd 17ba 87bd 440d c5bd
00000360: d106 c43d 7409 a43d 4637 cabd 2120 f63d
00000370: d6b6 68bd 90a1 c63d 1292 6e3c b733 a93d
00000380: e6d1 e2bd e3f7 313b 2748 e33d 67b6 db3d
00000390: cd07 96bd f726 b6bd 386f 253d 35c3 b3bd
000003a0: 1883 673d 623f 453d a9b6 78bd 6625 e53d
000003b0: 3e0e a6bd 926a 4c3c abf7 6a3d b42d 1abd
000003c0: b3d3 8bbd 78c2 febd aa5a cc3d a98e 87bd
000003d0: a2db 3bbc 4347 903d 19c1 753c 2c7b d4bc
000003e0: 835a 013d b450 14bb f191 033c c6fe 6b3d
000003f0: fb25 383c 15d2 393c 338a 923d 1eba 50bb
0.12325324 0.02541875 -0.022776647 0.028493755 0.085794814 -0.037945747 -0.09532128 -0.08260538
-0.039419454 0.026603982 -0.01311307 -0.031358372 0.016066743 -0.07625103 0.018032378 -0.073614314
-0.004948551 -0.08791326 0.10625306 0.017565267 0.032525327 0.05463917 -0.043910395 -0.027180186
-0.04204304 -0.11426085 -0.09624558 0.02024506 0.08775331 0.012358514 0.1011783 -0.03157731
-0.041580953 -0.00858702 -0.035397377 0.090621136 -0.060659897 0.09043227 0.0004747819 0.036297556
-0.111377515 -0.023666149 0.051371306 -0.088869266 -0.058449514 0.009394476 -0.027663648 -0.055636372
0.042178903 0.023278628 0.067970544 0.108936675 0.08296621 -0.039614715 0.08849025 -0.11295586
-0.030988041 0.12376331 -0.03142438 0.036622863 0.036225613 -0.020152725 0.082958296 0.021409359
-0.07554849 0.05300296 0.064122826 -0.00022825404 -0.12188848 0.097181514 0.06300449 0.05925179
-0.05320489 0.07992992 0.10008888 0.07535628 -0.05808519 -0.02003073 -0.061571173 -0.0019229281
-0.03410551 -0.05107187 0.10917652 -0.08882082 -0.111830175 -0.042178087 -0.11619762 -0.045939118
-0.11954486 0.008746635 0.0917656 0.058265477 0.046684694 -0.011931971 -0.0731584 -0.06406733
-0.06531253 -0.09323964 -0.08042972 -0.041803285 0.012225583 0.05976194 -0.028046647 0.008963746
-0.059673812 -0.048212703 0.107341625 -0.01610743 -0.01345918 -0.087190524 -0.077155136 0.106006205
0.09418626 0.10785127 0.06213461 -0.039037462 0.11901149 0.0054306556 0.06892156 0.045068935
-0.11873242 -0.03094098 0.076090224 0.08060028 -0.031274587 -0.12440734 0.029095054 -0.104162
-0.055885132 0.0051493975 0.016764242 0.04975774 0.04026876 0.118956275 0.10202628 -0.053412247
-0.09605307 0.035818458 0.08865482 -0.10739005 -0.031375475 -0.12171012 -0.05233388 -0.039554603
0.00015649878 -0.015710045 0.01202262 0.055476144 0.016686914 0.1235619 0.037449766 0.012560362
0.08190078 0.046835355 -0.07328161 0.07389445 0.028029628 -0.014663347 -0.11999152 0.101853766
-0.018585823 -0.110123254 0.10356111 -0.04498422 -0.10886195 0.07182438 -0.085463464 -0.044972826
-0.1136247 -0.07113486 -0.09706756 -0.0036968216 0.074777775 0.06996489 -0.0825543 -0.0469321
0.07695513 0.04547673 -0.00072389725 -0.07501358 0.002230906 0.118384935 -0.07669007 -0.07150011
0.0096412115 0.061506934 -0.07333736 0.011776224 -0.002409012 0.096246526 0.088010766 0.08468328
0.12289569 -0.04096547 0.052070964 -0.11952506 0.07455054 -0.09166351 0.013067281 -0.077549145
-0.006460967 -0.00056915113 0.08669085 -0.113460034 -0.103383414 0.076486744 -0.06617235 -0.090852834
-0.023005532 0.11618165 -0.02606067 0.039144006 -0.08511527 -0.073755756 -0.06627291 -0.09621671
0.095716126 0.080096155 -0.09873824 0.12017847 -0.05681499 0.09698784 0.014561193 0.08261817
-0.11075191 0.0027155809 0.11097746 0.1072815 -0.07325707 -0.08894151 0.04038927 -0.08777467
0.056521505 0.04815615 -0.060721073 0.11188774 -0.08108185 0.01247658 0.0573651 -0.037641242
-0.06827488 -0.12439436 0.0997823 -0.06619007 -0.011465939 0.07044842 0.014999651 -0.02593764
0.03158046 -0.002263111 0.008030401 0.057616018 0.011239524 0.011341591 0.07155266 -0.0031849216

cnn.conv_layer.1.conv.bias f4 [16]
00000000: d49a ccbc 9aaa f2bd 10c0 bf3d 907e b83d
00000010: f980 76bd 91b7 f2bd 7b91 d9bd 206b c73d
00000020: 74a6 bc3d ce9b c63d 2d3a 863b efe9 85bd
00000030: e5f7 8a3d 8a8f c23d 8f96 113d 3825 2dbd
-0.024976172 -0.11848946 0.09362805 0.09008515 -0.06018159 -0.11851419 -0.10623451 0.09737229
0.09211436 0.09697686 0.0040962906 -0.0653876 0.067855634 0.09500034 0.035543974 -0.042271823

cnn.conv_layer.1.adn.N.weight f4 [16]
00000000: db28 803f da17 803f 712d 803f 4862 803f
00000010: 2440 7f3f 741b 803f 2240 803f 583f 7f3f
00000020: 5931 7f3f a85e 803f 4d18 803f 36f1 7f3f
00000030: 651e 7f3f f4b6 7f3f 753c 7f3f 10c5 7f3f
1.0012468 1.0007279 1.0013868 1.0029993 0.99707246 1.0008378 1.0019572 0.9970603
0.99684674 1.0028887 1.0007416 0.99977434 0.99655753 0.9988854 0.99701625 0.9991007

cnn.conv_layer.1.adn.N.bias f4 [16]
00000000: 1195 843b d087 403b e9b3 753b e3dd 0e3b
00000010: a814 2c37 23da 95bb 1569 ad3a ad8b be3a
00000020: bacd 9dbb 3468 9fb8 7387 463a 8f14 52b9
00000030: be4d dfba d55d 52bb 6b9f 92bb 451a bdb8
0.0040460904 0.0029377826 0.0037491268 0.0021799735 1.0256808e-05 -0.004573123 0.001323017 0.0014537476
-0.0048157843 -7.60112e-05 0.0007573284 -0.0002003482 -0.0017036719 -0.0032099385 -0.0044745705 -9.0171154e-05

cnn.conv_layer.1.adn.N.running_mean f4 [16]
00000000: f3c0 6f3d bebd bbbe 7dc4 3c3e f5f6 8d3d
00000010: 6804 d1be 0d5d 8a3d 3d69 963e 9e3d 6bbe
00000020: 8923 2abe a554 af3e 7a63 913d a317 55be
00000030: 2712 433f c15b f6bd 39bb 52bf 384c ce3e
0.05853362 -0.366682 0.1843433 0.06931869 -0.40823674 0.06756029 0.29377165 -0.22972724
-0.16615118 0.34244266 0.07099052 -0.20809798 0.76199573 -0.120292194 -0.8231693 0.40292525

cnn.conv_layer.1.adn.N.running_var f4 [16]
00000000: 7474 843d b18a 1f3e c9ae e63d 6efd de3d
00000010: 6471 013e 0a36 043e 2f3f ba3d 719c c13d
00000020: 4870 393e 8476 a23d 95f5 d13d 83ab ca3d
00000030: 98ca f63e 2638 ea3d 5115 573e 8965 423e
0.06467524 0.1558025 0.112638064 0.108881816 0.12640911 0.1291124 0.090940826 0.09453667
0.18109238 0.07932761 0.10251919 0.098959945 0.48201442 0.11436491 0.21004225 0.18984045

cnn.conv_layer.2.conv.weight f4 [32, 16, 2, 2, 2]
00000000: a144 393d c9f5 88bd 3283 a43d e8ce 773d
00000010: a802 aa3d 9fb9 25bb f676 a83d e3db 8c3d
00000020: 4272 8a3c 6b12 2bbd fef6 393d 90b5 28bd
00000030: 246d 21bd d83c 573d 72d0 a63d f3da 62bd
00000040: 1175 a43d e078 953d 30df babd 2abc c33c
00000050: 9e80 e2bc 7ef2 a73d c021 8c3d bd83 e9bc
00000060: 417f 28bd 15eb 873d 2faa a5bd e9b8 913c
00000070: d4fc f73c d317 b2bd f786 4c3d e5f7 95bd
00000080: d722 a03d deb6 123d d9c8 acbc 1072 673d
00000090: aa6f 283d 3ad1 843c 82a6 e8bc 0432 7d3b
000000a0: e4b8 41bb 2a26 ecba 0634 3b3d 37cf 4e3d
000000b0: a4ab 643d b056 153d bc48 89bc 4bf1 3f3c
000000c0: bf9f 8dbd 7bc0 583c 5275 b13c 0246 ae3b
000000d0: 27e1 523d 7159 4ebd 7d6c 763d eb2d d23c
000000e0: ecf1 7b3d a5ac 87bc cc07 25bc 90a8 393d
000000f0: 54e2 93bd 10e7 63bc 1026 72bd 8d99 00bd
00000100: 13b2 bb3c 1623 b33c 58a2 a83d 2f50 24bd
00000110: 5b40 593d 4de2 3fbd 01a7 17bd 2239 57bd
00000120: 078f acbd 0c3d bb3c 175f 28bd d37a b23d
00000130: 47c7 253d fb45 7b3d 4db0 9c3b dbaa adbd
00000140: d662 b7bc 470b 9c3c a96f e2bc 1817 303d
00000150: ccb8 893d bb47 393c fa5f a5bd f80e 763d
00000160: 92c2 5fbd 6988 c43c 1957 303d 5bc3 8a3c
00000170: c9e7 6abd a2a5 96bd 92d7 343d 0f00 eabb
00000180: 55b1 8bbd 695d abbc 8b82 973c e8bd 86bd
00000190: 9b4a 3dbd 0ef4 943b 6b3d b5bd 43a0 7f3d
000001a0: 479b 853c 93d6 613d 3b92 aebd f0eb aa3d
000001b0: 038e 04bd 595c 0cbd eb84 233c aea3 17bd
000001c0: 04e4 2c3b 693f aa3d d1e8 83bd 9a99 3cbd
000001d0: b1cc eabc 9a9a 34bd d9a8 4fbd 6d27 5cbd
000001e0: 72a8 6cbd 5483 493d b798 0dbb 286f 693d
000001f0: 9d47 7cbd e076 853d d470 adbd c45f 6fbb
00000200: 290c 79bd 8f01 713d 5cba 28bd 640d 05bd
00000210: 3994 a1bb bcff 2b3d 1a82 a1bd 5079 afbd
00000220: 37fa 5d3d af94 4dbd 998a 6fbd ee6a 9abd
00000230: bea3 5f3d 3538 21bd 2bea b2bc c561 66bc
00000240: f4ff debc 4b40 423d 84e0 023d 32e4 833d
00000250: ab32 97bd 409d 2cbd 73e5 93bd baf6 703d
00000260: fa63 a4bd d6bb 873d 8ca8 953d 019f e73b
00000270: 01d8 3abc 7959 b63d 2b65 9cbd 56cd 833c
00000280: 8ed1 0ebd e2f6 853c be1a 39bd e15d 04bd
00000290: 1d77 eb3c 23b3 fdbb 3b3f 1e3d 0004 043c
000002a0: 68d6 303d 04d1 9d3d 5b50 ac3d 5eb5 33bd
000002b0: 5b8e 80bd 86d4 b43d a73e 6a3d 2f97 9bbd
000002c0: f446 5dbd e603 bbbc 98aa 24bd ed73 443d
000002d0: d189 38bd 1fc1 5d3d 923d b13c 1010 06bd
000002e0: 63af 3bbd bc96 2cbc 905d 37bd 8b35 033c
000002f0: d26b 6dbd 2637 213b 84f4 8d3a d755 aebd
00000300: 0205 66b9 b6b4 713d ff8e a13c d67c c93c
00000310: e690 35bd bbf1 a3bc 92dc c13c ba35 6b3d
00000320: 60b9 ab3d 8e8f 9fbd 4a5b 86bd 13e3 a5bd
00000330: 4110 f23c bdf2 453d 02d0 fd3c f2b0 913d
00000340: e35d a53d b5ad b0bd 84a3 633d 742d 87bd
00000350: 1ec2 b03d fb59 97bc 8b1e 323d 4a83 183d
00000360: c802 01bc 1935 a5bd 83e1 903d 28a4 d63c
00000370: be5b 4dbd ade3 873d ff24 483c 8e1d a53d
00000380: 0fc8 7bbd 88fb 7bbd c18f 78bd 9f62 d23c
00000390: 72bc 2dbd e529 9ebd a62a fb3c 1785 8dbd
000003a0: f89b 07bd 5b5b cbba a90b 90bc 9cc6 813c
000003b0: b361 b73d 0263 9abd 5bf7 9dbc c53d 8e3d
000003c0: 32ca 713d 58b4 0cbd 0ba6 6dbc 23ac 313d
000003d0: c41b 503d 8327 b03d f96e 5abd e094 fbbc
000003e0: 83b2 523d a8a0 a3bd 16e4 8ebd 73e6 82bd
000003f0: ccb3 17bc fc46 cfbc 30ec 5a3d a030 82bc
0.045231465 -0.06687505 0.08032836 0.060500056 0.08301288 -0.002528764 0.08225815 0.068778776
0.016900185 -0.04176561 0.045401566 -0.041188776 -0.039410725 0.05254826 0.081452265 -0.055384587
0.08030141 0.07298446 -0.09124601 0.023893435 -0.02764922 0.082005486 0.06842375 -0.0285052
-0.041136984 0.06636635 -0.080891006 0.017788367 0.030271925 -0.0869595 0.0499334 -0.07322673
0.07819145 0.035818927 -0.021091865 0.056505263 0.041122116 0.016213048 -0.02839971 0.0038634548
-0.0029559666 -0.0018016745 0.04570391 0.050490584 0.05582775 0.036459625 -0.016758315 0.011715244
-0.06915235 0.013229485 0.021662388 0.005318404 0.051484253 -0.050378267 0.060162056 0.025656661
0.06151001 -0.016561816 -0.01007266 0.04532677 -0.07220903 -0.01391007 -0.05911833 -0.031396437
0.02291206 0.021867316 0.082340896 -0.04011553 0.05303989 -0.046846677 -0.0370245 -0.05254472
-0.08425718 0.022856258 -0.04110631 0.08714833 0.04047325 0.061346035 0.004781759 -0.08479854
-0.022385996 0.019048346 -0.027641134 0.042990774 0.067247 0.011308606 -0.08074947 0.06007287
-0.054628916 0.023990827 0.043051813 0.016938856 -0.057349954 -0.07355811 0.044150896 -0.0071411203
-0.06820933 -0.020918565 0.018494865 -0.065791905 -0.046213727 0.004545695 -0.08849605 0.062408697
0.016309394 0.055136275 -0.08523985 0.08345783 -0.032361995 -0.034267757 0.009980421 -0.03702133
0.0026381025 0.08312876 -0.064408906 -0.046044923 -0.028662058 -0.044092752 -0.050698135 -0.053748537
-0.05777783 0.04919751 -0.0021605918 0.056990772 -0.061591733 0.06516814 -0.08468786 -0.0036525587
-0.060802612 0.058839377 -0.04119335 -0.032483473 -0.0049309996 0.041991934 -0.07886143 -0.085680604
0.0541937 -0.050190624 -0.058481786 -0.075399265 0.054599516 -0.039360244 -0.021840176 -0.014061396
-0.027221657 0.047424596 0.031952396 0.06440009 -0.07382711 -0.042142153 -0.07221498 0.058829047
-0.080268815 0.06627624 0.073075384 0.0070685153 -0.011404038 0.08903784 -0.07636484 0.016089123
-0.034867816 0.016353074 -0.04519152 -0.032316092 0.028743321 -0.007742302 0.03863452 0.008057594
0.043173224 0.07705882 0.08413764 -0.043874137 -0.06277152 0.08829598 0.057188656 -0.07597195
-0.054022744 -0.022829007 -0.040201753 0.047962118 -0.045053307 0.054139253 0.021635804 -0.032730162
-0.04582156 -0.010533985 -0.044766963 0.008008371 -0.057964154 0.0024599521 0.0010830318 -0.085124664
-0.00021936375 0.05901023 0.019721506 0.02459566 -0.04432764 -0.020012727 0.023664746 0.057424285
0.08384967 -0.07791053 -0.06560381 -0.080999516 0.029548766 0.048327196 0.030982975 0.07113828
0.08074548 -0.08626882 0.055575863 -0.06600466 0.08630775 -0.018475523 0.04348616 0.037234582
-0.007874198 -0.08066768 0.07074263 0.026201323 -0.05013632 0.066352226 0.012215852 0.08062278
-0.061470088 -0.061519176 -0.06068397 0.025681792 -0.042416044 -0.077228345 0.030659985 -0.069101505
-0.033107728 -0.0015514897 -0.017583685 0.015841775 0.089541815 -0.075384155 -0.019282987 0.06945375
0.05903072 -0.034351677 -0.01450492 0.043377053 0.05080773 0.08601286 -0.053328488 -0.030710638
0.051439773 -0.07989627 -0.06977098 -0.06391611 -0.0092591755 -0.025302403 0.053447902 -0.015892327

cnn.conv_layer.2.conv.bias f4 [32]
00000000: a7db 083d e854 4439 81d5 cebc 64f8 3ebc
00000010: f84b d03c e36a 9b3d 2bee 4fbd 47f8 a8bd
00000020: 6100 773d 5547 31bc 66fa 3abc 1d61 543d
00000030: 052d c7bc c1f0 ab3d 2762 22bc 0565 903b
00000040: 5694 a93d 9f2c 17bd be6e d13c 992b 8c3d
00000050: a2b0 263d 6f43 743c 7585 75bc 5e60 96bd
00000060: 4da8 253d 6c4e 863d ff5d 83bc 2ba7 a2bd
00000070: f6f1 0cbd c4f2 953d 7592 5bbd 6e31 5bbd
0.0334126 0.00018723647 -0.025248291 -0.011655901 0.02542685 0.075887464 -0.050764244 -0.0825048
0.060303096 -0.01082023 -0.011412239 0.051850427 -0.02431346 0.083955295 -0.009911097 0.0044065737
0.08280246 -0.03690779 0.025565501 0.06844253 0.040695794 0.014908656 -0.014985432 -0.07342599
0.040443707 0.065579265 -0.016036032 -0.07942041 -0.03441044 0.073216945 -0.05360647 -0.053513937

cnn.conv_layer.2.adn.N.weight f4 [32]
00000000: fc91 803f 8e61 7f3f 5612 803f a157 803f
00000010: 6605 803f 755e 7f3f 91b6 7f3f d02a 803f
00000020: 6ce3 7f3f 1601 803f a80d 803f 2af7 7e3f
00000030: 9552 803f 0dd3 7e3f 1925 7f3f 4ac7 7f3f
00000040: a8af 7f3f a13f 803f 6d2d 803f 9432 803f
00000050: fe96 7f3f cef4 7f3f e09d 7f3f 8228 803f
00000060: ef42 803f 165a 803f cdee 7f3f 1c3a 803f
00000070: 596f 803f f6c1 7f3f c129 803f 698e 7e3f
1.0044551 0.9975823 1.0005596 1.0026742 1.0001647 0.99753505 0.9988795 1.0013065
0.99956393 1.0000331 1.0004168 0.9959589 1.0025202 0.9954079 0.9966598 0.99913466
0.99877405 1.0019418 1.0013863 1.0015435 0.9983977 0.9998292 0.99850273 1.0012362
1.0020427 1.0027492 0.99973756 1.0017734 1.0033981 0.99905336 1.0012742 0.9943605

cnn.conv_layer.2.adn.N.bias f4 [32]
00000000: 362c 363a fc10 cf39 98a3 323b c662 1fba
00000010: 4b29 9b38 4aa7 a2bb 0479 7cba 8555 d7ba
00000020: 6955 5739 a84a 13bb c1b8 f1ba 7612 38bb
00000030: c7f7 913a ba9a fdba 5337 06bb 7d9d 6b3a
00000040: 995c 9dba 33f9 76ba c552 a939 255e 8dba
00000050: fdd6 abbb d4f5 77bb d87d 46bb 735a 8b3a
00000060: b6d2 d8b8 f57d 8abb 45dd 6fbb 6242 23bb
00000070: e940 f73a 7ecd adba 74d5 03bb a4d0 94bb
0.0006949337 0.0003949477 0.0027258154 -0.0006080087 7.3986674e-05 -0.00496379 -0.000963107 -0.0016428685
0.00020535816 -0.0022474919 -0.0018441902 -0.0028087175 0.0011136465 -0.001934848 -0.0020479753 0.0008988006
-0.0012005746 -0.0009421289 0.0003229586 -0.0010785504 -0.0052441345 -0.0037835734 -0.003028741 0.0010631814
-0.000103389306 -0.004226441 -0.0036600393 -0.0024911393 0.0018863949 -0.0013260094 -0.0020116242 -0.0045414735

cnn.conv_layer.2.adn.N.running_mean f4 [32]
00000000: 622b a53e a643 91be f5ff 9abe 6c1f 2ebe
00000010: 24e8 dd3e ce24 133e fe21 b03d 88ed 8abe
00000020: 3641 61be 7884 383f f303 ddbe f33a 5c3f
00000030: 114b f83b 5388 1abf e01b 75be 5a5d d13e
00000040: 042f fd3e 2241 d23d 70ac 31bf 1e77 2f3e
00000050: ef10 8e3e 9ad8 053f 7a56 1d3f 346c 84be
00000060: bce1 263f 7e1b 273e f35a ad3e 9050 db3c
00000070: 1e68 443c 7fa2 2a3f 17af 6c3e 848a d1bd
0.3225966 -0.28371924 -0.30273405 -0.17004174 0.43341172 0.14369509 0.086002335 -0.27134347
-0.21997532 0.7207713 -0.43167076 0.8602745 0.007577308 -0.60364264 -0.23936415 0.40891534
0.49449933 0.10266329 -0.69403744 0.17135283 0.27747294 0.5228363 0.6146008 -0.25863802
0.65188193 0.16319081 0.3385845 0.026771814 0.011987714 0.666542 0.23113666 -0.10231498

cnn.conv_layer.2.adn.N.running_var f4 [32]
00000000: ccd3 3d3e 0a76 583e 22c7 173e f5f6 2e3e
00000010: 3241 833e eac1 3d3e db9e 4b3e 8596 d23d
00000020: c3f9 183e cafb 7c3e cdd7 3b3e 5009 cd3e
00000030: 88c7 0b3e 048c c23e e831 7c3e ed53 443e
00000040: 1687 2e3e 4db6 b03d 83ec 803e 8a67 0a3e
00000050: ca9a 7a3e c256 983e 2adf a83e 88f1 eb3d
00000060: 4aa8 433e 0481 c93d 37e3 0d3e 378e 503e
00000070: 8e3b fa3d 3ef2 a63e 6aa4 383e 764e 943e
0.18537825 0.21138778 0.14822057 0.17086394 0.25635678 0.18531004 0.19884817 0.102826156
0.14939027 0.24705425 0.1834404 0.40046167 0.13650334 0.37997448 0.24628413 0.1917264
0.17043719 0.08628521 0.25180444 0.1351606 0.2447311 0.2975369 0.3298276 0.11520678
0.19107166 0.09839061 0.13856207 0.2036675 0.122183904 0.3260669 0.18031469 0.2896611

cnn.conv_layer.3.conv.weight f4 [64, 32, 2, 2, 2]
00000000: 43f2 9f3b 77ac c23c 1292 3fbd 2da8 55bd
00000010: 4843 7fbd e299 323d f884 43bd 7100 0b3d
00000020: 4c31 413c 4add 003d 4413 8b3c 8cf8 6dbd
00000030: eb69 91bb 2b4f 5c3d 5801 823c a131 63bd
00000040: 0151 49bd f4d0 6f3d 2cbb db3c bde1 a93c
00000050: 8f2d 543c 9cc2 91ba f18b 0bbd 7226 f63c
00000060: 5796 cabc 8d0b 50bd 72b3 64bd 4a5a d83b
00000070: effa 4bbb aec5 56bd d916 04bd 0dcf 5d3c
00000080: 788c 413d 87de 31bd e1c8 35bd 0ef9 0cbd
00000090: 4446 ffbb 072d 79bd 9de6 6e3d 3202 acbc
000000a0: 829c 443d 5eb8 2f3d 3f9f 553c 0261 cb3b
000000b0: bc78 81bb 4d33 1abc a390 c63c 247a 8bbc
000000c0: c6f2 f2bc 8feb 0b3d e82f 85bc cfef 0dbd
000000d0: 1d1a 153d 3e48 c5bc 5cb2 18bd 571b e43c
000000e0: 70b7 113d 0271 703d 7dc4 5fbd ccc4 efbc
000000f0: f52c 033d f215 703c 42f0 103d d3ab 663d
00000100: 8ef9 3c3d 2655 07bd 064d 4e3d 27aa 563d
00000110: 7150 bb3c d29f 7a3d a0da 52bd e0f1 5f3d
00000120: f1f1 493c 906e 25bd 0200 0cbd 31a6 063c
00000130: f76f bbbb be4e 043d 646a 0dbc 0ffe 45bd
00000140: 474a 9a3c 2b9a 23bd f25c 87bd cf8b 37bd
00000150: 2261 f83c 3634 87bd b9f2 64bd 50d6 7f3c
00000160: 3eb4 453d 3565 5fbd 9ed4 9fbc 62c1 d6bb
00000170: e029 9fbc 4f72 79bd 6e04 053d dfcc aabb
00000180: 9390 6c3d fc72 b3bc 7ce6 233d bed9 c1bc
00000190: 40cf cfbc 8fe0 36bd 6ba4 3d3c 41bb 79bd
000001a0: 8b94 dfbc 29e1 193c d95d 3cbd 9437 1a3c
000001b0: babb bf3b 8b79 293d 0c6c c63c 779c 4a3d
000001c0: ea1e 5bbd f7dd c7bc a22b 393c fca0 6c3d
000001d0: 62a0 d6bc 31f0 803d a896 01bd f96c 5c3d
000001e0: aa8a 3fbd 0bc8 2f3d 5c60 0cbd cb84 06bd
000001f0: 64ea 8dbc 9299 adbc e15c 5dbd 0846 d6bc
00000200: 1c43 683d 75e9 283d 0b08 e4bc 4ce8 fdbc
00000210: 4a41 f8bc 5823 e7bc 1c63 d53c c715 92bc
00000220: 3e14 a73c a283 803c 8f1d 263d 8c69 53bd
00000230: 1acc afb9 6138 5abd 1a4c 283d 570f 09bd
00000240: 7315 a83c 8c72 2cbd ecbf 41bb 4e9e 6e3d
00000250: da2c 8c3b 27e6 44bd 26de 1c3c e3aa 103d
00000260: bb5c 43bd 7a8a dfbc 13af 1a3d 47de 063c
00000270: 4080 8abd d5b4 eabc 89b1 ba3c ce3a 433c
00000280: fc1e b23c 7563 ca3c 26b9 55bd e49c b83c
00000290: 844c 833c aba6 a9b9 2832 213d bc66 c03a
000002a0: c33c 183d f82b 7abd 1350 563d 318b 383b
000002b0: bb52 f6bb 714a 573d 8189 263b 38f1 6c3d
000002c0: e03e 86bd b1e8 d2bc a26d 423d 33b5 79bc
000002d0: 695b 79bd 448e 283d 46a5 7dbd fea9 d2ba
000002e0: 7f05 79bc 196c c63c 33b7 0d3d 2d81 2cbd
000002f0: 0323 60bd 610e 653d fb0e 64bd 4905 203d
00000300: f073 be3c 91cb 1f3d 3d6a 373d f6db f23b
00000310: f2df bf3c e079 023d b9ee 86bd f2cb 3d3d
00000320: dac5 743d 3884 683d e7ef 833c 70fb 5e3d
00000330: 2627 683d 6f56 7dbc 300c d4b9 dac5 703d
00000340: e32e 82bd 38a8 70bc 42c7 fe3c 2718 7abd
00000350: e0e8 22bc 54ce 8a3c 2df3 04bd e460 11bd
00000360: 348f 573d 128e 4cbc dd69 0ebc 099c 223d
00000370: 5db0 7c39 3cca 45bd 12e2 453c 34a1 1abd
00000380: 56ab 143d 967a c13b 4f6a 19bd d372 1d3d
00000390: 7637 22bd 1483 b03b d490 83bb f280 16bd
000003a0: 19c1 cbbb f389 9bbc 8f9c 4bbd 94ba 2d3d
000003b0: b287 2dbc a0f9 773c 887b 35bb 9216 15bd
000003c0: a64f b8bc b660 83bc 7ce9 243d 75e5 cfbc
000003d0: 0ef7 51bd 29eb 1dbd a165 593d 3a2c 3a3d
000003e0: 0670 17bd 77ab c2bb 5e42 5dbd 03ca 7c3b
000003f0: 10f6 18bd c254 6b3d ff9d a4bc f8f8 193d
0.004881175 0.023763878 -0.046770163 -0.052162338 -0.062320024 0.043603785 -0.04773423 0.033935968
0.011791538 0.031461038 0.01697696 -0.05809836 -0.0044376752 0.053786438 0.015869781 -0.05546725
-0.049149517 0.058548883 0.026822649 0.020737523 0.012950315 -0.001112062 -0.034069005 0.030047629
-0.02472989 -0.050792266 -0.055835195 0.00660256 -0.003112491 -0.052434616 -0.03224835 0.013538134
0.047253102 -0.04342511 -0.044381026 -0.034417205 -0.0077903587 -0.060833957 0.0583254 -0.02099714
0.04800082 0.042900436 0.0130384555 0.0062066326 -0.0039511602 -0.009411645 0.02423889 -0.017026015
-0.029656779 0.034160193 -0.016258195 -0.034652527 0.036401857 -0.0240823 -0.03727947 0.027845068
0.03557533 0.058701523 -0.054630745 -0.029268645 0.032025296 0.01465367 0.035385378 0.056316208
0.04613643 -0.03304019 0.050366424 0.052408364 0.022865506 0.061187573 -0.05147803 0.05467403
0.01232575 -0.040388644 -0.034179695 0.008218334 -0.0057201344 0.032301657 -0.0086313225 -0.048337992
0.018834246 -0.039941948 -0.06609525 -0.044811066 0.030319754 -0.06601755 -0.05589554 0.015615061
0.048267595 -0.054539878 -0.019510563 -0.0065538147 -0.019429147 -0.06090003 0.032474928 -0.005212411
0.057755064 -0.021905415 0.04001473 -0.023663398 -0.02536738 -0.04464775 0.011574845 -0.060969595
-0.02729251 0.009392061 -0.045987938 0.009412665 0.005851236 0.041375678 0.024221443 0.049465623
-0.05349628 -0.024397833 0.011301907 0.057770714 -0.026199523 0.06295813 -0.031637818 0.053814862
-0.0467631 0.042915385 -0.034271583 -0.032841485 -0.01732368 -0.021191392 -0.054043654 -0.02615644
0.056704625 0.041238267 -0.027835866 -0.030994557 -0.03030457 -0.028215095 0.026048236 -0.01783265
0.020395394 0.015687767 0.040555533 -0.05161433 -0.0003353067 -0.053276423 0.0410882 -0.033461895
0.02051804 -0.042101428 -0.0029563857 0.05825644 0.0042778077 -0.048071053 0.009574449 0.03531922
-0.047695857 -0.02728771 0.03776462 0.008231706 -0.06762743 -0.02865068 0.022789733 0.011915876
0.02174329 0.024705628 -0.052178524 0.022535749 0.016027696 -0.0003235837 0.039354473 0.0014679055
0.037167322 -0.061077088 0.05232246 0.0028159136 -0.0075171865 0.052561227 0.0025411549 0.05784723
-0.06554961 -0.025745722 0.047467835 -0.015240955 -0.06087819 0.0411513 -0.061925195 -0.001607239
-0.015199064 0.024221467 0.03459854 -0.04211538 -0.05472089 0.055921916 -0.05567835 0.03906754
0.023248643 0.039012495 0.04477905 0.0074114753 0.023422215 0.03185451 -0.065885015 0.046337076
0.059759 0.05676672 0.016105605 0.05443901 0.05667796 -0.015462502 -0.0004044487 0.058782436
-0.06356599 -0.014688544 0.031100873 -0.06105819 -0.009943217 0.016944088 -0.032458473 -0.035492793
0.052626804 -0.012485044 -0.008692232 0.039699588 0.00024098293 -0.04828857 0.012077825 -0.03775139
0.03629621 0.005904506 -0.0374549 0.038439583 -0.039603673 0.0053867195 -0.0040150676 -0.036744066
-0.0062180874 -0.018986678 -0.049709853 0.042414263 -0.010591434 0.015135199 -0.0027692039 -0.036398478
-0.022498917 -0.016037326 0.04026173 -0.025377968 -0.051261 -0.038554344 0.053075437 0.045452334
-0.03697207 -0.0059408504 -0.05401837 0.0038572557 -0.03734404 0.05745388 -0.02009487 0.03759095

cnn.conv_layer.3.conv.bias f4 [64]
00000000: 0f3e 4f3d 2e41 b8bc e80d 4b3c f84c 573c
00000010: b3e8 623d de30 1cbd 9398 233c af38 97bc
00000020: 59b2 853c aecb 9e3c 7b86 d3bc e18d 3fbd
00000030: 9bb4 f53c cf3b 91ba 1a9a 6f3d 5b7f f4bc
00000040: 2115 313d 41e0 f03c 4098 333c 9e18 0c3d
00000050: 63bc 303d cffd 4bbb 5c4a 80bc 78a0 5fbd
00000060: 1ee8 433d 448a e9bb 54c3 28bd 656a bebb
00000070: 5569 cf3b c5b0 5f3c af60 6f3d cbf5 023d
00000080: 31db 68bd 927c 0cbd 5934 14bd fc9d ab3b
00000090: 1234 973c c932 6fbd 30c6 e5bc 8aae 1d3d
000000a0: d17d 3dbc 1742 25bd 15b5 033d ffe7 e9bc
000000b0: f13d 703c e7e2 51bd b8be dd3c 8965 e43c
000000c0: f4f0 f1bb 9090 673d 9295 0abd 9d41 06bd
000000d0: a916 423d 6d61 263d a99d babc 8de0 61bd
000000e0: fa21 e73c babc 13bd 4029 023c fb40 34bc
000000f0: 0276 cbbc 51c9 9b3c ed47 7ebd 936b c53c
0.050596293 -0.022492018 0.012393452 0.013140909 0.0553977 -0.03813254 0.009985107 -0.018459646
0.016320394 0.019384231 -0.025820961 -0.046766166 0.029993346 -0.0011080446 0.058496572 -0.029845884
0.04323304 0.029403808 0.010961592 0.034203164 0.04314841 -0.0031126624 -0.015660457 -0.054596394
0.047828786 -0.0071270783 -0.041201904 -0.005811023 0.006329695 0.013652985 0.058441814 0.031972688
-0.056849662 -0.034298487 -0.036182735 0.005237339 0.018457446 -0.058398042 -0.028048605 0.03849653
-0.0115656415 -0.04034623 0.032155115 -0.028553007 0.0146632055 -0.05124178 0.02706848 0.027880447
-0.00738346 0.05653435 -0.033834048 -0.032777417 0.04738489 0.040620256 -0.022780256 -0.05514579
0.028214443 -0.036068656 0.007944405 -0.011001821 -0.024836544 0.019016894 -0.062080313 0.024099147

cnn.conv_layer.3.adn.N.weight f4 [64]
00000000: 8750 803f 8617 803f 8879 803f 8c27 803f
00000010: 2014 803f 1a86 803f 9a77 7f3f 5166 7f3f
00000020: f403 803f 047b 7f3f 1f88 803f 8ba8 803f
00000030: 22c9 7f3f 4f46 803f cfbc 7f3f 3735 803f
00000040: 0863 803f 9000 803f 4f1d 803f 4c43 7f3f
00000050: fe6d 803f 1ab6 7f3f 55ce 7f3f c05a 803f
00000060: 329b 803f a5d9 7f3f c188 803f cf01 813f
00000070: 2e84 803f 1111 803f 7a0a 803f 50b3 803f
00000080: a1f4 7f3f e6df 7f3f 5a7f 803f 9f34 803f
00000090: dedd 7f3f 776a 7f3f b26c 803f 05e6 803f
000000a0: 0d52 803f 2db4 803f 79a2 7f3f cc33 803f
000000b0: 3a73 803f b26d 803f bfbd 7f3f 93b2 803f
000000c0: 8ba7 803f 9144 803f d83d 803f fe9e 803f
000000d0: 2295 7e3f 9d4a 803f 09f5 7f3f 3792 803f
000000e0: 20ea 7f3f 81c2 7f3f b730 803f c87e 7f3f
000000f0: 9561 803f 690c 813f d21c 803f e251 7f3f
1.0024575 1.0007179 1.0037088 1.0012069 1.0006142 1.0040925 0.9979187 0.997655
1.0001206 0.9979708 1.0041541 1.0051435 0.9991628 1.0021456 0.99897474 1.001624
1.0030222 1.0000172 1.0008944 0.9971206 1.0033567 0.9988724 0.9992421 1.0027695
1.0047362 0.99941474 1.0041734 1.0078677 1.0040338 1.0005208 1.0003197 1.0054722
0.9998265 0.99951017 1.0038865 1.0016059 0.9994792 0.9977183 1.0033171 1.0070196
1.002504 1.0054985 0.9985729 1.0015807 1.0035164 1.0033476 0.99898905 1.0054497
1.005113 1.0020925 1.0018873 1.004852 0.9944631 1.002277 0.9998327 1.0044621
0.9996662 0.99906164 1.0014867 0.9980283 1.002978 1.0081912 1.0008795 0.9973432

cnn.conv_layer.3.adn.N.bias f4 [64]
00000000: f878 343a d7fe 1cbb 0cbd 263b cbeb 173b
00000010: aa0a 32b9 ae78 463b adb4 61bb 4b69 18bb
00000020: 01d6 b93a c655 48bb cb75 623b 9cf4 233b
00000030: 8e6e acba 0f31 9c3a 1fae 6cba cdea 8d3a
00000040: c33d 193b 4d53 f1ba 7da9 ca3a d30a 78bb
00000050: 2cdf f33a dd62 ccba 19b3 85ba e7c5 0d3b
00000060: 7a4e b03a 03b1 0fbb b8b8 183b 714d 283b
00000070: 03f0 ba39 b57b 43ba 6a15 07ba 8b8c d73a
00000080: 143a 1dba e30c 86ba 1f85 a539 4edf 23bb
00000090: 9e57 d6ba a186 e3ba 5973 083b e76b 4c3b
000000a0: 0c65 c839 eb4c fc3a aad2 16bb 9a5c bdba
000000b0: 1d67 8eb9 b423 5b3b d610 783a 4a95 953b
000000c0: 8522 203b 4acc 2139 bb62 fc3a 5687 c03a
000000d0: 5428 a9bb 5d6e 0a3b 7b09 63b8 f6dd e13a
000000e0: 16b6 21ba f3c1 c5ba cc13 403a 4433 e3ba
000000f0: 214b 263b 4356 003b 5515 e13a a808 e7ba
0.0006884481 -0.0023955607 0.002544227 0.0023181315 -0.00016979376 0.0030284333 -0.0034439967 -0.002325612
0.0014178158 -0.0030568703 0.0034555073 0.0025017625 -0.0013155506 0.0011916476 -0.00090286316 0.0010827422
0.002338276 -0.0018411666 0.0015461888 -0.0037848249 0.0018605939 -0.0015593428 -0.001020047 0.0021632852
0.0013451122 -0.0021925576 0.002330346 0.0025680924 0.00035655507 -0.00074570935 -0.0005153032 0.0016445083
-0.0005997729 -0.0010227229 0.00031570435 -0.0025004926 -0.0016353016 -0.0017358848 0.0020820706 0.0031192244
0.00038222258 0.0019248998 -0.002301375 -0.0014447153 -0.00027161176 0.0033438029 0.0009462958 0.004564916
0.0024434638 0.0001543026 0.0019255498 0.0014688771 -0.005162278 0.002112291 -5.4129847e-05 0.0017232287
-0.00061687955 -0.0015087709 0.0007327169 -0.0017334004 0.002537437 0.0019582666 0.0017172495 -0.0017626481

cnn.conv_layer.3.adn.N.running_mean f4 [64]
00000000: be02 27be 620d 0bbe f7fd 283f c4dc 063e
00000010: 17e8 2a3f ecaf 1d3c 490b a9be 5496 fd3d
00000020: 8e27 7e3e 9da7 ecbe c46a 503e 756f bbbe
00000030: 0468 3a3e bf4e cfbe 2954 e6bc c2e1 b7be
00000040: 1bf7 1bbc 68f5 f53d 3e7c 1dbf d4a3 b5be
00000050: 2fe5 e23e 84a0 c9be 5821 debe 5d3c bfbe
00000060: 1d0d 113f 4536 2f3e 8411 84be 32c1 78bd
00000070: e2f2 913e 6622 803e 9d7f 4f3e 025d a53e
00000080: 0ec8 7bbe 9d5a 993c 2840 9e3e 3a5c 093f
00000090: 9054 a73d dba8 16be 6dbb 0fbf b046 0f3e
000000a0: 7c77 b3be 31cd d03d 427f 703e 7ff3 bf3d
000000b0: 85cc 6a3e c123 c4be 8467 a1be a469 9e3e
000000c0: cddc 3b3e 1df2 0fbf 1b80 15be 56b9 2fbe
000000d0: 332a c43d 68b4 13bf b18e 0fbe f93c 0bbf
000000e0: 3257 483c 40e9 f1be 2979 d1be 9999 523e
000000f0: 607a 2dbf 5a81 ebbe a807 6cbe 0afc 27bf
-0.1630964 -0.13579324 0.6601252 0.13170153 0.6676039 0.009624463 -0.33016422 0.123821884
0.24819776 -0.4622163 0.20353228 -0.36608472 0.18203741 -0.40489766 -0.028116303 -0.35914427
-0.009519364 0.12009698 -0.61517704 -0.35476553 0.44315478 -0.39380276 -0.43384814 -0.3735074
0.56660634 0.17110546 -0.25794613 -0.06073112 0.28505617 0.25026244 0.20263524 0.32297522
-0.24588034 0.018719966 0.30908322 0.5365635 0.08170426 -0.14712851 -0.56145364 0.13991809
-0.35052097 0.10195387 0.23486045 0.09372615 0.2292958 -0.38308528 -0.3152429 0.30939972
0.18345948 -0.5622881 -0.1459965 -0.17160544 0.09578361 -0.57697153 -0.14019276 -0.5438991
0.01222782 -0.47248268 -0.4091275 0.20566405 -0.67764854 -0.45997125 -0.23049796 -0.65618956

cnn.conv_layer.3.adn.N.running_var f4 [64]
00000000: e983 1a3e 21af 103e 7e52 433e 09c3 593e
00000010: 6a2e 483e 7c72 b93d 5529 153e 622d a03e
00000020: 5df3 313e 943d 523e 5736 573e b475 223e
00000030: 3c1e 093e bc2f 0a3e ee7d e53d 9c1a 243e
00000040: f06f 163e 1151 6d3e 6917 b43e 30f4 a53e
00000050: d3c8 633e d81d 7f3e a938 093e d6fc 3a3e
00000060: 3423 173e ccd5 9a3e a6b3 8b3d c2c7 543e
00000070: ba8b bd3d 06e8 c43d 1ab5 353e a380 9f3d
00000080: 8ddd 433e c136 1e3e 6db4 193e c209 b73e
00000090: ac9d a83e c2e6 e13d 7e3f 5a3e c75e 823d
000000a0: 14a6 f03d 3b49 373e 47b0 f43d 2e3a 0e3e
000000b0: 7179 b13e 1581 cc3d 1543 6e3e 9049 333e
000000c0: 9b0b c83d edff b13e a0bb a03d d81c 123e
000000d0: 167a 1d3e 42d8 793e f6d3 a63d f476 5e3e
000000e0: 77a9 593e 8bfd 9a3e 0482 123e d026 0c3e
000000f0: 8aba bb3e 2a2a 5c3e b7b4 283e c0d9 aa3e
0.15089382 0.14129306 0.19074437 0.21265806 0.19548956 0.09055039 0.14566548 0.31284624
0.17377992 0.20531303 0.21016823 0.15865213 0.1339044 0.13494772 0.1120566 0.16025776
0.14691138 0.23175456 0.3517411 0.32412863 0.22244577 0.24913728 0.1340052 0.18260512
0.14759523 0.3024124 0.068213746 0.20779327 0.09255166 0.096145675 0.17744866 0.077882074
0.19127484 0.15450574 0.15010233 0.35749632 0.32932794 0.11030342 0.21313283 0.063657336
0.11750427 0.17899029 0.11947685 0.13889381 0.34662965 0.09985558 0.23267777 0.1750853
0.097678386 0.34765568 0.07848287 0.14268816 0.15378603 0.24398902 0.08145897 0.21725065
0.21256052 0.30271563 0.1430741 0.13686681 0.36665756 0.2150046 0.16475187 0.33369255

gru.gru.weight_ih_l0 f4 [192, 512]
00000000: 88de b83d 50c0 acbd f9dc bebd dc82 78bc
00000010: 4de6 90bc 0c34 79bd 51a3 da3d 790f b8bd
00000020: 269c 903d ec07 6d3d 62e4 87bd 8e6c 893d
00000030: cc33 833c aefe acbd 90ec 93bd 7758 b3bc
00000040: b791 cebb f953 463c 52c3 3f3d e81d 943d
00000050: cc5e 87bd 6d2b 393d bdf3 07bd f142 8c3d
00000060: c89b 893c d8d8 c0bd 2a7d 90bc 0576 e43c
00000070: 104d 483d 8dfc 103c cb4b b9bd deee 863c
00000080: b931 513d 84b3 f1bc 5c2d c33d 3ce7 d53d
00000090: 4b1f cebd b95d 31bd e85b 59bd 89da df3d
000000a0: 196e 893c 2aaf a4bd 308a bfbd 766c b8bd
000000b0: b340 39bd a610 bfbc 165b 4abd 94de 98bc
000000c0: 9dfb 503c a1f4 8e3d ffea e03d a8f6 68bd
000000d0: 63b3 dbbd 087b c43d 7a8b 0ebd a200 92bd
000000e0: a981 bcbd c2fd 10bd 92c5 9d3d 3090 fabd
000000f0: 06d5 c63b 17b3 b93d d9b6 693d caaa 6b3d
00000100: e552 dabc 16fb 98bd f3b4 d93d 0d11 923c
00000110: b253 5ebc b1e7 9dbc a635 b03d b854 cc3d
00000120: 53a2 bcbd e712 8bbd 2fcc af3c e386 cc3d
00000130: 8eb5 b13d d17e d63b 10f8 c63d 819c e83d
00000140: 4b0c ab3d 849b 0fbd 4939 03bd 47b7 fb3d
00000150: 91e7 f5bd e99d a1bd 8117 b8bd 6405 2a3c
00000160: 3854 c2bd be00 e4bd 8741 a7bd 164e a2bd
00000170: ce41 3f3c 5d75 1abd 9b81 d83b 4b9a 913d
00000180: 9808 dcbd a0d5 c3bb 12d1 b33d 3c2d 3cbd
00000190: 7036 e03d 4867 0a3b b965 473d 4720 b83c
000001a0: 9e92 51bd 0fcc 763c 0406 413d f896 f7bc
000001b0: 0ce9 943d 1e04 aa3d d142 93bd c6d3 3ebb
000001c0: 8b79 203d 9096 e6bc d566 b03d 44a5 dbbd
000001d0: a5a9 d13d 86fa 4fbd bc85 44bd 3d73 d43d
000001e0: 9df3 153d d314 843d 3839 a93c f1ad 41bd
000001f0: 7968 d63c fcac adbd 9ef8 ef3b 6320 633d
00000200: db71 c9ba 7614 cd3d d862 923c 6adf cfbd
00000210: 4f5d 3b3d 0902 e2bd 0c1d b13d 8d01 5cbc
00000220: c3a5 10bc 904f a0bd 0c20 21bd 3efd 00bd
00000230: 9107 e63d 8cff 9d3d d7e4 193d c5df d6bc
00000240: 6a78 ecbd a8ad 893d 1654 f5bd 75e3 bf3d
00000250: 4346 cb3d 1382 c63d 8936 f7bc 0994 de3d
00000260: 57ed 37bc 6d93 ae3d 9168 133d c0ca ad3d
00000270: 635c 113d 96a2 ba3d 1dd2 5f3d 26d5 e13d
00000280: 28a2 5e3d 7e06 8dbd a15d 18bc e516 2c3c
00000290: 88aa 55bd c30f 17bd e2d1 c03d 52fe 693d
000002a0: 2343 f53d 7547 ab3c 87e0 e03c 9f47 093d
000002b0: 26ce e03d 4755 56bd c9bc c23d b8b2 cfbd
000002c0: 2467 a13d 47d5 fe3a b754 14bc 7e88 2dbd
000002d0: 5c4d 0a3d 5634 c4bd c0fa 9d3c 245d bd3d
000002e0: 1496 d13d 2d5b be3d ffe4 c93d 3d72 dabd
000002f0: 83ff f83d 3e15 1a3d 0a3b adbd 22e0 ef3d
00000300: bf2b 643c 689d 863d bf51 ad3d a728 5c3d
00000310: 199a 45bd fa1b ca3b fb51 7dbd 419d 10bd
00000320: e29a 263d ceed a73d 116d a1bd c9fe df3d
00000330: 1c7d 89bb 09a9 983d 39ae 653d 4258 14bd
00000340: ee6d 483d 6d1a 44bd 02f9 d83d c01d 4ebc
00000350: 777a 473d 692c a43d 269e 9f3d 5d6e e63d
00000360: e562 df3d 5bef f73d fadf 13bc 223f c33d
00000370: 813a 853d 3002 a2bd 1d31 c23c a77b 33bd
00000380: ee75 e6bd 325c 3ebd 70d2 79bd 65f0 1a3c
00000390: 7e75 dbbb 6817 e5bd 6fcd 03bd 28b6 cbbd
000003a0: f032 0b3d 0be8 e63d 595a d83d d495 1dbd
000003b0: 8cc8 4a3d 82ea 0dbd 25cb 87bd 4f0d 8e3d
000003c0: 8c64 e63d d63a f5bc 376c 4abc f88f 473d
000003d0: 77df f03c 938e fa3b 0ab1 2d3d 95cb 9fbd
000003e0: ae71 67bd b2d2 acbd 4c46 3ebd b4a2 a73d
000003f0: b810 f53c c0ad d13d 4013 ad3d 59c7 6dbd
0.090268195 -0.08435118 -0.09319491 -0.015167918 -0.017687941 -0.06084065 0.106756814 -0.08987326
0.07061033 0.057868883 -0.066353574 0.06710158 0.01601591 -0.08447014 -0.07222855 -0.02189277
-0.0063039917 0.012104982 0.04681713 0.07232267 -0.06609878 0.04520743 -0.03319143 0.068487056
0.016797915 -0.0941636 -0.017637808 0.027888307 0.048901618 0.008849275 -0.090476595 0.016471323
0.05107281 -0.029504545 0.09530136 0.10444495 -0.100645624 -0.04330227 -0.053066164 0.10930354
0.016776131 -0.080412224 -0.09352529 -0.09005062 -0.045227718 -0.023323368 -0.049403273 -0.018660821
0.012755302 0.06980253 0.10982322 -0.056875855 -0.10727575 0.09593779 -0.034800984 -0.07129027
-0.09204418 -0.035398252 0.07703699 -0.12234533 0.006067875 0.09067362 0.057059143 0.057535924
-0.026650855 -0.07469766 0.106302164 0.017830396 -0.013569759 -0.019275518 0.086039826 0.09977096
-0.092106484 -0.06790715 0.021459667 0.09986665 0.08677207 0.0065458794 0.09715283 0.11357976
0.08351954 -0.03506042 -0.032037053 0.12290817 -0.120070584 -0.07891447 -0.08988858 0.010377262
-0.0948872 -0.11132954 -0.08166795 -0.0792505 0.011673404 -0.037709583 0.006607247 0.07109507
-0.10743827 -0.005976394 0.08780111 -0.045941576 0.10947883 0.002111869 0.048680995 0.022476329
-0.051165216 0.0150633 0.047124878 -0.030223355 0.07271013 0.083015665 -0.071904786 -0.0029117926
0.039178412 -0.028147966 0.08613364 -0.10724881 0.10237435 -0.050776027 -0.0479791 0.103735425
0.03660928 0.064492844 0.020657167 -0.047285024 0.026172863 -0.0848026 0.0073233387 0.05545081
-0.0015369015 0.10013668 0.017869398 -0.10150035 0.045743283 -0.110355444 0.086481184 -0.013428104
-0.008828583 -0.07827675 -0.039337203 -0.03149151 0.11231912 0.07714757 0.037571754 -0.026229749
-0.11546405 0.067225754 -0.11978929 0.09369556 0.09925511 0.096927784 -0.030177372 0.10868079
-0.01122602 0.08524213 0.035988394 0.08485937 0.035488497 0.09113042 0.05464374 0.11026983
0.054353863 -0.06886004 -0.009299667 0.010503505 -0.052164584 -0.036880266 0.09415032 0.057127304
0.11975696 0.020908097 0.027450813 0.03351557 0.1097682 -0.05232742 0.09508664 -0.1014151
0.07881001 0.0019442224 -0.009053401 -0.042366497 0.033765182 -0.09580295 0.019284606 0.09246281
0.10233703 0.09294734 0.09858131 -0.106663205 0.1215811 0.037617914 -0.084585264 0.11712672
0.0139264455 0.065729916 0.084628575 0.053749707 -0.048242662 0.006167886 -0.06184576 -0.03530622
0.04067505 0.081996545 -0.07882131 0.10937268 -0.0041958224 0.07454116 0.056074355 -0.03621698
0.048932962 -0.047876764 0.105943695 -0.012580335 0.048700776 0.08016283 0.07793836 0.11251519
0.109075345 0.121062 -0.009025568 0.09533526 0.06505299 -0.079105735 0.02370506 -0.043819096
-0.11252962 -0.046474643 -0.060991704 0.009456729 -0.006697356 -0.11186105 -0.03217834 -0.09946853
0.033984125 0.112747274 0.105641074 -0.038472965 0.049507663 -0.034647472 -0.066305436 0.06936132
0.112496465 -0.029935282 -0.012354902 0.048721284 0.029403431 0.0076463907 0.042405166 -0.07802502
-0.056504898 -0.084386244 -0.04645376 0.0818533 0.029915199 0.10238218 0.08450937 -0.05805144

gru.gru.weight_hh_l0 f4 [192, 64]
00000000: 80dd dcbc 4812 213d 187c 2f3d 1037 173d
00000010: ccb1 adbd 66d0 cdbd 8805 d9bc 6808 b73c
00000020: 14b3 7d3d 4885 ce3c 2ee5 dcbd 00e4 3cbd
00000030: b486 66bd 4cf0 b93d e485 c53d d80d 3f3d
00000040: c856 40bd a062 b9bb f8f5 853c 2867 cebc
00000050: 2c84 d3bd 5ab2 b0bd 780c c7bd 3883 893d
00000060: 7cd7 413d 84da 083d 669d dbbd 305e 24bc
00000070: d819 3d3d c05f 7fbb 5c75 12bd 9454 5e3d
00000080: aab1 f83d 3010 a33c e07c efbb b4c9 40bd
00000090: 5244 d33d 7821 abbd 1069 063d 2e2c e5bd
000000a0: 24ff b3bd ecf6 39bd f8ba 6abd 00a7 3dbd
000000b0: acd5 7abd 365c e63d bae2 b1bd f01f f0bd
000000c0: c036 93bb d823 5cbd ecd0 713d 2e58 84bd
000000d0: 00b3 c6ba a041 293c 0003 2eba ecd5 a13d
000000e0: 10d5 9d3d f465 23bd e8b6 e23c 485f 7e3d
000000f0: 405d d8bc 4807 c5bd b226 debd 1c2e 613d
00000100: 5a84 b73d f216 a9bd eab6 b4bd 7631 a43d
00000110: a43a 323d 88e9 d8bd c4c0 36bd 9a4a 9dbd
00000120: 20f3 7a3c 7444 fbbd dcf3 7bbd 6898 ae3c
00000130: e45b a4bd 0c91 a43d e041 23bc d83b 24bd
00000140: 801d 30bc d8af c8bc c0dd 47bb 10d4 a53c
00000150: 344a c73d a054 d9bb 9c52 abbd 6430 b93d
00000160: c861 bcbd 084d 51bd d875 913d ec61 64bd
00000170: c812 bc3d 50dc a4bd a04b 3bbd 746a 4abd
00000180: e45d c33d d02d 16bc f4a7 433d 7846 833c
00000190: e02b ab3b 040f 443d 0009 a3ba 90ad 7bbc
000001a0: f059 973c f49e 9cbd 20a7 863c f030 5abc
000001b0: bad7 aabd 908d c83c 0c76 2a3d 9689 e7bd
000001c0: c8fd e9bd b623 f2bd 64ee 58bd 0c5e 5c3d
000001d0: d0a2 8abd 9cca 383d d6e8 96bd 9224 c13d
000001e0: d86b 8bbc 1400 c63d 1226 b63d fc41 9fbd
000001f0: 80f4 3a3b 4679 fc3d e858 62bd 4053 5d3d
00000200: 98f7 f13c a8db 923d 4c0f 60bd 26d1 a3bd
00000210: ae5e ce3d ec8c 69bd 48a7 88bd 48b2 de3c
00000220: 009f d23b dcdb 9abd 7c36 ddbd 1667 d63d
00000230: 7003 183c c067 e63b 9ea0 8b3d 9c0b 773d
00000240: 72a7 8ebd b078 ca3d 000a 9f39 b02c e5bc
00000250: 3cbd 943d 949d e53d 0061 1c3c 902b c0bd
00000260: 1019 ef3d 3000 163c 5c07 9f3d 0c2c 9d3d
00000270: ba2a 85bd 2096 fd3c 2894 ec3c f03c 86bd
00000280: 403c dfbb 500e f5bc 60ff 023d e8ca 883d
00000290: 9411 ea3d 1836 f6bc 1c9a 03bd 54be da3d
000002a0: 24ce edbd d05e b63d b0a3 6f3d 9ad2 dabd
000002b0: 246b 283d 7411 743d d850 f73d 20e8 ac3d
000002c0: 747e 3abd 001a e23a 509c c5bc 668f 8fbd
000002d0: b266 fdbd 9648 be3d f033 a8bd 103c 993c
000002e0: 80d2 e5ba 00b4 b13c 2243 f63d 0ec0 bd3d
000002f0: 2688 cebd 3e21 8ebd b812 8bbd 24a1 6f3d
00000300: 1ce1 c73d 926b 9e3d 9461 8b3d 0079 853c
00000310: 7eec 9d3d 403b 05bb 7e5f a03d b890 fb3c
00000320: 00a4 87b9 409c cd3d b49e 4cbd 5e0a f53d
00000330: 5824 75bd 0c5e 773d 4048 663b f04b 53bc
00000340: a0ca 79bd 58ab 44bd 16dc b6bd 4493 29bd
00000350: 3e86 833d fe33 85bd a84c c03d 446a f03d
00000360: 6e15 e5bd 4e92 dd3d eace 853d 707a c5bd
00000370: 80f6 69bd d2df db3d e67f ddbd 4c28 43bd
00000380: 3e68 eb3d 6ced 47bd 208a 82bd e0a0 b63c
00000390: 122c 9a3d 9e86 83bd 6685 febd 0c22 4d3d
000003a0: 4028 41bc 6ee8 913d 1488 c23d 42c8 ff3d
000003b0: 0802 ca3d 1076 c73d d02a 28bd b4c2 5c3d
000003c0: 8c99 ec3d 801a adbc 2eb5 e13d daf2 90bd
000003d0: c86d 243d a03b 00bd a61c d23d fcbb b7bd
000003e0: 0a76 cb3d 42a7 c8bd 28ac debc dad6 943d
000003f0: a8a3 c0bc f4d9 07bd a0c7 e4bc f855 20bd
-0.026961088 0.039324075 0.042842954 0.036917746 -0.08481178 -0.100495145 -0.026491895 0.022342876
0.06193836 0.025210038 -0.107859 -0.046115875 -0.056280807 0.09079036 0.09644678 0.04664406
-0.04695776 -0.005657509 0.016352639 -0.025195673 -0.10327944 -0.08627768 -0.09719175 0.06714481
0.047324643 0.033411518 -0.10723381 -0.010032222 0.046167225 -0.0038966984 -0.035756454 0.05427988
0.12143262 0.01990518 -0.0073085874 -0.04706736 0.103157654 -0.08355993 0.03281504 -0.11190067
-0.087888986 -0.0454015 -0.057307214 -0.04630184 -0.06123893 0.112480566 -0.08685823 -0.117248416
-0.0044926107 -0.05374512 0.059037134 -0.064621314 -0.0015159547 0.010330588 -0.000663802 0.079021305
0.07706654 -0.039892152 0.027675107 0.062102586 -0.026411653 -0.096205294 -0.10847224 0.054975614
0.08960791 -0.082563296 -0.088239506 0.080172464 0.043512955 -0.105914176 -0.04461743 -0.07680245
0.015316755 -0.12268916 -0.06151186 0.021312907 -0.08025339 0.08035478 -0.009964436 -0.040096134
-0.010749221 -0.024497911 -0.0030497164 0.02024272 0.0973095 -0.0066324025 -0.08365366 0.09042433
-0.09198338 -0.051098853 0.07102555 -0.055757448 0.0918327 -0.08049834 -0.04572642 -0.049417928
0.095393926 -0.009166196 0.047767594 0.016024813 0.005223736 0.047865883 -0.0012438595 -0.015361205
0.018475503 -0.076475054 0.016437113 -0.013317332 -0.08341928 0.024481565 0.041616485 -0.11305539
-0.11425358 -0.118232176 -0.052961722 0.053800628 -0.06769335 0.0451151 -0.07368629 0.09430803
-0.017019197 0.09667984 0.0889398 -0.077762574 0.002852708 0.123278186 -0.05526057 0.05403447
0.029537007 0.07170802 -0.05470209 -0.07998876 0.100766525 -0.05701916 -0.06672531 0.02718462
0.0064276457 -0.07561466 -0.10801408 0.10468881 0.009278163 0.007031411 0.06817745 0.060313806
-0.069655314 0.098863006 0.00030334294 -0.02797541 0.07262656 0.11211696 0.009544611 -0.09383309
0.11674702 0.009155318 0.077650756 0.07674417 -0.0650229 0.030955374 0.02887924 -0.06554592
-0.0068126023 -0.029914051 0.031981826 0.06679326 0.11429134 -0.03005509 -0.032129392 0.106808335
-0.11611584 0.08904803 0.058505714 -0.106847 0.041117802 0.059586957 0.120759666 0.08442712
-0.04553075 0.001725018 -0.024122387 -0.07009773 -0.12373103 0.092911884 -0.08213031 0.018705398
-0.0017534047 0.021692276 0.12024523 0.09265147 -0.10084562 -0.06939934 -0.0679068 0.058503285
0.09759733 0.07735361 0.06805721 0.016293049 0.07711123 -0.0020329505 0.07830714 0.030708656
-0.00025871396 0.10039568 -0.04995604 0.11964868 -0.059849113 0.060392424 0.003513828 -0.012896523
-0.060984254 -0.04801497 -0.08928697 -0.04140021 0.06422089 -0.06504057 0.09389621 0.117390186
-0.11185728 0.10818921 0.06533606 -0.09642494 -0.057119846 0.1073605 -0.1081541 -0.047645852
0.11494492 -0.048810408 -0.063740015 0.022293508 0.07527937 -0.064221606 -0.124277875 0.050081298
-0.0117893815 0.071244106 0.09498611 0.12489368 0.09863669 0.097393155 -0.041056454 0.05389662
0.11552724 -0.0211308 0.110208854 -0.0707757 0.040143758 -0.031306863 0.102593705 -0.08971402
0.099346235 -0.09797527 -0.0271817 0.07267542 -0.023515537 -0.03316684 -0.02792722 -0.039144486
