model_fmri_20_ep_2022-10-28T12:15:50.634579/best_metric.pth (torch, 561209 bytes, 32 tensors)

cnn.conv_layer.0.conv.weight f4 [8, 1, 2, 2, 2]
0.19041656 0.26055712 0.24718097 -0.25490826 -0.17729951 -0.2909521 0.021121891 0.31042096
-0.056202665 0.0105568655 0.15601039 -0.34305212 -0.05621614 0.24891159 -0.059433527 -0.26616836
0.23054227 -0.11579534 0.04433463 -0.31299105 -0.31507254 -0.19107321 -0.2607325 0.2940031
0.07529499 -0.3133365 -0.049027134 -0.102818035 -0.019174024 0.08276878 0.03141919 0.123384304
-0.0083369985 0.16826993 0.024306735 0.15263397 0.1723988 -0.2901044 -0.14707114 -0.15266791
0.15244555 -0.32210997 0.18574749 -0.007822125 0.15323395 -0.09738263 -0.14123163 0.19173373
0.34503505 -0.15620917 -0.12392611 -0.3366989 -0.30509374 0.13243449 0.30328995 -0.19889489
-0.2079147 -0.0880423 -0.27644917 -0.30930084 0.027378233 -0.24578233 -0.05430717 -0.19038118
00000000: 8ffc 423e be67 853e 021d 7d3e 5683 82be
00000010: 018e 35be acf7 94be d107 ad3c 7fef 9e3e
00000020: c434 66bd b4f6 2c3c 30c1 1f3e 87a4 afbe
00000030: e542 66bd aee2 7e3e 9270 73bd 3847 88be
00000040: 4613 6c3e 1b26 edbd 3b98 353d 5d40 a0be
00000050: 3051 a1be b2a8 43be bb7e 85be 9387 963e
00000060: 4234 9a3d a46d a0be add0 48bd 4392 d2bd
00000070: d812 9dbc ae82 a93d 69b1 003d e9b0 fc3d
00000080: e897 08bc f44e 2c3e eb1e c73c 144c 1c3e
00000090: 5089 303e 9088 94be d199 16be fa54 1cbe
000000a0: b01a 1c3e 99eb a4be 9734 3e3e 5f28 00bc
000000b0: 5ce9 1c3e 8b70 c7bd 069f 10be d955 443e
000000c0: 6fa8 b03e 4cf5 1fbe f9cc fdbd cc63 acbe
000000d0: 3f35 9cbe e89c 073e d248 9b3e 1aab 4bbe
000000e0: 97e7 54be 854f b4bd bf8a 8dbe ae5c 9ebe
000000f0: 5148 e03c 5dae 7bbe 3271 5ebd 49f3 42be

cnn.conv_layer.0.conv.bias f4 [8]
0.31117976 -0.3328105 0.2559805 -0.092208885 -0.33330065 0.0838393 0.14054023 0.16811767
00000000: f452 9f3e 2366 aabe e00f 833e 03d8 bcbd
00000010: 62a6 aabe f0b3 ab3d c7e9 0f3e 0a27 2c3e

cnn.conv_layer.0.adn.N.weight f4 [8]
1.0001961 1.0007305 0.99928004 1.0000513 1.0006093 0.99954665 0.9993856 1.0007739
00000000: 6d06 803f f017 803f d1d0 7f3f ae01 803f
00000010: f713 803f 4ae2 7f3f bcd7 7f3f 5c19 803f

cnn.conv_layer.0.adn.N.bias f4 [8]
0.00021411302 0.00070557755 -0.0007789758 0.0004776139 0.00073283276 4.7958565e-08 -0.0006102412 0.00076141825
00000000: 8783 6039 82f6 383a 2e34 4cba 4168 fa39
00000010: 931b 403a 00fb 4d33 98f8 1fba ea99 473a

cnn.conv_layer.0.adn.N.running_mean f4 [8]
0.24518289 -0.2621487 0.20722277 -0.07230941 -0.26429957 0.065822385 0.11360632 0.1418006
00000000: 3911 7b3e 5b38 86be 3532 543e f516 94bd
00000010: 4652 87be e3cd 863d 6eaa e83d 2d34 113e

cnn.conv_layer.0.adn.N.running_var f4 [8]
0.27558768 0.29334915 0.44460803 0.2328446 0.22391516 0.2212222 0.28789222 1.2695357
00000000: d419 8d3e dc31 963e aaa3 e33e d16e 6e3e
00000010: 044a 653e 1388 623e 9c66 933e 2580 a23f

cnn.conv_layer.1.conv.weight f4 [16, 8, 2, 2, 2]
0.04786732 0.11860701 -0.11080129 0.03239006 0.11890466 -0.01764031 0.043331098 0.0733245
0.09174687 -0.124922805 -0.05512708 -0.014972426 0.09151252 -0.015032999 0.019023657 -0.040219933
-0.04792607 0.0013155219 -0.06608524 0.124136955 0.08664631 0.060685545 0.015988488 0.07965918
-0.096191354 -0.06029269 -0.06697972 -0.07395673 -0.04176498 0.10338899 0.033140153 -0.068896845
0.10388549 -0.05011561 -0.07561955 -0.07289305 -0.1080954 0.043024957 0.11406621 -0.083309986
0.07615051 -0.016675899 0.10942619 -0.03123084 0.0605745 -0.097807504 0.09117733 -0.11641289
-0.07143095 0.10916833 -0.119975075 -0.023265176 -0.034288026 -0.04536167 -0.031323478 -0.07787466
0.08419554 0.034436267 0.030694598 0.09614997 -0.017355537 -0.041869264 0.040117484 -0.10181091
0.06962477 0.10548182 0.07732808 0.015831845 -0.083298326 -0.023941906 -0.098360345 0.0131898355
0.007813547 -0.05663636 0.054576732 -0.03208034 0.005795995 0.047568534 0.017079454 0.045169022
-0.11608045 0.026131699 0.08362563 0.013829726 0.033773698 0.06666137 0.047539297 -0.015036696
0.019524729 0.056290675 -0.031320903 -0.09371453 0.11105076 0.03806143 -0.05810259 0.044723637
0.04905975 0.02075467 -0.10532877 -0.026921432 -0.026310958 0.065366186 0.08901041 -0.10279561
0.10614918 -0.078605905 0.081569724 0.087367505 -0.1181669 0.037111726 0.06743992 0.04493826
-0.06943153 0.087223426 0.09500162 -0.07588827 0.05915624 -0.04783539 -0.0737677 0.062388923
-0.042407602 8.622982e-06 -0.08630388 0.03371637 -0.07906316 0.031182222 0.0986908 -0.09180731
0.004257606 0.114487186 0.00093218806 0.03213771 0.11708605 -0.0907133 0.014224911 -0.112557374
0.0043068146 0.078971386 -0.079517804 0.0023230307 0.11722521 -0.03371853 0.11789284 0.06319636
0.07338432 0.030771947 0.09122577 -0.054730702 -0.038397167 0.023340886 -0.082070515 0.11125583
-0.025761265 -0.04157813 0.10075046 0.02546356 -0.10662574 -0.025262574 0.008364897 0.07880701
-0.050988723 0.10143498 -0.026718361 0.12344803 0.012745591 0.081496105 -0.058754478 0.12477616
-0.006832408 0.10494041 0.06646837 -0.009078729 0.10334828 0.088777296 0.076180324 0.12002177
0.011805368 0.077583484 -0.12070577 -0.086382784 0.05984658 -0.07468461 0.08218476 0.10968514
0.018736603 -0.063333675 -0.10303905 -0.10706829 -0.08670241 0.11269412 0.018202104 -0.09537239
-0.06759477 0.03772762 0.064032726 0.11464859 -0.04567591 0.047191113 -0.07864512 -0.07464345
0.049738694 -0.06890002 -8.6716995e-05 -0.1001059 0.06780552 -0.09542515 0.07070684 -0.0952133
-0.09333235 -0.04845545 0.0065797344 -0.08067195 -0.05455854 0.08891832 -0.10607495 -0.056397185
-0.0974092 0.049865846 -0.10621242 0.10876258 -0.08530228 0.09927228 0.10949056 -0.071934134
0.10990537 -0.0009951205 -0.07900211 -0.09941225 -0.03681066 -0.082688294 0.06329367 -0.014777989
0.07782432 -0.107799165 0.021152427 -0.020984929 0.0119819 0.054504003 -0.04477973 -0.08990142
0.023027988 -0.11819303 0.090844184 -0.013092084 0.10985192 0.015076671 -0.117082216 -0.120484404
-0.012837684 0.060951512 0.062017206 -0.07219282 -0.048155453 0.009444697 0.032228354 -0.067202784
00000000: 8610 443d 3be8 f23d c9eb e2bd 71ab 043d
00000010: 4984 f33d 6982 90bc f37b 313d 282b 963d
00000020: c8e5 bb3d 87d7 ffbd efcc 61bd e84e 75bc
00000030: eb6a bb3d f84c 76bc 80d7 9b3c a8bd 24bd
00000040: 204e 44bd 976d ac3a b357 87bd 843b fe3d
00000050: 9f73 b13d 6891 783d 4afa 823c 5a24 a33d
00000060: f9ff c4bd 78f5 76bd aa2c 89bd a076 97bd
00000070: c111 2bbd 9bbd d33d f8bd 073d ca19 8dbd
00000080: eac1 d43d 0746 4dbd 6cde 9abd f448 95bd
00000090: 1f61 ddbd f03a 303d 8c9b e93d 6d9e aabd
000000a0: ccf4 9b3d e59b 88bc d71a e03d d2d7 ffbc
000000b0: f81c 783d 4d4f c8bd 2ebb ba3d e269 eebd
000000c0: 644a 92bd a593 df3d 7eb5 f5bd 9c96 bebc
000000d0: 9a71 0cbd 29cd 39bd 0c4d 00bd c07c 9fbd
000000e0: b66e ac3d 0b0d 0d3d 3d73 fb3c 47ea c43d
000000f0: 332d 8ebc 1b7f 2bbd 3b52 243d 3d82 d0bd
00000100: 6e97 8e3d da06 d83d 2f5e 9e3d c9b1 813c
00000110: 5098 aabd d121 c4bc 2671 c9bd 2e1a 583c
00000120: 6404 003c 87fb 67bd da8b 5f3d ad66 03bd
00000130: 54ec bd3b 39d7 423d 36ea 8b3c 2703 393d
00000140: 96bb edbd 2512 d63c ea43 ab3d 1396 623c
00000150: 4a56 0a3d c285 883d 91b8 423d 795c 76bc
00000160: 53f2 9f3c 0d91 663d 594a 00bd 67ed bfbd
00000170: 956e e33d 4de6 1b3d fbfc 6dbd 2230 373d
00000180: e0f2 483d b305 aa3c 9cb6 d7bd 568a dcbc
00000190: 148a d7bc b5de 853d 174b b63d 8186 d2bd
000001a0: be64 d93d 22fc a0bd 070e a73d bced b23d
000001b0: 7d01 f2bd 7702 183d f11d 8a3d 2e11 383d
000001c0: 1e32 8ebd 32a2 b23d 3690 c23d 4f6b 9bbd
000001d0: d04d 723d 0bef 43bd 8513 97bd 878b 7f3d
000001e0: 98b3 2dbd 6dab 1037 17c0 b0bd 2d1a 0a3d
000001f0: deeb a1bd dc71 ff3c 671e ca3d 7905 bcbd
00000200: 6383 8b3b 4278 ea3d 155e 743a d5a2 033d
00000210: d0ca ef3d e5c7 b9bd 9a0f 693c 7b84 e6bd
00000220: 2e20 8d3b c0bb a13d 3bda a2bd fd3d 183b
00000230: c513 f03d 711c 0abd cd71 f13d 186d 813d
00000240: 854a 963d 7315 fc3c 94d4 ba3d 4d2d 60bd
00000250: 5946 1dbd 6335 bf3c 9614 a8bd 19da e33d
00000260: 4a09 d3bc d44d 2abd 4256 ce3d f598 d03c
00000270: 995e dabd 75f3 cebc ec0c 093c 9265 a13d
00000280: 8dd9 50bd 25bd cf3d 77e0 dabc 52d2 fc3d
00000290: e2d2 503c 6ee7 a63d 89a8 70bd a58a ff3d
000002a0: 64e2 dfbb ffea d63d 9220 883d f3be 14bc
000002b0: 43a8 d33d dfd0 b53d 6e04 9c3d f9cd f53d
000002c0: 4d6b 413c 17e4 9e3d 9634 f7bd 75e9 b0bd
000002d0: b021 753d 3ff4 98bd 7c50 a83d 9aa2 e03d
000002e0: 817d 993c 16b5 81bd 2306 d3bd 9f46 dbbd
000002f0: 0891 b1bd 2dcc e63d 941c 953c 9952 c3bd
00000300: 206f 8abd 4788 1a3d 9723 833d e1cc ea3d
00000310: aa16 3bbd 784b 413d b110 a1bd aade 98bd
00000320: cdba 4b3d 741b 8dbd d5db b5b8 5204 cdbd
00000330: 9fdd 8a3d 436e c3bd bfce 903d 31ff c2bd
00000340: 0825 bfbd 3979 46bd d09a d73b 5637 a5bd
00000350: c778 5fbd cf1a b63d d33d d9bd bc00 67bd
00000360: 7a7e c7bd 2140 4c3d e685 d9bd eabe de3d
00000370: f6b2 aebd 444f cb3d 963c e03d 3452 93bd
00000380: 1116 e13d b46e 82ba dccb a1bd a698 cbbd
00000390: c6c6 16bd 7b58 a9bd 1da0 813d 611f 72bc
000003a0: 5b62 9f3d cfc5 dcbd db47 ad3c 96e8 abbc
000003b0: bb4f 443c 973f 5f3d f36a 37bd 3c1e b8bd
000003c0: 31a5 bc3c 300f f2bd 840c ba3d 2e80 56bc
000003d0: 0bfa e03d 2404 773c cdc8 efbd 87c0 f6bd
000003e0: 2655 52bc 4ba8 793d c105 7e3d d4d9 93bd
000003f0: a73e 45bd eebd 1a3c e101 043d 9da1 89bd

cnn.conv_layer.1.conv.bias f4 [16]
-0.07601314 -0.079438396 -0.046959728 0.042498346 0.10911223 -0.12449965 -0.03423237 0.0058864
-0.0012247093 0.10905372 -0.12421878 0.10778553 0.09114116 -0.110806875 -0.057999097 0.004014968
00000000: c7ac 9bbd 99b0 a2bd d858 40bd bf12 2e3d
00000010: 3c76 df3d acf9 febd 3e37 0cbd b4e2 c03b
00000020: 6d86 a0ba 8f57 df3d 6a66 febd a9be dc3d
00000030: 37a8 ba3d b7ee e2bd 7690 6dbd fe8f 833b

cnn.conv_layer.1.adn.N.weight f4 [16]
0.99988025 1.000565 0.99994355 0.9993552 1.0003828 0.9999973 0.9998274 0.99940586
0.9999021 0.99936646 1.000007 1.0001796 1.0008432 0.99966234 1.000301 1.0004206
00000000: 27f8 7f3f 8412 803f 4dfc 7f3f bed5 7f3f
00000010: 8b0c 803f d3ff 7f3f b0f4 7f3f 10d9 7f3f
00000020: 96f9 7f3f 7bd6 7f3f 3b00 803f e305 803f
00000030: a11b 803f dfe9 7f3f dd09 803f c80d 803f

cnn.conv_layer.1.adn.N.bias f4 [16]
0.00042819735 -0.0004920053 0.00016402287 0.0004028265 0.00033947194 1.1402597e-05 -0.00017981495 -0.00053189043
-0.0006817706 -1.0455688e-06 7.6545795e-05 0.000775404 0.00020675496 -0.00014810555 0.0004310204 -0.0005375655
00000000: ad7f e039 ebf9 00ba 8efd 2b39 7532 d339
00000010: 27fb b139 c84d 3f37 b58c 3cb9 906e 0bba
00000020: dab8 32ba 7855 8cb5 3687 a038 7b44 4b3a
00000030: 5dcc 5839 c84c 1bb9 94fa e139 69eb 0cba

cnn.conv_layer.1.adn.N.running_mean f4 [16]
-0.03547116 0.12366964 0.41246924 -0.2679088 0.09937546 0.028565653 -0.26156026 -0.18146703
0.18585116 0.42320812 -0.168527 0.3625207 0.0832314 0.02393068 -0.13477483 -0.019163974
00000000: 354a 11bd 8246 fd3d 2b2f d33e 582b 89be
00000010: 5c85 cb3d 8402 ea3c 3aeb 85be 7ed2 39be
00000020: c44f 3e3e bcae d83e 5892 2cbe 509c b93e
00000030: 3975 aa3d 460a c43c 6a02 0abe c4fd 9cbc

cnn.conv_layer.1.adn.N.running_var f4 [16]
0.31828007 0.29039547 0.59468853 0.26672387 0.33085418 0.27643287 0.3707541 0.44964072
0.27498752 0.36652368 0.28327036 0.25695506 0.24239402 0.42901188 0.24282564 0.2608405
00000000: 9bf5 a23e b7ae 943e 823d 183f 0890 883e
00000010: b865 a93e 9c88 8d3e 7bd3 bd3e 4f37 e63e
00000020: 2acb 8c3e fea8 bb3e d008 913e 9d8f 833e
00000030: 2336 783e 72a7 db3e 49a7 783e e38c 853e

cnn.conv_layer.2.conv.weight f4 [32, 16, 2, 2, 2]
0.03663754 0.013818045 -0.07967236 -0.074879505 -0.031374615 -0.0062336824 -0.008169808 -0.029289732
-0.04292828 -0.0465331 0.024599351 0.059896845 0.045502163 0.082609296 0.043179043 0.04660303
-0.049733866 0.06644939 -0.005273209 -0.087264314 0.051757008 -0.0014339011 0.05543863 0.055310935
0.009174634 0.017122643 -0.04168224 -0.06873642 0.021181168 -0.08027798 0.032269172 -0.04484765
0.07582531 -0.055640697 -0.0025715567 0.0444112 0.0041226023 0.03463241 -0.07805583 -0.052524902
0.07485648 -0.06679898 -0.0061821425 0.059323855 0.06566547 -0.03375098 -0.032942478 0.00922867
0.03339884 0.06478451 -0.0337467 -0.07385679 -0.08136133 0.082358375 0.038658973 0.033433154
0.08272099 0.042927824 0.058396436 0.04717276 0.07377859 -0.05924912 0.007886857 0.039468534
0.04347319 -0.0055556837 -0.038781814 0.023308601 0.028531853 -0.018157432 -0.03720367 0.0503829
-0.063382134 0.030205589 -0.08330056 0.018181954 0.042751342 0.011974259 -0.014601172 0.04388048
0.06523667 -0.0013836761 0.015061894 -0.056003056 -0.0034618366 -0.050178073 0.07210361 0.054196395
-0.021502655 -0.008977776 0.032261338 -0.01772321 -0.058315 -0.0058913473 -0.049385786 -0.0027424812
-0.054477684 0.0566384 0.066698715 0.010618537 0.010024939 -0.0803358 0.04394603 -0.0773982
-0.0710519 0.019759322 0.07654728 0.019131983 -0.035735466 -0.058393583 -0.053732134 -0.05903999
-0.017161068 0.0065254667 0.041001398 -0.07025387 -0.010859026 -0.009220874 0.063143186 0.009694906
0.030463912 0.043245323 0.015031921 0.08605826 0.050485052 -0.061777107 0.0036820062 0.07786309
-0.039263315 0.082951225 0.05276494 -0.041885976 0.015193775 -0.08220112 -0.06405271 0.07890011
0.08128739 -0.012764175 -0.06359853 -0.023287227 0.06417625 -0.064684905 -0.030310681 0.05076434
0.06390102 -0.062953435 0.026294269 -0.020017406 -0.007558086 0.064519696 -0.011056498 -0.057450388
0.029096905 -0.0551067 -0.07396694 -0.04748136 -0.05829913 -0.04094306 0.056136582 -0.06887487
0.015018772 -0.05506353 0.0024794582 -0.059803285 0.044162456 -0.08334955 -0.07407347 -0.06221379
-0.0799677 0.011142749 -0.08106972 0.015756994 -0.04383736 0.06385467 -0.049920723 0.06974552
-0.023129564 -0.061317455 -0.0872175 0.05340024 0.07426458 -0.08162618 -0.0490313 0.046489738
0.005185804 -0.06399724 -0.029104441 0.0010103476 0.06734488 0.026870897 -0.030820452 -0.059425797
0.07185469 0.0233204 0.077677004 0.073149495 0.036251657 0.036000807 0.03566441 0.0013270959
-0.014595468 -0.034069013 -0.05422879 0.0024923459 -0.041200172 0.048976894 0.019147938 0.076127484
0.07508344 0.019277439 -0.04838283 -0.031965807 0.02119249 -0.038070343 0.006917713 0.0076267454
0.018357102 0.054147635 0.071902215 -0.0373133 -0.0255238 -0.0006005887 -0.07420989 0.08392348
-0.04671608 0.008400621 0.05816629 0.017647814 -0.02610157 -0.026222495 0.0043716636 -0.021974487
0.05906527 0.03839966 -0.04313295 0.029089712 -0.06023001 -0.042699423 -0.08756223 0.011829972
0.01877697 0.07711486 0.01055809 -0.07022741 -0.027998589 -0.08047224 0.018834725 -0.0053528743
-0.01682563 -0.002576178 -0.06897908 -0.059228078 -0.08698636 0.008392534 0.037966706 0.059407715
00000000: 3f11 163d 1565 623c 432b a3bd 6d5a 99bd
00000010: ab82 00bd eb43 ccbb a9da 05bc 05f1 efbc
00000020: 90d5 2fbd 7e99 3ebd 9484 c93c 6556 753d
00000030: 7a60 3a3d 102f a93d 82dc 303d d2e2 3e3d
00000040: bdb5 4bbd 9e16 883d e2ca acbb a2b7 b2bd
00000050: 28ff 533d bdf1 bbba 9e13 633d b88d 623d
00000060: 3451 163c c944 8c3c ffba 2abd aec5 8cbd
00000070: 2184 ad3c c868 a4bd ae2c 043d 2bb2 37bd
00000080: 4d4a 9b3d 80e7 63bd 9087 28bb 85e8 353d
00000090: e516 873b b7da 0d3d bcdb 9fbd 5a24 57bd
000000a0: 5b4e 993d e7cd 88bd 9293 cabb 92fd 723d
000000b0: 9e7b 863d 783e 0abd b1ee 06bd d933 173c
000000c0: 39cd 083d bead 843d fb39 0abd 3b42 97bd
000000d0: c5a0 a6bd 82ab a83d df58 1e3d 34f1 083d
000000e0: 9f69 a93d 16d5 2f3d 1a31 6f3d 3938 413d
000000f0: 3b19 973d 35af 72bd e037 013c c2a9 213d
00000100: f210 323d 740c b6bb aed9 1ebd aef1 be3c
00000110: a2bb e93c e5be 94bc e062 18bd 4d5e 4e3d
00000120: 7ece 81bd b671 f73c 7c99 aabd 52f2 943c
00000130: 081c 2f3d af2f 443c c139 6fbc 05bc 333d
00000140: ce9a 853d 775c b5ba 2ac6 763c 7663 65bd
00000150: fbdf 62bb 8687 4dbd 0fab 933d 0afd 5d3d
00000160: 5626 b0bc 8617 13bc 7724 043d 4430 91bc
00000170: b6db 6ebd 340c c1bb c048 4abd 33bb 33bb
00000180: fe23 5fbd abfd 673d 5699 883d 5ff9 2d3c
00000190: a43f 243c 1987 a4bd c100 343d f382 9ebd
000001a0: a983 91bd 4dde a13c d2c4 9c3d adba 9c3c
000001b0: 5a5f 12bd 1c2e 6fbd 3a16 5cbd ebd3 71bd
000001c0: 5e95 8cbc 95d3 d53b 15f1 273d 43e1 8fbd
000001d0: 0eea 31bc 2613 17bc 3751 813d 62d7 1e3c
000001e0: 748f f93c 0222 313d 7248 763c 503f b03d
000001f0: 6ac9 4e3d fe09 7dbd d04d 713b af76 9f3d
00000200: 92d2 20bd 55e2 a93d 0d20 583d a190 2bbd
00000210: 50ef 783c 1059 a8bd 112e 83bd 6296 a13d
00000220: 017a a63d d520 51bc f23f 82bd dbc4 bebc
00000230: d66e 833d 8579 84bd 1b4e f8bc 45ee 4f3d
00000240: 8ade 823d bbed 80bd 1467 d73c 8bfb a3bc
00000250: d2a9 f7bb e722 843d 5026 35bc 1951 6bbd
00000260: a25c ee3c 90b7 61bd fb7b 97bd d17b 42bd
00000270: 12cb 6ebd e9b3 27bd 79ef 653d 450e 8dbd
00000280: 4c11 763c 4c8a 61bd 687e 223b 4af4 74bd
00000290: b1e3 343d 2bb3 aabd d5b3 97bd e3d3 7ebd
000002a0: 1bc6 a3bd 1490 363c e207 a6bd d014 813c
000002b0: ce8e 33bd 3dc6 823d ac79 4cbd bdd6 8e3d
000002c0: 367a bdbc 0328 7bbd 179f b2bd 36ba 5a3d
000002d0: 0718 983d a02b a7bd 0bd5 48bd 066c 3e3d
000002e0: aded a93b fc10 83bd 706c eebc a46d 843a
000002f0: 1dec 893d 5b20 dc3c 2c7b fcbc 7768 73bd
00000300: 8d28 933d 6c0a bf3c 1f15 9f3d 67cf 953d
00000310: 9e7c 143d 9575 133d d814 123d f3f1 ad3a
00000320: d421 6fbc f38b 0bbd 021f 5ebd a056 233b
00000330: 83c1 28bd ff9b 483d 23dc 9c3c bae8 9b3d
00000340: 59c5 993d b8eb 9d3c 132d 46bd 94ee 02bd
00000350: df9b ad3c a6ef 1bbd fcad e23b c7e9 f93b
00000360: a261 963c e9c9 5d3d 7841 933d d5d5 18bd
00000370: 4a17 d1bc d370 1dba 5bfb 97bd 13e0 ab3d
00000380: 5c59 3fbd c2a2 093c c73f 6e3d 2692 903c
00000390: f6d2 d5bc 8fd0 d6bc 2c40 8f3b d703 b4bc
000003a0: 6dee 713d f648 1d3d 2dac 30bd 8c4d ee3c
000003b0: beb3 76bd 97e5 2ebd d453 b3bd 80d2 413c
000003c0: 29d2 993c 65ee 9d3d d7fb 2c3c 63d3 8fbd
000003d0: 4c5d e5bc a1ce a4bd 484b 9a3c 2a67 afbb
000003e0: e7d5 89bc 18d5 28bb e744 8dbd 2499 72bd
000003f0: e825 b2bd d780 093c fa82 1b3d 8155 733d

cnn.conv_layer.2.conv.bias f4 [32]
-0.058180816 0.053020474 -0.07830267 -0.07528135 -0.04203791 0.03493079 -0.039826497 0.06827755
0.006559824 -0.08122237 -0.007521736 0.011730051 0.06601809 -0.05202457 -0.0032427062 0.013456705
-0.03125041 0.07705286 0.0067919665 0.03206029 0.057644885 -0.08125379 0.029349849 0.008041657
0.06578714 -0.07054021 0.014478658 -0.0075424956 0.06572846 -0.03612766 -0.023081953 0.034104988
00000000: 024f 6ebd ff2b 593d 265d a0bd 1c2d 9abd
00000010: f22f 2cbd 9713 0f3d 1c21 23bd 1ad5 8b3d
00000020: cbf3 d63b ea57 a6bd e578 f6bb 662f 403c
00000030: 7e34 873d b717 55bd 9583 54bb 8379 5c3c
00000040: 6e00 00bd e4cd 9d3d 258f de3b a751 033d
00000050: 0b1d 6c3d 6368 a6bd 186f f03c 27c1 033c
00000060: 68bb 863d 6377 90bd e537 6d3c 0a27 f7bb
00000070: a59c 863d 99fa 13bd 5d16 bdbc acb1 0b3d

cnn.conv_layer.2.adn.N.weight f4 [32]
1.0003043 1.0001805 0.99936897 1.0007348 1.0005156 0.999875 0.99938256 1.0004946
0.9996548 1.0007325 1.000224 1.0008171 1.0005534 0.99961644 0.999507 1.0004302
1.0007807 1.0003476 0.9994736 0.9995049 0.9994298 0.99987644 0.9993854 0.99923533
0.9992975 1.0007185 0.9996373 1.0003681 1.0007645 1.000495 0.999967 0.9994369
00000000: f909 803f ea05 803f a5d6 7f3f 1418 803f
00000010: e510 803f cff7 7f3f 89d7 7f3f 3510 803f
00000020: 61e9 7f3f 0118 803f 5707 803f c61a 803f
00000030: 2212 803f dde6 7f3f b1df 7f3f 190e 803f
00000040: 9519 803f 640b 803f 80dd 7f3f 8edf 7f3f
00000050: a2da 7f3f e7f7 7f3f b9d7 7f3f e3cd 7f3f
00000060: f6d1 7f3f 8b17 803f 3be8 7f3f 100c 803f
00000070: 0d19 803f 3810 803f d6fd 7f3f 19db 7f3f

cnn.conv_layer.2.adn.N.bias f4 [32]
-0.00018579666 0.00021331609 0.00034836377 0.00075346767 0.0007099821 5.9199898e-05 4.090932e-05 0.0003928081
0.0005691255 0.0005003614 0.0005280565 2.7969108e-05 -0.00033589412 0.00049085426 -0.00069213053 0.000558059
0.000782397 0.00042368108 -9.666838e-05 -0.00042976055 7.4463445e-05 -0.00015690205 -0.00035351355 -0.0007057131
-0.00068466907 0.0003376565 -0.0007180173 -0.00026604385 2.037183e-05 -5.44715e-05 0.0006197681 -0.00057343696
00000000: 69d2 42b9 9aad 5f39 98a4 b639 5c84 453a
00000010: 181e 3a3a 684d 7838 0c96 2b38 d0f1 cd39
00000020: 5e31 153a af2a 033a 466d 0a3a 349f ea37
00000030: f21a b0b9 acac 003a 1870 35ba b54a 123a
00000040: c619 4d3a 8321 de39 71ba cab8 7c51 e1b9
00000050: 4229 9c38 1386 24b9 c957 b9b9 9bff 38ba
00000060: 5d7b 33ba 7d07 b139 5339 3cba cd7b 8bb9
00000070: 2ce4 aa37 5478 64b8 ef77 223a b452 16ba

cnn.conv_layer.2.adn.N.running_mean f4 [32]
0.10961317 -0.1660471 0.42826197 -0.33536687 -0.07249395 -0.026164103 -0.3087496 0.11722493
0.018188717 -0.00487446 -0.06646598 0.19840896 0.02489094 0.020703856 0.09295198 0.45256394
-0.053885717 -0.105669625 -0.17453071 0.09726736 -0.03925975 -0.14095385 0.39769012 0.004456611
0.29524544 -0.13790955 -0.008979368 0.052572608 -0.16337061 0.17820221 0.31278127 -0.0060115084
00000000: df7c e03d 4008 2abe 2745 db3e 35b5 abbe
00000010: b577 94bd 1a56 d6bc 6d14 9ebe a013 f03d
00000020: 8100 953c efb9 9fbb 511f 88bd b82b 4b3e
00000030: 16e8 cb3c 229b a93c 9c5d be3d 76b6 e73e
00000040: 45b7 5cbd 5169 d8bd 2eb8 32be 1c34 c73d
00000050: d5ce 20bd 3556 10be 0a9e cb3e c308 923b
00000060: 692a 973e 2938 0dbe 331e 13bc 6056 573d
00000070: a04a 27be a47a 363e de24 a03e 30fc c4bb

cnn.conv_layer.2.adn.N.running_var f4 [32]
0.2707013 0.43900543 0.58475465 0.36477542 0.66715425 0.4033446 0.67073894 0.35921377
0.32080555 0.5189661 0.4339395 0.38675642 0.41865787 0.36213994 0.33070493 0.5324984
0.32330966 0.39890563 0.46833646 0.38306212 0.27144712 0.30884442 0.75080425 0.31950855
0.2983365 0.301219 0.38990542 0.3053853 0.42412245 0.33210263 0.5013134 0.27259535
00000000: 5c99 8a3e 52c5 e03e 7bb2 153f d8c3 ba3e
00000010: 9fca 2a3f 2f83 ce3e 8cb5 2b3f deea b73e
00000020: a040 a43e f6da 043f 512d de3e f004 c63e
00000030: 535a d63e 686a b93e 2852 a93e d151 083f
00000040: d888 a53e 5c3d cc3e ccc9 ef3e b820 c43e
00000050: 1efb 8a3e db20 9e3e b534 403f a096 a33e
00000060: 90bf 983e 6039 9a3e afa1 c73e 765b 9c3e
00000070: 9426 d93e 5b09 aa3e 1356 003f 9e91 8b3e

cnn.conv_layer.3.conv.weight f4 [64, 32, 2, 2, 2]
0.021550125 -0.04617412 -0.0063534225 0.02424393 -0.005357271 -0.035853434 0.056913786 0.025851717
-0.050133158 -0.02013013 0.047425702 0.034347653 -0.01591174 -0.020863576 -0.05528693 0.019729268
0.016914697 -0.008093202 0.060962737 0.05722812 0.019663237 -0.00025481184 0.0024118873 0.0362628
-0.022488538 0.06318861 0.05183278 0.059530705 -0.04544504 0.002218286 0.042835955 -0.054399602
-0.054337397 0.05524371 0.054053176 0.030187536 0.050221782 0.008239754 0.029434923 0.04116063
-0.007278881 -0.02048011 0.04667181 -0.015357637 0.05340396 0.040833812 0.012897671 0.016010633
-0.0181136 0.06296691 -0.0063849753 0.0039012362 0.0016726066 0.050523784 -0.022323558 -0.0117693115
0.0015238802 0.058569107 0.028217798 -0.038730234 -0.0027595428 0.061100073 0.011510207 0.052199926
0.05566081 -0.04561988 -0.011175073 -0.06038 0.011519415 -0.010637867 -0.012364949 0.04092079
-0.059156723 0.035471585 0.017522834 0.011344975 -0.0040146112 -0.024412937 -0.022481933 -0.05891719
-0.024924813 0.04730687 0.05506967 0.000110959765 -0.027164774 0.011127033 -0.052464906 -0.051454324
0.05263222 -0.0066810297 0.019704854 -0.01479872 -0.051185984 0.058428094 -0.041789737 -0.02979628
-0.06097797 -0.024819352 -0.035798486 0.0028015918 -0.04591676 -0.042444646 -0.05901798 -0.026702676
-0.0037622703 -0.044587936 -0.013707887 -0.037567426 0.010191413 0.05470105 -0.054874714 -0.025303597
0.008774679 -0.01304573 -0.034873575 -0.017329827 0.005006132 -0.05016861 -0.056005035 0.03530336
-0.021116083 -0.009423705 0.037856806 0.024116855 -0.051714893 -0.006979614 -0.0326715 0.034910306
0.05328344 -0.036906898 0.036929093 -0.028224472 0.03741281 0.0283281 0.04141149 -0.0139891915
-0.042799294 -0.011504721 -0.060707666 0.031206897 -0.055777602 0.044993352 0.0016812203 0.045739017
-0.01779103 -0.00057313073 0.015350446 0.046832208 0.017086303 0.043481216 -0.02471205 -0.026055476
0.05313655 -0.048208226 0.05995991 -0.033201046 -0.0073346854 -0.030080583 -0.01956842 0.05582497
0.047604393 0.04507472 -0.052656233 -0.00149134 -0.027734626 -0.023576654 -0.016480349 -0.061103065
-0.060836647 6.971132e-05 0.05013461 0.0056308396 0.003109426 -0.023406398 0.012341331 -0.051791646
0.033033714 -0.04277377 0.003127055 -0.032213513 -0.03601157 0.008942512 0.021586472 -0.010520231
0.06189544 0.004212105 0.03950752 -0.027111214 -0.01098013 0.02862129 -0.055421103 0.056238465
0.062278625 -0.012480252 -0.04119191 0.030622313 0.04012959 -0.03695537 -0.0070340675 0.022375807
-0.056928255 -0.030528113 -0.014572371 -0.019580409 0.035981983 -0.017810006 -0.045319486 -0.054170974
0.041699745 -0.008538061 -0.034367703 -0.02350843 -0.024405727 0.008432268 -0.037707202 0.019170914
0.013856881 0.03770457 0.018524395 -0.00071599864 -0.016015995 0.046168715 -0.05419721 0.048057232
-0.0055997213 0.04273248 0.033006463 0.030629285 0.041097496 -0.01156461 -0.015652835 0.059156656
0.013703082 -0.04121681 0.020651717 0.047050804 0.050867092 0.049270198 -0.032681305 0.047872964
0.0027315721 0.05701766 -0.013462765 -0.060243543 -0.001998225 0.020666596 -0.036830634 0.018681848
-0.056848347 0.0051651318 -0.059258584 0.046611004 -0.015177767 -0.056529768 -0.06121412 0.02197682
00000000: e389 b03c 1321 3dbd 5f30 d0bb 359b c63c
00000010: 0c8c afbb 0ddb 12bd 6e1e 693d fbc6 d33c
00000020: 6d58 4dbd f1e7 a4bc 7441 423d 20b0 0c3d
00000030: 5659 82bc 17ea aabc 8c74 62bd 469f a13c
00000040: b190 8a3c 5999 04bc 10b4 793d 0868 6a3d
00000050: cc14 a13c 4498 85b9 c110 1e3b 4d88 143d
00000060: e239 b8bc 0869 813d 9c4e 543d 78d6 733d
00000070: 9424 3abd aa60 113b c174 2f3d 1ed2 5ebd
00000080: e490 5ebd 3a47 623d dd66 5d3d da4b f73c
00000090: 5bb5 4d3d 0800 073c 8221 f13c 0c98 283d
000000a0: ae83 eebb e7c5 a7bc f12a 3f3d 999e 7bbc
000000b0: 1cbe 5a3d 5b41 273d c150 533c bb28 833c
000000c0: f962 94bc ccf4 803d 0e39 d1bb e2ab 7f3b
000000d0: 5d3b db3a 07f2 4e3d e5df b6bc 12d4 40bc
000000e0: efbc c73a 29e6 6f3d 0329 e73c 98a3 1ebd
000000f0: 72d9 34bb 1244 7a3d 4f95 3c3c 97cf 553d
00000100: 97fc 633d e9db 3abd a717 37bc 0551 77bd
00000110: eebb 3c3c 734a 2ebc 5b96 4abc 8f9c 273d
00000120: 524e 72bd a74a 113d 0c8c 8f3c 46e0 393c
00000130: 008d 83bb a4fd c7bc 082c b8bc 2753 71bd
00000140: 1f2f ccbc d9c4 413d bc90 613d 12b3 e838
00000150: a988 debc 294e 363c 71e5 56bd c5c1 52bd
00000160: e294 573d 8aec dabb 136c a13c 5576 72bc
00000170: 65a8 51bd 4c52 6f3d b72b 2bbd 5417 f4bc
00000180: 09c4 79bd f451 cbbc 6fa1 12bd e99a 373b
00000190: 3613 3cbd 70da 2dbd d6bc 71bd 92bf dabc
000001a0: 6c90 76bb d7a1 36bd 0c97 60bc 4de0 19bd
000001b0: e2f9 263c 350e 603d 4fc4 60bd 7d49 cfbc
000001c0: acc3 0f3c c2bd 55bc 98d7 0ebd 48f7 8dbc
000001d0: 7b0a a43b 9a7d 4dbd 8965 65bd 429a 103d
000001e0: a3fb acbc e265 1abc bd0f 1b3d b690 c53c
000001f0: ffd2 53bd 3fb5 e4bb 8dd2 05bd 1cfe 0e3d
00000200: bd3f 5a3d b02b 17bd f642 173d 0237 e7bc
00000210: 2d3e 193d 5510 e83c 189f 293d ec32 65bc
00000220: 504e 2fbd 4c7e 3cbc 9aa8 78bd 9ba5 ff3c
00000230: 0e77 64bd f34a 383d 645c dc3a d658 3b3d
00000240: 7fbe 91bc 273e 16ba 7080 7b3c 21d3 3f3d
00000250: 93f8 8b3c 5c19 323d ed70 cabc 4b72 d5bc
00000260: b6a5 593d fd75 45bd 8698 753d d2fd 07bd
00000270: cd57 f0bb 8e6b f6bc f34d a0bc b9a8 643d
00000280: d3fc 423d 45a0 383d 10ae 57bd 1179 c3ba
00000290: ba33 e3bc d423 c1bc cc01 87bc 3547 7abd
000002a0: d92f 79bd fb31 9238 f359 4d3d e882 b83b
000002b0: 83c7 4b3b c6be bfbc 4b33 4a3c 7a23 54bd
000002c0: 5c4e 073d 8c33 2fbd 47ef 4c3b 51f2 03bd
000002d0: de80 13bd 9d83 123c 1dd6 b03c 0c5d 2cbc
000002e0: 1386 7d3d b305 8a3b a3d2 213d 5618 debc
000002f0: 01e6 33bc 3277 ea3c 3d01 63bd 4e5a 663d
00000300: df17 7f3d f979 4cbc d9b8 28bd a5db fa3c
00000310: ed5e 243d 845e 17bd 097e e6bb 784d b73c
00000320: 9a2d 69bd 1816 fabc f4c0 6ebc 1867 a0bc
00000330: d861 133d 4ae6 91bc eda0 39bd 62e2 5dbd
00000340: 5acd 2a3d 39e3 0bbc 26c5 0cbd c094 c0bc
00000350: 85ee c7bc 7f27 0a3c de72 1abd 520c 9d3c
00000360: f907 633c 1b70 1a3d 79c0 973c dbb1 3bba
00000370: fa33 83bc 681b 3d3d e5fd 5dbd a9d7 443d
00000380: de7d b7bb 4108 2f3d c931 073d 44ea fa3c
00000390: d955 283d 7d79 3dbc 603a 80bc 404e 723d
000003a0: e482 603c f5d2 28bd ca2d a93c 58b8 403d
000003b0: 035a 503d 8ccf 493d d5dc 05bd 7116 443d
000003c0: 2d04 333b 5a8b 693d ee92 5cbc efc1 76bd
000003d0: a7f4 02bb fe4c a93c b8db 16bd ad0a 993c
000003e0: d0d9 68bd 4440 a93b 21b9 72bd 2eeb 3e3d
000003f0: 2bac 78bc c28b 67bd a8bb 7abd bb08 b43c

cnn.conv_layer.3.conv.bias f4 [64]
0.03100467 0.05854447 -0.018836558 -0.023196205 -0.04164918 -0.05377723 0.030962586 -0.0044953087
-0.01285682 0.032207556 0.04771724 0.045298845 0.051395714 0.023302542 -0.028359238 0.011436981
0.0516989 0.027856365 0.00084729586 -0.034060273 -0.029913915 -0.05736007 -0.026039764 -0.025940765
0.03226586 -0.0045907944 -0.01622738 0.0016887943 -0.020413144 -0.00096039224 -0.002770812 0.0030164153
0.002525125 -0.053967282 -0.06173312 -0.0041091484 -0.021499055 0.05835128 0.059991635 0.011260586
-0.049689714 0.0046566613 0.058647506 0.03326529 -0.036196053 0.053949676 -0.047739413 -0.05960922
0.014602003 0.055051308 -0.062218983 -0.04280102 -0.010660377 -0.042285774 0.0369806 -0.03750553
0.029257972 0.016137095 0.019672193 0.028239656 -0.00886061 -0.037099697 0.02358482 0.0051410687
00000000: 81fd fd3c 54cc 6f3d 204f 9abc f805 bebc
00000010: 5598 2abd 8345 5cbd 40a5 fd3c 624d 93bb
00000020: 69a5 52bc 12ec 033d 2773 433d 488b 393d
00000030: 5084 523d f9e4 be3c a251 e8bc 2d62 3b3c
00000040: 3ac2 533d 0833 e43c 101d 5e3a c982 0bbd
00000050: 070e f5bc 65f2 6abd 5851 d5bc ba81 d4bc
00000060: 3529 043d 606e 96bb 48ef 84bc 895a dd3a
00000070: 7739 a7bc d5c2 7bba 8396 35bb 0daf 453b
00000080: 917c 253b cc0c 5dbd dedb 7cbd 09a6 86bb
00000090: c91e b0bc c001 6f3d cab9 753d 527e 383c
000000a0: 7187 4bbd e896 983b 5e38 703d 2f41 083d
000000b0: 5042 14bd 56fa 5c3d 678a 43bd cc28 74bd
000000c0: 3d3d 6f3c 7b7d 613d 55d9 7ebd 1f50 2fbd
000000d0: dda8 2ebc d933 2dbd f878 173d 669f 19bd
000000e0: 6aae ef3c f131 843c 9427 a13c da56 e73c
000000f0: 182c 11bc daf5 17bd f434 c13c 6976 a83b

cnn.conv_layer.3.adn.N.weight f4 [64]
1.000799 1.0006768 0.99934983 0.99997437 1.0006026 1.0003841 1.0004325 0.99924195
0.9999495 1.0008025 1.0007405 1.0006146 1.0002059 1.0008926 1.0006685 1.0003849
0.9998367 0.9994069 1.0005836 0.99943495 1.0008531 0.999984 0.99994993 1.0005971
1.0002012 0.9994597 1.0000412 1.00072 1.0005 0.99916035 1.0000197 0.9991447
0.9992326 0.99977696 1.0008687 1.0005233 0.9994781 0.99940807 1.0001107 0.9992127
0.99933416 0.99958336 1.0004166 1.0006922 0.9994333 1.000191 0.9998028 1.0001026
0.9991755 1.0008204 1.0005558 1.0007377 1.0007727 1.0005118 0.99915 0.9992948
0.9994983 1.0004771 0.9991734 0.99932224 1.0005517 1.0006888 0.9996556 1.0002564
00000000: 2e1a 803f 2d16 803f 64d5 7f3f 52fe 7f3f
00000010: bf13 803f 960c 803f 2c0e 803f 52ce 7f3f
00000020: b1fc 7f3f 4c1a 803f 4418 803f 2414 803f
00000030: bf06 803f 401d 803f e815 803f 9d0c 803f
00000040: 4cf5 7f3f 21d9 7f3f 2013 803f f8da 7f3f
00000050: f41b 803f f4fe 7f3f b8fc 7f3f 9113 803f
00000060: 9806 803f 97dc 7f3f 5a01 803f 9817 803f
00000070: 6210 803f f9c8 7f3f a500 803f f2c7 7f3f
00000080: b5cd 7f3f 62f1 7f3f 771c 803f 2611 803f
00000090: ccdd 7f3f 35d9 7f3f a103 803f 67cc 7f3f
000000a0: 5dd4 7f3f b2e4 7f3f a70d 803f af16 803f
000000b0: dcda 7f3f 4206 803f 14f3 7f3f 5d03 803f
000000c0: f7c9 7f3f e21a 803f 3612 803f 2c18 803f
000000d0: 5219 803f c510 803f 4bc8 7f3f c9d1 7f3f
000000e0: 1fdf 7f3f a20f 803f d4c9 7f3f 95d3 7f3f
000000f0: 1412 803f 9216 803f 6ee9 7f3f 6708 803f

cnn.conv_layer.3.adn.N.bias f4 [64]
0.00084659125 0.0005337509 -0.00049631216 8.974016e-05 0.0005037427 0.00050682423 0.00039176235 -0.00084216875
-0.00010816767 0.00075804774 0.00046705743 0.0005690458 0.0004312798 0.0007398932 0.0006110936 0.00037920283
3.7616483e-05 -0.0005584304 0.00042131246 -0.00068275444 -0.00047342677 8.686104e-05 -0.00025082668 0.00046293758
0.00048950943 -0.0002589534 0.0003800061 0.00056736026 0.00031920505 -0.0008290958 7.99282e-05 -0.00084637525
-0.00082727935 -0.00010285714 0.000822026 -0.00031202484 -0.00050876837 -0.00042922093 6.412226e-05 -0.00071625225
-0.0006788238 -4.1870448e-05 0.00019831158 0.00038629453 -0.00053545315 2.955963e-06 -5.2486994e-05 -0.00023737428
-0.0007223685 0.00075297564 -0.00035385386 0.0006896413 0.00076353713 0.0006820083 0.0004393402 -0.0005755733
-0.0002383507 -4.0920087e-05 -0.0007616538 -0.00038614584 -0.0007930499 0.0007622382 -3.815734e-05 0.00079569203
00000000: c7ed 5d3a 6beb 0b3a f21a 02ba e232 bc38
00000010: 9a0d 043a 66dc 043a 7465 cd39 fdc4 5cba
00000020: 13d8 e2b8 b9b7 463a 63df f439 042c 153a
00000030: 651d e239 64f5 413a cc31 203a becf c639
00000040: 64c6 1d38 a163 12ba 9ae3 dc39 e0fa 32ba
00000050: 4436 f8b9 2a29 b638 6381 83b9 6eb6 f239
00000060: 6c52 003a 23c4 87b9 8e3b c739 e7ba 143a
00000070: fa5a a739 ad57 59ba 209f a738 48df 5dba
00000080: c7dd 58ba 02b5 d7b8 3b7d 573a 4497 a3b9
00000090: de5e 05ba 0f09 e1b9 6079 8638 e0c2 3bba
000000a0: 18f3 31ba 0d9e 2fb8 dcf1 4f39 9387 ca39
000000b0: a75d 0cba 0f5f 4636 7b25 5cb8 ace7 78b9
000000c0: 545d 3dba 5763 453a 7685 b9b9 0bc9 343a
000000d0: 1c28 483a cdc8 323a 3e57 e639 12e2 16ba
000000e0: c7ed 79b9 9ca1 2bb8 b9a9 47ba 9e73 cab9
000000f0: aee4 4fba f1d0 473a 220b 20b8 fd95 503a

cnn.conv_layer.3.adn.N.running_mean f4 [64]
0.0657709 0.08270926 -0.07340222 0.23524311 0.06529984 0.15190421 -0.22808197 0.353118
-0.51453424 0.19752401 0.18654743 -0.14958955 0.007240659 0.08660147 -0.51901394 -0.46734422
0.15356131 -0.32007423 -0.22996013 -0.0595576 0.1521465 -0.24698816 -0.14973162 0.16370887
0.28039962 -0.028260093 -0.16981755 -0.3516804 -0.19205676 0.019511925 -0.035450473 0.40143454
-0.31502807 -0.3994702 -0.29312336 0.25766465 -0.41315606 -0.07546112 0.19894727 -0.18175264
0.14562228 0.04909596 0.14059976 -0.07355978 -0.3837397 -0.015156094 -0.22516288 0.02334177
0.3180365 0.2822213 0.050979625 -0.32966664 0.24948883 -0.0064022397 0.060949203 -0.088113435
0.12020352 0.05110253 0.14177525 -0.1831132 0.3432072 0.111251004 0.14116265 -0.10861262
00000000: e5b2 863d 7963 a93d e753 96bd 92e3 703e
00000010: ecbb 853d c78c 1b3e 528e 69be e2cb b43e
00000020: 84b8 03bf bc43 4a3e 4a06 3f3e 012e 19be
00000030: 0d43 ed3b 1d5c b13d 19de 04bf be47 efbe
00000040: 2d3f 1d3e c5e0 a3be ab7a 6bbe acf2 73bd
00000050: 4bcc 1b3e 77ea 7cbe 3f53 19be 4ca3 273e
00000060: 8a90 8f3e b681 e7bc a7e4 2dbe 740f b4be
00000070: 87aa 44be 79d7 9f3c 8434 11bd d488 cd3e
00000080: 5c4b a1be 5c87 ccbe 4414 96be 9fec 833e
00000090: 3189 d3be 5c8b 9abd d5b8 4b3e 5d1d 3abe
000000a0: 021e 153e d818 493d 62f9 0f3e 83a6 96bd
000000b0: 8879 c4be 4451 78bc 1991 66be 3d37 bf3c
000000c0: aed5 a23e 4f7f 903e 03d0 503d 11ca a8be
000000d0: 007a 7f3e e1c9 d1bb dfa5 793d d174 b4bd
000000e0: 432d f63d e350 513d 882d 113e 0782 3bbe
000000f0: dbb8 af3e 91d7 e33d f18c 103e 4b70 debd

cnn.conv_layer.3.adn.N.running_var f4 [64]
0.37189308 0.45901906 0.3188655 0.42962584 0.3270162 0.33495882 0.4422416 0.46452975
0.51037496 0.44476926 0.36165628 0.37710413 0.3223336 0.32337642 0.5341764 0.5944725
0.38568044 0.5409783 0.33409807 0.31988204 0.3038595 0.5105023 0.35285312 0.34166074
0.4099519 0.33820027 0.35289687 0.43208128 0.5304189 0.40736327 0.34786466 0.6041594
0.3944636 0.43910187 0.52243954 0.6141528 0.5405721 0.40143058 0.32087108 0.34862143
0.31199965 0.27943623 0.42341238 0.28416675 0.62117255 0.34517717 0.32203513 0.28257164
0.4298096 0.4753806 0.39380804 0.45186162 0.35618815 0.31639728 0.34704533 0.38547075
0.3472359 0.3366136 0.31274107 0.30049783 0.5141524 0.3416003 0.44699678 0.35373423
00000000: c568 be3e 8c04 eb3e 5742 a33e ebf7 db3e
00000010: ab6e a73e b97f ab3e 7e6d e23e d8d6 ed3e
00000020: efa7 023f ccb8 e33e 032b b93e cb13 c13e
00000030: e908 a53e 9891 a53e c9bf 083f 5a2f 183f
00000040: e877 c53e 8e7d 0a3f e70e ab3e 94c7 a33e
00000050: 7993 9b3e 47b0 023f 2aa9 b43e 28ee ae3e
00000060: 37e5 d13e 9628 ad3e e6ae b43e c239 dd3e
00000070: 88c9 073f eb91 d03e 511b b23e 31aa 1a3f
00000080: 22f7 c93e f6d1 e03e 99be 053f 1e39 1d3f
00000090: ef62 0a3f 4f88 cd3e 3749 a43e 827e b23e
000000a0: 6bbe 9f3e 4412 8f3e 82c9 d83e 4e7e 913e
000000b0: 2a05 1f3f 10bb b03e cae1 a43e 3bad 903e
000000c0: 0110 dc3e 1665 f33e 35a1 c93e 685a e73e
000000d0: 4b5e b63e d3fe a13e edaf b13e 6c5c c53e
000000e0: e7c8 b13e 9e58 ac3e 991f a03e dada 993e
000000f0: 7e9f 033f 3ce6 ae3e c3dc e43e a71c b53e

gru.gru.weight_ih_l0 f4 [192, 512]
0.010295823 -0.046163585 -0.08001006 -0.044995043 0.073042795 -0.08613897 0.018346177 -0.005584933
0.087906525 0.058861185 0.032740857 -0.0729171 0.07246205 0.08713733 0.07358298 -0.030910755
0.0018432116 0.049382135 -0.049407516 -0.12190431 0.033836752 0.11299369 0.0045919917 0.020893272
-0.018627498 -0.03067842 0.008557006 0.10196365 0.005716698 -0.06634865 0.027682463 0.0959952
0.065225214 -0.039892983 -0.08609279 -0.10078002 0.107015 0.018285273 0.075331114 0.04742247
0.11707731 0.10139627 0.058653895 0.060540516 0.058995202 0.07995965 -0.037232924 0.017187208
0.08484478 -0.014317104 -0.01098022 -0.10687622 -0.050455738 -0.108210094 -0.053054202 0.101083785
-0.043733444 0.08347046 -0.058141522 -0.11896994 0.07107958 0.08742792 -0.070560165 -0.077829376
0.104267806 -0.034029756 -0.09904138 0.1099978 -0.05079838 -0.110637486 -0.10525091 -0.08370184
-0.11499324 -0.1110308 0.041761816 -0.028880382 0.12423299 0.07399019 0.001644565 0.07343576
-0.03806315 -0.03310719 -0.06728634 0.10497564 0.028280945 0.051272936 0.040329292 0.058377545
0.008822106 0.008707132 0.057286028 0.11525801 -0.053992 0.03845288 0.053742472 0.12437115
-0.023509376 -0.025650568 0.07132174 -0.084258236 -0.014032822 0.017480096 0.094198585 0.09840396
-0.016882865 -0.093526386 -0.07222422 -0.10063081 -0.02288106 0.07881998 -0.047625195 -0.055784218
0.124384895 0.042090654 -0.078827165 -0.046880167 0.12429708 -0.034745466 0.057135444 0.07185782
-0.0025044642 -0.06445907 -0.04520101 -0.07134418 -0.11942282 0.0041268873 -0.056290958 -0.1148942
0.12208602 -0.08704771 0.019160882 -0.019911129 -0.051477455 0.07397669 0.024543637 -0.04399051
0.02098308 -0.02912558 0.06728047 -0.032224283 -0.0253771 0.022262154 -0.0012187797 -0.020381868
0.024784222 -0.042894192 -0.06528189 0.055950142 -0.12192575 -0.05082399 -0.0815237 0.10738019
0.0702177 -0.0051082103 0.06924153 0.10070785 -0.12363625 0.015924804 -0.006112516 -0.077512614
-0.08610125 -0.11592108 0.04315301 -0.10687057 -0.08269276 -0.00024612554 -0.0068220715 0.10803159
0.11419335 0.038974628 0.063608 0.063234955 0.102346726 -0.015920805 0.09801555 0.059715927
0.049235124 0.041933816 0.008943828 0.091268815 0.0592367 -0.003696834 -0.07518853 -0.032464337
0.052181385 0.10810799 0.01540195 -0.116129175 -0.033694763 0.09924803 -0.078116186 -0.09237004
0.011593722 -0.026303293 -0.06810094 -0.099587314 -0.013183396 0.11473474 -0.06628966 0.038545646
0.07860062 -0.0421072 0.059886344 -0.056802597 0.114634536 -0.12358772 0.04919735 0.05701058
0.10451084 -0.014308684 0.017906588 0.09752942 0.08033187 0.061345477 0.064579986 -0.08848838
0.021413792 0.055414177 -0.07802728 -0.036504876 0.10685182 0.036683504 0.04528845 0.084610194
0.08240996 -0.07513806 0.117675096 0.0026952582 -0.09801985 0.0657849 0.012199604 -0.08446029
-0.013478991 -0.12394179 -0.082100436 0.015853925 -0.072462924 -0.08048893 0.040685855 -0.0807734
0.03748908 0.08986981 -0.025074258 0.0054094493 0.0037472474 -0.1159704 -0.10546718 0.021015786
-0.09391976 -0.07883894 -0.09135138 -0.09845272 -0.023560068 0.064215176 0.008654637 0.06659165
00000000: d0af 283c 0716 3dbd 50dc a3bd b94c 38bd
00000010: 7697 953d a169 b0bd b94a 963c d001 b7bb
00000020: 5608 b43d 6d18 713d 471b 063d 8f55 95bd
00000030: fc66 943d 0e75 b23d acb2 963d 8d38 fdbc
00000040: eb97 f13a ec44 4a3d 895f 4abd f8a8 f9bd
00000050: 6898 0a3d 3c69 e73d 6b78 963b 5e28 ab3c
00000060: b298 98bc 4f51 fbbc af32 0c3c 51d2 d03d
00000070: 2353 bb3b cde1 87bd 55c6 e23c 2299 c43d
00000080: cc94 853d d366 23bd 6b51 b0bd c165 cebd
00000090: ae2a db3d ffca 953c 3347 9a3d 103e 423d
000000a0: 3bc6 ef3d d9a8 cf3d 113f 703d 55f9 773d
000000b0: f4a4 713d e3c1 a33d 8d81 18bd 30cc 8c3c
000000c0: 1ac3 ad3d 4992 6abc 61e6 33bc ebe1 dabd
000000d0: adaa 4ebd 419d ddbd 5d4f 59bd 0405 cf3d
000000e0: d721 33bd 8ff2 aa3d ce25 6ebd 83a6 f3bd
000000f0: 2c92 913d 690d b33d d981 90bd 0265 9fbd
00000100: 5c8a d53d c962 0bbd 35d6 cabd 8746 e13d
00000110: f611 50bd e895 e2bd ca8d d7bd df6b abbd
00000120: 9381 ebbd 1e64 e3bd 700e 2b3d 8d96 ecbc
00000130: de6d fe3d 2b88 973d 728e d73a 7d65 963d
00000140: 1be8 1bbd 689b 07bd 6ccd 89bd 78fd d63d
00000150: 71ad e73c 9203 523d 5430 253d 4b1d 6f3d
00000160: 988a 103c 5ca8 0e3c c1a4 6a3d 640c ec3d
00000170: b726 5dbd c480 1d3d 1121 5c3d 4db6 fe3d
00000180: bc96 c0bc 2421 d2bc 2211 923d 958f acbd
00000190: ece9 65bc 6b32 8f3c 30eb c03d 0488 c93d
000001a0: ef4d 8abc c38a bfbd 4bea 93bd 8717 cebd
000001b0: 1071 bbbc 5f6c a13d a312 43bd fe7d 64bd
000001c0: 82bd fe3d 4067 2c3d 2370 a1bd 6b05 40bd
000001d0: 788f fe3d 4351 0ebd db06 6a3d 312a 933d
000001e0: f021 24bb 1e03 84bd b224 39bd e61c 92bd
000001f0: f493 f4bd d73a 873b 5991 66bd a64d ebbd
00000200: 3c08 fa3d 1246 b2bd 48f7 9c3c aa1c a3bc
00000210: 06da 52bd 1781 973d bd0f c93c 652f 34bd
00000220: b5e4 ab3c c598 eebc 58ca 893d 9cfd 03bd
00000230: a3e3 cfbc 1f5f b63c 76bf 9fba e0f7 a6bc
00000240: 4808 cb3c d2b1 2fbd 83b2 85bd fa2b 653d
00000250: 35b4 f9bd d12c 50bd e6f5 a6bd 25ea db3d
00000260: 4cce 8f3d c662 a7bb 81ce 8d3d eb3f ce3d
00000270: 0135 fdbd bc74 823c 804b c8bb efbe 9ebd
00000280: da55 b0bd 0868 edbd 36c1 303d f5de dabd
00000290: d25a a9bd 690a 81b9 af8b dfbb ab3f dd3d
000002a0: 34de e93d dca3 1f3d e944 823d 5481 813d
000002b0: 299b d13d 596c 82bc 60bc c83d b098 743d
000002c0: c5aa 493d cbc2 2b3d 2289 123c 25eb ba3d
000002d0: 2fa2 723d 9546 72bb 72fc 99bd 53f9 04bd
000002e0: 26bc 553d b967 dd3d 7658 7c3c 22d5 edbd
000002f0: 8503 0abd 8d42 cb3d 61fb 9fbd 812c bdbd
00000300: 98f3 3d3c 017a d7bc 8178 8bbd 6ff4 cbbd
00000310: 2cff 57bc 0cfa ea3d e0c2 87bd 0ae2 1d3d
00000320: 5df9 a03d 9978 2cbd 624b 753d d7a9 68bd
00000330: 83c5 ea3d 8f1b fdbd 2983 493d ed83 693d
00000340: c709 d63d f86e 6abc d6b0 923c 81bd c73d
00000350: 0985 a43d 6545 7b3d 8342 843d 6539 b5bd
00000360: fa6b af3c faf9 623d c4cc 9fbd 2386 15bd
00000370: 21d5 da3d 7141 163d 6280 393d 1c48 ad3d
00000380: 8ec6 a83d fce1 99bd a4ff f03d eea2 303b
00000390: a2be c8bd 3cba 863d d9e0 473c 84f9 acbd
000003a0: fcd6 5cbc 31d5 fdbd 4624 a8bd 17e0 813c
000003b0: 7167 94bd 61d7 a4bd 36a6 263d 866c a5bd
000003c0: 268e 193d aa0d b83d 8868 cdbc c041 b13b
000003d0: 6194 753b e481 edbd 2dff d7bd 4c29 ac3c
000003e0: 0159 c0bd 4f76 a1bd 6f16 bbbd 94a1 c9bd
000003f0: 0b01 c1bc 3f83 833d 2ecc 0d3c 3461 883d

gru.gru.weight_hh_l0 f4 [192, 64]
0.087446526 0.07742966 0.011262884 -0.019070745 -0.07679852 0.11314094 0.06211655 -0.0830108
-0.12099513 -0.033440858 0.007095836 -0.04955322 0.11940948 -0.063571274 0.0033371237 -0.10726764
-0.009316239 -0.0055892123 -0.055977635 0.059578523 0.012801288 -0.01275132 -0.10503627 0.009943152
-0.087542616 0.11681208 -0.08115948 0.1240715 0.070521295 0.015880974 0.062761694 -0.02512601
0.03978945 0.08592953 -0.016818851 0.065449454 -0.011529785 -0.10698503 0.061624352 0.037039433
-0.09905644 -0.028315034 0.02504342 0.018327788 0.038435962 -0.04638871 0.062256347 -0.11306562
0.04895306 -0.07670913 0.048300136 -0.015008138 -0.017997125 -0.0779988 -0.1062487 0.097208105
0.100634314 0.08903717 -0.03770203 0.12453312 0.009094885 -0.090353094 0.12181077 0.095818534
-0.073119454 -0.05512029 0.058796898 0.065840065 -0.041990872 -0.10582069 -0.0868487 0.08588334
-0.05497879 -0.103713 -0.069991924 0.1094937 0.036862493 -0.08072941 -0.01356473 -0.08569185
0.08042871 -0.008208104 -0.11036041 0.017748322 0.054582283 -0.1221336 0.028556831 -0.072133176
0.0046079094 0.08636835 -0.080723435 -0.05753758 0.0026047877 0.1107867 0.075538695 0.034396622
0.050810125 -0.007021974 -0.0114198625 0.11585074 0.08546805 -0.0960839 -0.11523412 -0.09334834
-0.041192226 -0.07466168 0.030880075 0.04486538 0.033307485 0.12368171 0.039920114 -0.0006976039
0.082989514 2.8639402e-05 -0.078080244 0.023496883 0.07119914 -0.06434945 0.10779748 0.059771445
0.06363258 -0.0029534423 0.02781629 -0.086183965 -0.070473045 -0.056027655 0.085181214 0.05788851
-0.048555285 -0.051115822 0.030495577 0.11103679 0.073296584 -0.08823034 -0.029067863 0.018268073
0.1114011 0.047559924 0.02124406 -0.041884404 -0.020321332 -0.0539096 -0.12210354 -0.022980107
0.023381049 -0.047408726 0.031476777 0.094572686 0.116456755 -0.124793515 -0.036472633 -0.038492028
-0.06140545 -0.07657996 -0.027940316 0.048923414 0.0003640474 0.036278423 -0.07674233 -0.006279786
-0.110105276 -0.0585659 0.10078048 0.046250835 0.07991926 0.070319995 -0.08350323 0.0925078
-0.0010928309 -0.02137007 0.10531441 0.11115714 -0.11745751 -0.019418908 0.10801742 0.004264117
-0.10727606 -0.12308961 -0.12230275 0.094597355 0.014108685 -0.08382378 0.083917335 0.115878925
0.025702426 0.043196596 0.07256592 0.09134323 0.114361055 0.033238944 0.09896839 0.057789
-0.049892005 0.10025684 -0.07140737 -0.037005775 -0.044905793 0.108671136 -0.10138281 -0.007546147
-0.01553446 0.079734035 0.12070469 -0.105832115 -0.093547836 0.06380956 0.11232234 0.09659167
0.06583879 -0.076840185 -0.0843765 -0.07865364 0.1004165 0.10821314 0.1044512 0.10918048
-0.011724285 0.06301981 -0.058710877 0.092945345 0.0991803 -0.087200604 -0.059913907 -0.011025339
-0.020900521 0.074409366 -0.06310411 -0.10745892 -0.014507044 -0.004794992 0.113838814 0.08805223
-0.10975496 -0.030204257 -0.10645786 -0.004329096 0.07924751 0.002617059 0.054307833 -0.05341789
-0.055914678 -0.057029955 0.10714281 -0.06312835 0.062383883 0.114361376 -0.10458729 -0.023145903
0.04156525 -0.025867924 -0.045165364 -0.10802508 0.10428721 -0.06893443 0.05077517 -0.024259388
00000000: 2a17 b33d 7193 9e3d f687 383c 403a 9cbc
00000010: 8b48 9dbd 70b6 e73d ec6d 7e3d 9101 aabd
00000020: 4bcc f7bd 48f9 08bd 3084 e83b 51f8 4abd
00000030: f58c f43d a831 82bd a5b3 5a3b 23af dbbd
00000040: 23a3 18bc b625 b7bb ce48 65bd 9c08 743d
00000050: 7ebc 513c eaea 50bc 421d d7bd 9ae8 223c
00000060: 8b49 b3bd 2c3b ef3d f136 a6bd 3319 fe3d
00000070: 786d 903d d118 823c 3489 803d 10d5 cdbc
00000080: 43fa 223d d2fb af3d b0c7 89bc 5d0a 863d
00000090: 6ce7 3cbc f81a dbbd d169 7c3d a9b6 173d
000000a0: 1ade cabd eef4 e7bc dc27 cd3c 2824 963c
000000b0: 076f 1d3d 1702 3ebd 8300 7f3d f38e e7bd
000000c0: 0183 483d ad19 9dbd 5dd6 453d b1e4 75bc
000000d0: b56e 93bc d6bd 9fbd eb98 d9bd 0b15 c73d
000000e0: 5d19 ce3d 1f59 b63d 726d 1abd 380b ff3d
000000f0: b602 153c 0b0b b9bd ed77 f93d 823c c43d
00000100: a7bf 95bd d0c5 61bd 04d5 703d 28d7 863d
00000110: 9ffe 2bbd 85b8 d8bd bbdd b1bd 9be3 af3d
00000120: 7131 61bd 7b67 d4bd ed57 8fbd 3c3e e03d
00000130: 20fd 163d 7655 a5bd 9a3e 5ebc 357f afbd
00000140: cfb7 a43d 497b 06bc a304 e2bd ee64 913c
00000150: ac91 5f3d 2e21 fabd 04f0 e93c 8fba 93bd
00000160: f2fd 963b e4e1 b03d 5452 a5bd 87ac 6bbd
00000170: 16b5 2a3b 23e4 e23d 08b4 9a3d 79e3 0c3d
00000180: 471e 503d 9618 e6bb 601a 3bbc 2743 ed3d
00000190: df09 af3d a3c7 c4bd deff ebbd 6a2d bfbd
000001a0: 2eb9 28bd 39e8 98bd 36f8 fc3c c3c4 373d
000001b0: 6e6d 083d d64c fd3d 4683 233d 68df 36ba
000001c0: 68f6 a93d a63e f037 89e8 9fbd 897c c03c
000001d0: dbd0 913d a5c9 83bd edc4 dc3d e7d2 743d
000001e0: cc51 823d 8a8e 41bb fdde e33c 3881 b0bd
000001f0: 2c54 90bd 417d 65bd 7d73 ae3d 811c 6d3d
00000200: e8e1 46bd d35e 51bd dcd1 f93c 4267 e33d
00000210: 851c 963d 1cb2 b4bd ba1f eebc eda6 953c
00000220: 4326 e43d 32ce 423d 0608 ae3c fb8e 2bbd
00000230: ec78 a6bc 50d0 5cbd 6c11 fabd c740 bcbc
00000240: 9d89 bf3c a72f 42bd cbed 003d 53af c13d
00000250: e180 ee3d be93 ffbd 5464 15bd d1a9 1dbd
00000260: 4884 7bbd f4d5 9cbd 17e3 e4bc eb63 483d
00000270: 9ddd be39 af98 143d 152b 9dbd aac6 cdbb
00000280: e07e e1bd cce2 6fbd ff65 ce3d 8471 3d3d
00000290: b6ac a33d ee03 903d be03 abbd bb74 bd3d
000002a0: 523d 8fba 4910 afbc 15af d73d 5ba6 e33d
000002b0: 908d f0bd 6714 9fbc 3d38 dd3d 02ba 8b3b
000002c0: 8db3 dbbd 6816 fcbd dd79 fabd 42bc c13d
000002d0: 1d28 673c cdab abbd dadc ab3d ee51 ed3d
000002e0: e58d d23c eaee 303d 719d 943d 2912 bb3d
000002f0: 2136 ea3d 8f25 083d f0af ca3d 29b4 6c3d
00000300: 8f5b 4cbd 7553 cd3d 073e 92bd 5e93 17bd
00000310: 23ef 37bd f98e de3d caa1 cfbd ab45 f7bb
00000320: 3f84 7ebc 994b a33d 0534 f73d 82be d8bd
00000330: 0296 bfbd 96ae 823d 4109 e63d dad1 c53d
00000340: 7dd6 863d 635e 9dbd 96cd acbd 2915 a1bd
00000350: 2aa7 cd3d da9e dd3d 83ea d53d 049a df3d
00000360: 3717 40bc 8810 813d d17a 70bd 215a be3d
00000370: 0b1f cb3d 3b96 b2bd 4968 75bd a0a3 34bc
00000380: 9237 abbc f063 983d ba3c 81bd 6c13 dcbd
00000390: f4ae 6dbc 4f1f 9dbb 5324 e93d ba54 b43d
000003a0: 35c7 e0bd eb6e f7bc 9406 dabd 17db 8dbb
000003b0: 854c a23d f782 2b3b e471 5e3d b8cc 5abd
000003c0: ca06 65bd 3e98 69bd b16d db3d 7049 81bd
000003d0: 3e86 7f3d 4c36 ea3d dc31 d6bd 7a9c bdbc
000003e0: 5340 2a3d f8e8 d3bc 51ff 38bd 413c ddbd
000003f0: 8894 d53d 7f2d 8dbd a0f9 4f3d a0bb c6bc
