model_fmri_pre_20_ep_actualscheduler_2022-10-27T22:42:40.345354/best_metric.pth (torch, 561209 bytes, 32 tensors)

cnn.conv_layer.0.conv.weight f4 [8, 1, 2, 2, 2]
000000 e8 29 24 be e2 7a f9 3d 82 95 5c 3e e9 4e b1 be
       -0.16031611 0.12181641 0.21541408 -0.34630516
000010 29 da 9b 3e ff 49 60 be 0a 0c 18 bd 3d 28 3c bd
       0.3043988 -0.21903227 -0.037120856 -0.04593681
000020 21 ac 37 3e 75 97 9d be c2 24 f9 bd 5e b5 9e be
       0.17936756 -0.30779615 -0.12165214 -0.30997747
000030 df f3 f3 3b d7 34 65 be 63 24 21 3e 11 b1 10 bd
       0.007444843 -0.22383438 0.15736537 -0.035325114
000040 6f 17 d5 3d 5e 3d 36 be 7d 6c b4 3e 29 ce 98 be
       0.1040486 -0.17796847 0.3523902 -0.29844788
000050 62 63 75 3e 8f 30 d7 bc cc 47 17 3e ed 57 8d 3d
       0.23963693 -0.026268272 0.14773482 0.06901536
000060 cd ad 20 be 1e f8 4e be 7c 6a 83 be 6b c5 47 be
       -0.156913 -0.20211837 -0.2566718 -0.19508903
000070 5e 07 71 be d6 33 b0 3e 82 97 c0 bd 3e a3 9a be
       -0.23537967 0.34414548 -0.09403898 -0.3020267
000080 e8 05 23 be 5a 7a 95 3e b7 75 b2 3e 4c 18 8a 3e
       -0.15920222 0.2919491 0.34855434 0.26971662
000090 92 9e 7c be 84 ac 67 be 5e 17 b3 be fa 82 fe 3d
       -0.24669865 -0.22624403 -0.34978765 0.124273255
0000a0 fd 10 1b be de b1 9c 3e c7 1b 21 3e 31 16 53 bc
       -0.151432 0.30604452 0.15733252 -0.012883709
0000b0 83 5b fc bc b0 68 49 bd f6 56 94 be 70 86 58 3d
       -0.030805355 -0.049172103 -0.28972596 0.052862585
0000c0 d0 34 93 be cd 54 52 be eb 4b 95 be e7 81 09 be
       -0.2875123 -0.20540161 -0.29159483 -0.1342846
0000d0 4b 33 f1 bd 84 91 77 3e 2b cd 30 bd f6 ab 8d 3e
       -0.117773615 0.24176604 -0.043164413 0.27670258
0000e0 7b 4e 93 3e c2 39 bb 3d ce 14 a2 3e f4 71 e3 bd
       0.28770813 0.09141876 0.31656498 -0.11105719
0000f0 d1 be 9e 3a 7f c7 64 be 47 2b 13 be 11 7a 09 bd
       0.0012111311 -0.22341727 -0.14371978 -0.033563677

cnn.conv_layer.0.conv.bias f4 [8]
000000 bc d9 37 3e 52 5e 10 3e b4 7c 9d be 62 fe 80 3d
       0.17954153 0.1409848 -0.30759203 0.0629852
000010 10 a1 31 3d 8e a4 64 3e f1 6f 8e 3e 5a d5 6a 3e
       0.04336649 0.22328398 0.2781978 0.2293295

cnn.conv_layer.0.adn.N.weight f4 [8]
000000 96 11 80 3f ef 16 80 3f d7 15 80 3f ff 0f 80 3f
       1.0005367 1.0006999 1.0006665 1.0004882
000010 3c c8 7f 3f 6a 14 80 3f 5b f6 7f 3f 08 d9 7f 3f
       0.9991491 1.000623 0.99985284 0.9994054

cnn.conv_layer.0.adn.N.bias f4 [8]
000000 71 79 b3 39 53 3b 16 3a ca 09 4f b6 a8 18 3b 3a
       0.0003423202 0.0005730886 -3.0851102e-06 0.0007137158
000010 60 7c 37 ba 8c 32 20 3a 52 64 c2 b9 e6 56 1e ba
       -0.00069994293 0.00061110477 -0.00037077308 -0.00060401706

cnn.conv_layer.0.adn.N.running_mean f4 [8]
000000 a8 51 13 3e 78 9d ef 3d b2 5b 7d be 45 f0 6e 3d
       0.14386618 0.11699957 -0.2474201 0.058334608
000010 04 36 0b 3d e2 c2 35 3e 05 a7 66 3e e3 0e 39 3e
       0.03398706 0.17750123 0.2252465 0.18072085

cnn.conv_layer.0.adn.N.running_var f4 [8]
000000 cd 12 6f 3e da 29 f5 3e bd f4 a8 3e e6 3d 6d 3f
       0.23347016 0.47883493 0.3299922 0.92672575
000010 e7 d4 89 3e 0f da 60 3e 3f 75 df 3e 1c ef 81 3e
       0.26920244 0.21958183 0.4364414 0.25377738

cnn.conv_layer.1.conv.weight f4 [16, 8, 2, 2, 2]
000000 ff 41 79 bd 44 0c ef 3d 60 66 b0 3d 0d 8b d6 bc
       -0.060853954 0.11672261 0.086132765 -0.026189351
000010 7d 9e 25 bc 5e fa d6 3d dd ac ef bd 03 a5 67 bb
       -0.010108587 0.104969725 -0.11702893 -0.0035346157
000020 26 52 91 3d b3 22 e0 bd 4b 91 c6 3d 86 70 17 3b
       0.07095747 -0.10944118 0.09695681 0.002310784
000030 a6 b5 ee 3d 93 1a 5a 3d b0 57 47 3d 22 b8 be 3d
       0.116557404 0.053248 0.04866761 0.09312464
000040 9c 36 2e 3d 44 6e cf bd aa 87 4c 3d 7c fd 0f bd
       0.04253255 -0.101284534 0.049934067 -0.03515385
000050 1c 44 95 3d ab 2d aa 3c 90 0b b2 bd c1 03 e1 3d
       0.072883815 0.02077373 -0.086936116 0.10987044
000060 0a c7 16 3d 90 10 9c 3d 4c 58 9a bd 4f 76 b6 3d
       0.036810912 0.076203465 -0.075363725 0.08909284
000070 cf 93 d8 3d f9 e2 07 3d 06 69 e4 bd 47 9e 79 bd
       0.10575067 0.033175442 -0.11152844 -0.06094196
000080 3a 5b 52 3c 92 2e 18 3d 59 1d e8 3d aa 73 61 3d
       0.012839133 0.037153788 0.113337226 0.055041946
000090 ac e9 94 bd 3e 27 20 bd f3 33 8c bc a0 2d cb 3b
       -0.07271132 -0.039099924 -0.017114615 0.0062005073
0000a0 7a af 59 bd 72 0f 56 3d 0d d9 c3 3b 5b b0 a4 3d
       -0.053145863 0.052260824 0.005976802 0.0804145
0000b0 bd b1 8e 3d 70 68 cb 3c 7e ba 5c bd 04 e2 c8 3c
       0.06967495 0.024830073 -0.05388879 0.024521835
0000c0 f5 c7 72 3c 70 d6 a0 3d c0 57 ff 3d b3 75 b2 bd
       0.014818181 0.07853401 0.12467909 -0.087138556
0000d0 2a 05 e7 bc 98 0d fe bd 3b 3b 27 bd 5e e9 63 bd
       -0.028200705 -0.124049366 -0.04082797 -0.05564248
0000e0 76 0e e6 bd 0c 7d 89 3d 6b 71 1b bd a4 6f aa 3c
       -0.11233227 0.06713304 -0.03794996 0.020805188
0000f0 74 c9 a6 3b 6d 9b a5 3d fb fd 1a 3d 17 c8 ff bd
       0.005089933 0.08086286 0.03783987 -0.12489336
000100 9c 5f 86 3d 21 f4 40 3c 1e 46 92 3c 3f 6e 26 3d
       0.06561205 0.011776955 0.0178557 0.040632483
000110 e9 a4 9b bd 96 bc ca 3d 3a eb ee 3d 8a 1d be 3d
       -0.075998135 0.09899251 0.1166596 0.09282978
000120 16 4c f5 3d 42 1d fa bd bf 37 ae 3d e7 79 07 bd
       0.11977403 -0.12212612 0.085067265 -0.03307524
000130 56 35 3a 3c cf 6c b1 bc 0f a5 2d 3d c1 71 96 bd
       0.011365255 -0.02165833 0.04239374 -0.073459156
000140 ad 51 2a 3d 89 c6 db 3d 41 7d 4e 3d 5a 78 c6 3d
       0.0415818 0.10731227 0.05041242 0.09690924
000150 a3 d6 46 bd 92 7c 01 3d 78 e8 02 bd c0 2e c5 bd
       -0.048544537 0.03161294 -0.03195998 -0.096280575
000160 e7 c3 83 3c 7d e6 a2 bd f8 dc e6 bc 5d 9b 80 3d
       0.016084624 -0.079541184 -0.028181538 0.06279633
000170 ef 38 8c 3d 03 d5 57 3d b1 ad e5 bc eb 4c dc bc
       0.06846797 0.05269338 -0.028036924 -0.026892146
000180 e2 26 00 bd 16 e9 a6 3d d4 05 36 3d f5 cf 04 3c
       -0.03128708 0.08149926 0.044439152 0.008106221
000190 b7 a2 00 3d b1 58 9c 3d 29 e5 68 3d e3 52 92 bd
       0.031405177 0.07634104 0.05685917 -0.07144716
0001a0 bb 92 94 3d 42 19 8d bd 8e cf b1 bd d3 1f 84 3a
       0.07254549 -0.06889583 -0.08682166 0.0010080285
0001b0 b3 b4 bd 3d b5 5b cb bd e2 6f d3 bd cb 9c dd 3a
       0.09262981 -0.09929601 -0.10324074 0.001690769
0001c0 de c0 19 bd 52 ae 97 3c 45 09 f1 3d a4 4c aa bd
       -0.037537448 0.01851574 0.11769346 -0.08315399
0001d0 62 2c e9 bc 76 3d b9 bd ad cf 58 bd 33 f6 5d 3d
       -0.028463546 -0.09044926 -0.05293243 0.054189872
0001e0 22 c2 b5 3d c4 04 86 3c 1e 11 8e 3d ab 13 5b 3d
       0.088749185 0.016359694 0.069368586 0.053485554
0001f0 73 88 f8 bd b6 fc ef bd 57 f0 57 bd bd 43 81 3d
       -0.121354006 -0.11718123 -0.05271944 0.06311748
000200 ef cd 85 bd de 3d ec bd 22 0c d3 3d c9 12 94 bd
       -0.06533419 -0.11535238 0.103050485 -0.072301455
000210 16 24 66 bd c3 7d 6c 3d 3f a9 c6 bd 48 59 6d 3d
       -0.056186758 0.057737123 -0.0970025 0.057946473
000220 df 97 d0 bd c9 ef 36 bb ec dd bd 3d 53 5a c4 bd
       -0.10185217 -0.002791392 0.09270844 -0.095875405
000230 b2 7a 19 3d 63 35 e4 bd 53 a6 83 bd 8f 8d 09 3d
       0.037470527 -0.11142995 -0.06428208 0.033582266
000240 51 02 6c bd 5e 1b 80 3b 18 18 9d 3d 5f d5 29 b8
       -0.057619397 0.0039095124 0.07670611 -4.0491457e-05
000250 83 a0 ed 3d 53 cf da 3d f3 a5 f6 bb 85 fc 91 bd
       0.11602881 0.10684075 -0.007527107 -0.071282424
000260 72 55 92 3d d2 05 e5 bd 51 a1 26 3d 54 3e f7 bc
       0.07145204 -0.11182751 0.040681187 -0.030181088
000270 15 62 8d bd 97 07 f2 bd e6 c7 ef 3d 51 0f c2 bd
       -0.06903473 -0.11817854 0.117080495 -0.094755776
000280 d6 b4 cc bd d4 b1 d1 3d 3c b5 be 3d 15 1f 8a 3d
       -0.09995429 0.10238996 0.093119115 0.0674421
000290 31 77 36 bc b2 39 e3 bd 61 df a4 3d b7 81 d4 3b
       -0.011136816 -0.11094989 0.08050419 0.00648519
0002a0 e7 03 8b 3d d0 1a 85 3d e5 2a be 3d aa b5 bc bd
       0.06787854 0.06499255 0.09285525 -0.09214337
0002b0 9c 50 40 3d 16 76 d7 bd 50 86 31 bd 50 ba 98 3d
       0.046951875 -0.1052057 -0.04334098 0.07457411
0002c0 f8 91 67 3d ca 72 fc 3d 8b af 9f 3d ab 88 52 3d
       0.05653569 0.12326582 0.07797154 0.051399868
0002d0 28 f6 8f 3d 7e 2b 8f 3d 7a 51 c3 3d a3 20 fd bb
       0.070293725 0.06990717 0.09537025 -0.007724838
0002e0 db e2 aa 3b 22 e0 ad bc a9 06 6f 3d 65 f8 f6 3d
       0.0052150316 -0.021225039 0.05835596 0.12059096
0002f0 d2 f0 be bd ac d7 bb bd 3c 5c df 3d be 14 e1 3b
       -0.093232766 -0.091719955 0.10906264 0.0068689277
000300 d1 33 df bd 08 d5 dd 3d 5f 11 cf 3c d7 41 9b 3c
       -0.10898555 0.10831648 0.025276838 0.018952293
000310 d5 92 b8 3d cb 58 fc bd 39 c1 e6 3d 56 c3 bd bc
       0.09012381 -0.123216234 0.11267323 -0.023164432
000320 56 be 01 3d 1a 51 7f bd a8 cd cf 3d 83 8e 2a bd
       0.03167566 -0.062333204 0.10146648 -0.041639816
000330 a8 33 75 3c dc 0d 33 3a ef 01 7b 3b 45 07 d7 bd
       0.014965929 0.00068303733 0.0038300713 -0.104994334
000340 d4 d8 90 3d c6 96 f7 bd 2b 19 f0 bd 16 7b ed 3d
       0.07072607 -0.120893046 -0.117235504 0.115957424
000350 a2 bc a8 3c 9e cc 70 bc c5 8f 80 3d b7 34 d4 3d
       0.02059776 -0.014697222 0.06277422 0.10361617
000360 7a bd 93 bd bd eb b2 bc e2 68 98 bc 51 ba d0 bd
       -0.07213874 -0.021840924 -0.0186047 -0.10191787
000370 db b3 2e 3d b2 f2 78 3c f6 03 fa bd f6 58 c8 3d
       0.042651992 0.015194582 -0.12207787 0.09782593
000380 0b 53 46 3d a9 5a 89 bc cc 0f d3 3c a0 28 d3 3d
       0.04841904 -0.016766863 0.025764368 0.10310483
000390 ad 1f d4 3c 34 71 05 bd 08 8c 90 bd d6 70 c4 bd
       0.02589401 -0.032578662 -0.07057959 -0.09591834
0003a0 79 e4 df bc f4 94 cf bc 7c 9c 05 bc 22 24 d4 3d
       -0.027330624 -0.025339581 -0.008154985 0.10358454
0003b0 10 d4 ba bc 13 c3 5e bd 51 72 37 3d 84 e0 e1 3d
       -0.022806197 -0.054385256 0.044786755 0.11029151
0003c0 eb 3f d2 bd bc 7d a6 3d 43 1e f8 3d c4 a8 14 bd
       -0.10266098 0.08129451 0.12115147 -0.03629376
0003d0 4c 63 db 3a de 18 76 3b 8a 94 8f 3d 30 a0 fe 3d
       0.0016737967 0.0037551443 0.070107535 0.12432897
0003e0 79 7b d7 3d 4b 09 94 3d 19 e8 fc 3c ae 64 29 bd
       0.105215974 0.07228335 0.030872392 -0.04135578
0003f0 0c b5 6d 3d 3f 5a 8f bc 26 09 55 bd 3b 26 2d 3d
       0.058033988 -0.017499087 -0.052010678 0.042272788

cnn.conv_layer.1.conv.bias f4 [16]
000000 80 93 f5 3d 14 ca dc bd 23 ac c5 bd fe 5e 8e bd
       0.11991024 -0.10780731 -0.09651973 -0.06951712
000010 57 69 9f 3d 9e 88 ee bb 81 7e a5 3d ba 81 94 3b
       0.07783764 -0.0072794696 0.08080769 0.004532066
000020 a1 82 1f bb 5b bf c8 bd 19 25 75 bd 16 1b a9 3c
       -0.0024339336 -0.09802123 -0.059849832 0.020642798
000030 3c b1 45 bd 29 32 7d 3d f8 4f e6 3d 6c 2f bb bd
       -0.048264727 0.061815415 0.112457216 -0.091399044

cnn.conv_layer.1.adn.N.weight f4 [16]
000000 6c f8 7f 3f 18 0d 80 3f 08 12 80 3f ca f7 7f 3f
       0.99988437 1.0003996 1.0005503 0.9998747
000010 cb c3 7f 3f a8 e0 7f 3f c5 df 7f 3f f5 fe 7f 3f
       0.9990813 0.99952173 0.9995082 0.9999841
000020 18 17 80 3f f7 11 80 3f a1 d7 7f 3f e1 dd 7f 3f
       1.0007048 1.0005482 0.999384 0.99947935
000030 fb e7 7f 3f d8 0f 80 3f 04 12 80 3f 0a 15 80 3f
       0.9996335 1.0004835 1.0005498 1.0006421

cnn.conv_layer.1.adn.N.bias f4 [16]
000000 a9 5f 47 39 f5 a5 4d b9 3d 90 01 3a a9 fd e1 b8
       0.00019013755 -0.00019612147 0.00049424527 -0.00010776084
000010 77 b0 45 ba bf ec c2 39 44 da 16 ba 3a f2 c9 39
       -0.0007541249 0.00037178953 -0.000575457 0.0003851818
000020 00 0b 34 3a 97 e2 b8 b9 6e 62 ec 39 db e7 33 ba
       0.0006868094 -0.00035264037 0.00045086764 -0.0006862857
000030 89 c1 04 ba fe bd 64 39 d1 e6 32 39 f5 0c 0b b8
       -0.00050642394 0.00021814552 0.00017061389 -3.315225e-05

cnn.conv_layer.1.adn.N.running_mean f4 [16]
000000 d9 a5 a4 3e 32 79 c0 3d 4c f0 b4 3d d6 ad 28 3e
       0.32157782 0.09398116 0.088348955 0.16472563
000010 01 45 18 3e 0e d0 e7 bd 09 19 a9 be ba ad ac 3d
       0.14870073 -0.1131898 -0.33026913 0.08431573
000020 fb e5 e2 bd ca d2 23 be 69 c1 35 3e df 30 59 3e
       -0.110790215 -0.15998378 0.17749561 0.21210049
000030 c2 cc 54 bd a2 22 20 3d 3d b6 c2 3d 8d a1 3b bd
       -0.051953085 0.03909553 0.095074154 -0.045808364

cnn.conv_layer.1.adn.N.running_var f4 [16]
000000 df 5c 86 3e 70 66 97 3e a3 a9 bf 3e ae 62 a2 3e
       0.2624273 0.2957034 0.3743411 0.31715912
000010 fa 0d 95 3e d3 36 ae 3e 74 d1 bf 3e ee 88 8f 3e
       0.29112226 0.34026203 0.37464488 0.28034157
000020 52 c5 97 3e 55 0f bc 3e 50 13 f1 3e 2c 80 af 3e
       0.2964273 0.36730447 0.47085047 0.34277475
000030 03 ad fc 3e 9b 7e 8b 3e 4b 6d 7d 3e 94 79 00 3f
       0.49350747 0.2724503 0.24748723 0.50185513

cnn.conv_layer.2.conv.weight f4 [32, 16, 2, 2, 2]
000000 12 ff 4a bd 30 29 c2 3c ec 62 a5 bd 87 9d ad bd
       -0.04955966 0.02370128 -0.080755085 -0.084773116
000010 67 cb ad 3d 71 bf ca bc 31 f9 c3 3b 4b 53 3d 3d
       0.084860615 -0.02474949 0.0059806337 0.046222012
000020 34 f0 49 3d 9c 13 5e bd 0f 5c d1 3b 7d b2 98 3d
       0.04930134 -0.05421792 0.006389148 0.07455919
000030 b2 c6 67 bb d3 2e a7 3c f4 49 93 bd 9b 57 bd bc
       -0.0035366234 0.02040807 -0.0719184 -0.023113063
000040 b4 5c 8f bd b2 a6 90 3d 4c 3c 6e 3d ba 6c 5a bd
       -0.070001036 0.070630446 0.058162972 -0.053326346
000050 eb 6d 20 bd db ea 6f 3d 6f 1b 83 3d 26 3f 21 bd
       -0.039167326 0.058573585 0.06401717 -0.039366864
000060 e1 0f 87 3d 4d 27 99 3c a4 f8 99 bd d7 aa a7 3d
       0.065948255 0.018695498 -0.075181276 0.08186882
000070 7c 39 3b 3d 28 0b 74 bc 9c 98 72 bd 39 bc 93 3d
       0.04570912 -0.014895238 -0.05922757 0.07213635
000080 26 cc ae bd a8 1b 75 bd 19 66 68 bd 88 39 87 bd
       -0.08535032 -0.05984083 -0.056737993 -0.0660277
000090 bc fe ad bd a5 c9 15 3d 66 d8 39 bd c5 21 86 3d
       -0.08495852 0.036569256 -0.04537239 0.0654941
0000a0 71 97 54 3d 34 3e ae 3d c6 24 97 bb 1f 49 93 bd
       0.05190224 0.08507958 -0.004612538 -0.07191681
0000b0 26 01 a5 bc 4c 00 39 3d 18 88 6d 3a 6f af 04 bd
       -0.02014215 0.0451663 0.0009061112 -0.03239387
0000c0 de da f2 bc 18 e5 5d ba 7a 26 9b bd b5 e9 77 bb
       -0.02964538 -0.00084646186 -0.07575698 -0.003782851
0000d0 b2 59 ce bc 86 31 7c 3d 86 e6 46 3b 01 26 01 bd
       -0.025189254 0.061570667 0.0030349805 -0.031530384
0000e0 6e ef 8c bd 06 18 b1 3d 55 0c ad 3d aa e3 67 3d
       -0.06881605 0.0864716 0.08449618 0.0566136
0000f0 72 f7 96 bd ea 21 09 3d fd f1 54 3d e6 d2 5f bd
       -0.07371415 0.03347961 0.05198859 -0.054644488
000100 b2 95 93 3d 38 3d 2a 3d ae 85 50 bd 07 75 e9 bc
       0.072062865 0.04156229 -0.050908737 -0.028498186
000110 65 45 94 3c fb 34 ab 3d 73 c8 18 bd 32 2d 8a 3d
       0.018099496 0.083597146 -0.03730054 0.067469016
000120 14 a2 39 bd 16 8f 7e bc a4 d2 6c 3d 68 8f a3 bc
       -0.045320585 -0.015537044 0.05781807 -0.019965842
000130 26 82 86 bd ab 7e 48 3d a4 78 97 3d 39 7b 7a bd
       -0.065677926 0.048948925 0.07396057 -0.06115267
000140 30 ce 55 bd b1 c2 c8 bc 3d 35 b1 bd 7e af 20 3d
       -0.05219859 -0.024506899 -0.086527325 0.039229862
000150 0d 3e 8e 3b 3c 8a 24 bd d4 6f fb bb ea 79 8d 3d
       0.004340893 -0.040170893 -0.007673243 0.06908019
000160 53 10 a9 bb a2 28 a2 3d 95 03 ab 3d c8 74 01 3d
       -0.0051594167 0.07917906 0.083502926 0.031605512
000170 f7 2e 1f 3d a1 7f a6 3b 2d e0 16 3d 67 e3 97 3d
       0.03886315 0.0050811325 0.036834884 0.074164204
000180 3f 80 b0 3d e5 7e 9d bd 97 cc 54 3d 10 b6 a6 bc
       0.08618211 -0.07690219 0.051952925 -0.020350486
000190 f7 71 59 3d e5 36 3d bd c3 12 a2 3d 6e 74 5f 3d
       0.0530872 -0.04619493 0.07913735 0.054554395
0001a0 b6 26 e1 bc 82 8b c6 3a d4 f4 f3 bc a3 f0 e3 bc
       -0.02748428 0.0015147778 -0.02977983 -0.027824705
0001b0 0b cc 47 3a 50 3b 28 3d ce ea 36 3d 07 f5 11 ba
       0.00076216523 0.04107219 0.04465752 -0.0005567823
0001c0 30 c0 13 3d 74 43 86 3d 46 e5 8d bd 24 51 8f bc
       0.036071956 0.065558344 -0.06928496 -0.017494746
0001d0 0e 15 25 bd 08 4f ce ba de d9 6b 3d a1 5e 23 bd
       -0.040303282 -0.0015740106 0.05758082 -0.039885167
0001e0 96 1f be 3c 86 c7 a7 3d 96 b5 a2 bd ba 84 9e bd
       0.02320842 0.08192353 -0.07944791 -0.07740159
0001f0 c3 a1 9e bd 8a 2f 89 3d a4 67 ad bd 2d 0f 0c 3d
       -0.07745697 0.066985205 -0.084670335 0.03419416
000200 24 f9 ae bd ab b5 a5 3d 25 e2 f3 bb 79 30 9c 3d
       -0.085436136 0.08091291 -0.00744273 0.07626433
000210 fd ce 67 3d 6d 2a e5 bc e0 49 da bc 2e 92 93 3d
       0.056593884 -0.027974332 -0.026646554 0.07205616
000220 5b ed 83 3d c2 30 b5 bd 5d ca 88 bc a9 56 a7 3d
       0.06441756 -0.088471904 -0.016698057 0.08170826
000230 70 c8 5c 3d 64 11 41 bd 8d bd 90 3d d5 af 8c bc
       0.05390209 -0.047135726 0.07067404 -0.017173687
000240 0b 68 11 bd 7c a0 7c 3d bc 64 e7 bc f4 25 df bc
       -0.035499614 0.061676487 -0.028246276 -0.027239777
000250 a5 f9 22 3c fc 61 66 3d 2d ca 99 3d df be 9f bd
       0.009947215 0.05624579 0.07509265 -0.07800078
000260 dc 30 9a bd 6b 8f 5d bd 4c cd 66 bd 98 6a 76 bd
       -0.075288504 -0.054091852 -0.05634813 -0.06016025
000270 e5 97 3e 3d 3d 85 92 3d ad 24 a2 bd 09 a2 93 3d
       0.046531577 0.071543194 -0.079171516 0.0720864
000280 91 7e 89 3d 11 ed 83 bd 10 5f a8 bd 0c f5 1d bd
       0.06713594 -0.06441701 -0.08221257 -0.038563773
000290 d0 e5 98 bd 7e 52 04 3d b1 e6 b7 bc ed 60 3e bd
       -0.07465708 0.032305233 -0.02244887 -0.046479154
0002a0 e0 5d 20 3d 0f 21 24 3c 31 f4 15 bd 63 36 5f bd
       0.039152026 0.010017647 -0.036609832 -0.054495227
0002b0 0e db 7d 3d a8 8f 01 3d d1 40 df 3c f8 d8 97 bb
       0.061976485 0.031631142 0.027252587 -0.004634019
0002c0 e9 48 b0 bd bc 90 80 bd f9 8d c0 bc 83 85 8f bd
       -0.086076565 -0.06277606 -0.023505198 -0.07007887
0002d0 87 36 2b bd 3d 39 bd bb b7 83 8f bd af 7a a7 3d
       -0.04180005 -0.0057746456 -0.070075445 0.08177697
0002e0 e1 a7 92 3b de 64 c1 bc 97 e6 02 3d 11 81 99 3c
       0.004475579 -0.023607668 0.03195819 0.018738301
0002f0 bf e4 9c 3d 57 f1 1a bd f9 23 92 bd fb dd 5b bd
       0.07660817 -0.037827816 -0.071357675 -0.053678494
000300 37 0b 39 3d 27 c0 ac 3d ac bb a1 3d 61 ee 2d bd
       0.04517671 0.08435088 0.07897124 -0.042463664
000310 ad 7e e9 3a 99 19 a8 3d fb 2c 35 bc af 76 d7 bb
       0.0017814242 0.08208007 -0.011058087 -0.0065754275
000320 37 60 61 bd 2b 2a c4 3c cf 86 cf ba 14 6d 95 3d
       -0.0550234 0.023945889 -0.0015833023 0.072961956
000330 d8 5a 25 bd 98 cd a9 bc 47 44 03 3d 05 2f 83 bd
       -0.04036984 -0.020727918 0.032047536 -0.06405453
000340 7d 5d 94 bd 42 9e b2 bd a1 bc dc 3c 14 74 a7 bd
       -0.07244394 -0.087215915 0.026945414 -0.08176437
000350 62 a4 66 bd b1 8a f4 3b 49 c5 ab bd c1 40 97 bd
       -0.05630911 0.0074628224 -0.083872385 -0.07385398
000360 93 90 86 3d 33 fb b5 bd b5 9c 25 bd 45 5f 34 bd
       0.06570544 -0.08885803 -0.04043265 -0.04403617
000370 9f cf 05 bd 2d 04 0d 3d be 1e 38 bd 1c 05 95 bd
       -0.032668706 0.03442781 -0.044951193 -0.07276365
000380 ff 9d 12 bd 8e 4a 26 3c fa 31 9d bb ef c5 24 bd
       -0.035795208 0.010149611 -0.0047972174 -0.040227827
000390 91 a9 fe bc 0a 7e 38 bc 28 bb 92 3c 29 0b a4 bd
       -0.031086715 -0.011260519 0.017911509 -0.08009941
0003a0 04 4f 24 3d 50 53 af bc 5e 83 59 bd f6 14 76 3d
       0.040114418 -0.021402031 -0.053103797 0.060078584
0003b0 7e 19 27 bc 2b 2a 2b bd 18 ff 15 bc 92 e4 46 bd
       -0.010198949 -0.04178826 -0.009155057 -0.048557825
0003c0 2f d5 31 bd d9 5d db 3c b8 3f 0c bc 64 79 32 bd
       -0.0434162 0.026778148 -0.008560114 -0.0435728
0003d0 51 2a 7b bd c9 57 4c bd 90 21 34 3d 55 8b 5e bd
       -0.061319653 -0.049888406 0.04397732 -0.054332096
0003e0 9f 08 31 3d 9b 3f fd 39 8d 02 50 3b 96 64 3f bd
       0.043221112 0.0004830331 0.0031739802 -0.046726786
0003f0 bd e5 e9 3c 8e 0e 3d bd 4a f5 11 bd 78 d0 93 bd
       0.02855193 -0.04615646 -0.035634317 -0.07217497

cnn.conv_layer.2.conv.bias f4 [32]
000000 d1 53 ac 3b d3 67 39 bd 01 5f 94 bd 90 28 98 3c
       0.005259015 -0.04526503 -0.07244683 0.01857403
000010 12 be 50 bd 89 a9 1e bd 54 5f 82 3d 41 e0 9f bb
       -0.050962515 -0.0387359 0.06365839 -0.004879028
000020 1e 6f 73 3d 1c a0 d3 ba 1f 3f 30 bd ab 2d 70 bd
       0.05943214 -0.0016145739 -0.043028947 -0.058637302
000030 0c f3 09 bd d4 46 1c 3d 09 0e ad bd cc cc 70 bc
       -0.033679053 0.038153484 -0.084499426 -0.014697265
000040 25 d8 be bc da 7e 6a 3d 67 13 1f 3d 6b cf 44 bd
       -0.023296425 0.05724988 0.038836863 -0.04804937
000050 39 00 ad bd 92 08 eb 3c 4c 48 1a 3d 02 ba 3e bd
       -0.08447308 0.02869061 0.037666604 -0.04656411
000060 77 f4 9d 3b 8e 94 ab 3d b7 d1 06 3d 7a a6 95 3d
       0.0048204022 0.08377944 0.032914843 0.073071435
000070 f6 d8 30 bd 4c a8 25 3d 05 cb d2 3c 6d 51 b1 3d
       -0.04317566 0.040443704 0.025731573 0.08658109

cnn.conv_layer.2.adn.N.weight f4 [32]
000000 04 02 80 3f bf df 7f 3f 4e cf 7f 3f 93 d5 7f 3f
       1.0000615 0.99950784 0.99925697 0.99935263
000010 cc de 7f 3f dc f5 7f 3f b1 17 80 3f 0d 0f 80 3f
       0.99949336 0.99984527 1.000723 1.0004593
000020 4c e8 7f 3f db 16 80 3f 3c e5 7f 3f 35 0d 80 3f
       0.9996383 1.0006975 0.9995916 1.000403
000030 c5 cd 7f 3f 43 09 80 3f 11 01 80 3f 93 de 7f 3f
       0.99923354 1.0002826 1.0000325 0.99948996
000040 23 10 80 3f 17 0e 80 3f de 0b 80 3f b8 e9 7f 3f
       1.0004925 1.00043 1.0003622 0.99966
000050 bc e4 7f 3f 72 16 80 3f d1 17 80 3f 3d 18 80 3f
       0.99958396 1.000685 1.0007268 1.0007397
000060 25 11 80 3f 65 fe 7f 3f ca 02 80 3f 3a 00 80 3f
       1.0005232 0.9999755 1.0000851 1.0000069
000070 0f e0 7f 3f 35 15 80 3f 2e e3 7f 3f ee d2 7f 3f
       0.9995126 1.0006472 0.99956024 0.9993123

cnn.conv_layer.2.adn.N.bias f4 [32]
000000 10 29 81 39 e5 01 0c b9 ef e3 91 37 8f f1 37 ba
       0.0002463539 -0.00013352146 1.7391487e-05 -0.0007016891
000010 0d 7f be 39 0a 18 c3 b9 83 8a 30 3a 84 ba 02 3a
       0.00036334284 -0.0003721121 0.0006734507 0.00049868994
000020 6c fe 90 38 a2 84 e0 37 55 5e ae b9 23 b6 fc 39
       6.913845e-05 2.6764643e-05 -0.0003325815 0.00048200888
000030 ad 01 d6 b9 99 ca 80 38 b2 bb 01 3a 27 63 09 3a
       -0.0004081851 6.1412524e-05 0.0004948928 0.000524091
000040 d5 cf ed b9 04 4a 4f b9 2a b9 b2 39 01 94 35 38
       -0.0004535901 -0.00019768631 0.00034088764 4.3291602e-05
000050 19 9f 97 b9 2b 12 06 3a 18 42 b2 39 eb b9 bd 39
       -0.000289195 0.00051144016 0.0003400005 0.0003618741
000060 d6 6a 31 3a cc e6 56 38 c9 35 a7 39 80 20 a8 b8
       0.0006767934 5.1236522e-05 0.00031892795 -8.016918e-05
000070 36 94 f4 b9 c1 c7 b6 b9 2b d9 56 b9 05 5e 1a b9
       -0.00046649732 -0.00034862573 -0.00020489532 -0.0001472161

cnn.conv_layer.2.adn.N.running_mean f4 [32]
000000 22 75 1d 3e 70 c0 21 bf af 5e 89 be fe b6 c9 bc
       0.15376714 -0.6318426 -0.2683005 -0.02462339
000010 84 9c 28 3e 11 05 7d 3e 8d 9b 27 be a2 9f 8d 3e
       0.16465956 0.24708964 -0.16367932 0.27660853
000020 8c 1c 06 3e 5e 80 a5 bd ee f9 75 3b 8c 7c 92 bc
       0.13096827 -0.08081125 0.0037533003 -0.017881654
000030 69 03 5f 3e 15 c8 eb 3e a2 2a 2b 3c c4 85 c5 bc
       0.21778645 0.46051088 0.010447176 -0.024111636
000040 19 cc 54 3e 5f f6 f4 3e 1f 11 86 be 76 74 cc be
       0.20780982 0.47844216 -0.26184937 -0.39932603
000050 7c 06 af 3e c6 13 7c 3e 7f 3d 6a 3e 1e 47 9b 3d
       0.34184635 0.24616918 0.22875021 0.07581924
000060 c3 b2 82 3e 8b 3e 6c bc 96 71 a6 be a4 90 d7 bb
       0.2552701 -0.014419208 -0.32508534 -0.006578522
000070 67 1e c0 be cc 66 de bc 1a 4d 07 3e c3 75 99 3e
       -0.37523195 -0.027148627 0.13213006 0.29972658

cnn.conv_layer.2.adn.N.running_var f4 [32]
000000 67 5b e3 3e 7b f9 8d 3f 22 64 cf 3e f1 73 e8 3e
       0.44405672 1.109176 0.40506083 0.45400956
000010 e2 0c d3 3e 9c 41 08 3f 2c af f9 3e c0 2b 49 3f
       0.41220766 0.5322511 0.48766458 0.7858238
000020 2d 7e b8 3e 49 21 f8 3e ed 30 9d 3e 7f 8b bb 3e
       0.36033764 0.48462895 0.3070139 0.36629865
000030 88 a5 15 3f 79 d4 33 3f b8 b6 9f 3e d7 ff ef 3e
       0.58455706 0.7024608 0.3119409 0.46874878
000040 04 a0 e5 3e 06 03 36 3f c6 06 2e 3f 1e 60 27 3f
       0.44848645 0.71098363 0.67979085 0.6538104
000050 a2 c7 3a 3f 68 9d c3 3e 35 0f e5 3e d5 98 d7 3e
       0.72960865 0.3820603 0.44738165 0.4210879
000060 58 e5 fc 3e 21 68 99 3e 92 a9 04 3f 3d 5e a2 3e
       0.49393725 0.29962257 0.51821244 0.31712523
000070 8a 2f 03 3f d9 0c ce 3e 52 94 c0 3e b2 6c d6 3e
       0.51244414 0.40244177 0.3761316 0.41879803

cnn.conv_layer.3.conv.weight f4 [64, 32, 2, 2, 2]
000000 62 29 1d 3d 9a b5 1c 3d d5 74 58 bc e3 50 08 bb
       0.038369544 0.038259126 -0.013211449 -0.0020800165
000010 8d 86 5f 3d 39 a0 a4 bc e4 ad d1 3c 30 99 f3 bc
       0.054571677 -0.020095931 0.025595613 -0.029736131
000020 e8 3d a1 bc 59 68 7a bd b1 3b 0a bd b5 69 be 3c
       -0.01968284 -0.06113467 -0.033748332 0.023243764
000030 da fa 1e bd c9 67 49 3d 7f 5c 50 bb 0b de 4d 3d
       -0.03881345 0.049171243 -0.0031793413 0.050260585
000040 49 e0 97 bc 22 ea 4c bc 0a fd 10 3d 31 b8 03 bd
       -0.018539565 -0.0125069935 0.035397567 -0.03215808
000050 0c 4c 41 3c b7 ff ca 3c 35 c0 2d bc cc d2 ee bc
       0.011797916 0.024780137 -0.010604908 -0.02915325
000060 a8 ac f7 3c ac b5 38 3c 74 69 59 3d 45 5e 31 bc
       0.030233696 0.011273783 0.053079084 -0.010825698
000070 b7 b5 f2 bb 2f 29 16 3d b5 99 14 bd af 8c 3e 3c
       -0.007406916 0.03666037 -0.0362794 0.011630221
000080 db 35 31 bd ed 6e 05 bc bb da 2b 3d 84 3c 93 bc
       -0.04326425 -0.008144123 0.041956645 -0.017973192
000090 40 15 75 bd 33 4c 43 3d 55 d1 71 3c e6 d5 b2 3c
       -0.05983472 0.04768009 0.014759381 0.02183051
0000a0 29 71 04 bd 13 3b 9a 3c 9c 20 44 bc 93 0e 0f 3b
       -0.03233448 0.018826997 -0.011970665 0.0021828755
0000b0 1d 13 cb bc 5b 3a a3 bc 86 92 56 bd c9 79 9b bc
       -0.024789387 -0.019925287 -0.05238583 -0.01897897
0000c0 cb 57 77 3d 38 c1 48 3d 25 95 53 bd 59 d1 0f bd
       0.06038646 0.049012393 -0.051655907 -0.03511176
0000d0 c6 de e5 3b b0 09 f3 3b 8a 32 1e bc 1a e1 f7 bc
       0.007015082 0.0074169263 -0.009655604 -0.030258704
0000e0 d2 9a 1c 3d 3a 9e 2d bd b4 43 8b bc cc a9 b1 bc
       0.038233586 -0.042387225 -0.017000057 -0.02168741
0000f0 09 47 70 3c 19 ec ef bc ef 86 36 bd fa 3a 70 3d
       0.014665374 -0.029287385 -0.044562276 0.058649994
000100 15 75 38 bc 6f 54 8a 3c ea fa ad bc fd 70 2b bd
       -0.011258383 0.016885964 -0.02123781 -0.0418558
000110 d3 30 d7 bc d6 ff 06 3d 28 55 1b bd 30 67 a7 bc
       -0.026268398 0.032958828 -0.03792301 -0.020434946
000120 4e 8f 29 bd 30 3e 80 3c a8 dd 64 3c 11 c9 0b bd
       -0.04139643 0.015654653 0.013968863 -0.0341273
000130 cc 62 29 bd 69 62 0b bd 5f 9e 66 3d 67 d4 36 bc
       -0.041353986 -0.034029398 0.05630338 -0.011159039
000140 79 44 cc 3a 61 31 70 3d 75 03 57 bd 15 b0 41 bd
       0.0015584371 0.05864084 -0.05249353 -0.047287066
000150 2d 34 a8 3c 76 4c 06 bd 5f 6c 4b bc 7b c4 d6 3b
       0.020532692 -0.032787763 -0.012415974 0.006554184
000160 82 e0 65 bd 33 a3 81 bb b6 25 43 bc 56 78 18 bd
       -0.05612231 -0.0039562224 -0.011910846 -0.037224136
000170 b4 86 30 bd 67 b2 5a 3d 1d 81 09 3d c6 4a 18 3c
       -0.043097213 0.053392794 0.033570398 0.009295171
000180 4e 69 32 bd dc 60 56 ba 8d cb 65 bc 0f 3f 39 bd
       -0.043557458 -0.00081778853 -0.014025581 -0.045226153
000190 7b 8d 53 3c fb c8 cb 3c 51 56 25 bd 16 31 77 bc
       0.01291215 0.024876108 -0.04036552 -0.015087387
0001a0 d4 c0 ff bc 52 1e 60 bd 78 b6 4a bd 69 5e 3c bd
       -0.031219877 -0.054716416 -0.049490422 -0.045988474
0001b0 b0 88 25 3d 87 46 7e 3c d5 de f3 bc 1d 1f 41 3c
       0.04041356 0.015519745 -0.02976934 0.011787203
0001c0 03 81 bb bc 44 f3 6a bc 86 6f 54 bd 0f f6 6c bb
       -0.022888666 -0.014340226 -0.05186417 -0.0036157405
0001d0 ed 3b dd 3c 60 dd 20 bd a0 9f 62 3d 6e bd 0e 3c
       0.027006114 -0.03927362 0.05532801 0.008712156
0001e0 62 da 3e bc 96 42 5e bd 13 0d b0 3c df c8 01 3c
       -0.011648746 -0.05426272 0.02149061 0.007921427
0001f0 3e db fe ba 46 e7 c7 3c ea b3 51 3d 9c 27 5d 3d
       -0.0019444001 0.024402272 0.05119697 0.053992853
000200 4c 29 34 3d 50 5d 10 bb 7e c9 7d 3d 05 6f 37 3d
       0.043984696 -0.0022028275 0.061959736 0.04478361
000210 0b b7 82 bc d4 a5 30 3d d8 ec a3 3c 02 00 52 3c
       -0.015956422 0.043126896 0.020010397 0.012817385
000220 68 d4 a0 3b 43 5f 05 3d 13 a4 66 3c 77 d9 6d bd
       0.0049081333 0.03256155 0.014077204 -0.05806872
000230 7c 68 fc bc ce 73 76 3c eb 5a c1 3c 5f da 31 bd
       -0.03081154 0.015042258 0.023602923 -0.043421146
000240 76 ea 01 3c 89 84 e2 3c 44 67 cb 3b 48 ae 65 bc
       0.007929435 0.027651088 0.0062073786 -0.014018603
000250 0f 55 f6 bc be 1f 07 3d 25 15 76 3d b1 4d 42 bd
       -0.030069856 0.032989256 0.06007876 -0.047437374
000260 d4 56 67 bd 82 55 78 3d f7 8c 7c bd c0 18 69 bd
       -0.05647929 0.06062842 -0.061657872 -0.05690837
000270 c1 2a 24 bd d9 79 a6 3b 1c 2d 79 3d 4a c8 65 bc
       -0.040079836 0.0050804433 0.060834035 -0.014024803
000280 7e 07 b1 3c e0 1b 49 39 5f 3a bd bc d7 dc 51 bc
       0.021610018 0.00019179238 -0.023099123 -0.012809
000290 18 67 10 3d 9a 9b 45 bc ea 02 fa bc 3f dc 09 3c
       0.035254568 -0.012061024 -0.030518968 0.008414327
0002a0 cb d6 f9 bc 44 07 a2 bb 09 de 95 3c 88 ba 33 3d
       -0.03049793 -0.004944714 0.018294351 0.043879062
0002b0 50 f8 20 bd 18 f5 11 3c a8 5b 6c 3d dd d4 fe bc
       -0.03929931 0.008908533 0.057704598 -0.03110736
0002c0 d5 76 58 3c df 76 7a 3d 92 8b 67 bd 11 91 72 3d
       0.0132119255 0.06114852 -0.05652959 0.059220377
0002d0 56 94 e1 bc 7e 43 7c 3d 07 2c 20 bc e6 03 08 3d
       -0.027536552 0.061587803 -0.009776122 0.033206843
0002e0 81 f4 53 bd c6 1e 00 3d 7c 4e 8c bc 24 2f 7f 3d
       -0.05174685 0.031279348 -0.017127268 0.062300816
0002f0 4f 80 5a 3d ec c4 17 bd d4 7e 26 bc 59 36 c5 bb
       0.05334502 -0.037053034 -0.010162074 -0.0060184416
000300 47 23 15 3c 3b 9d 7e 3d a7 57 78 bd 88 d2 21 3d
       0.009102649 0.062161665 -0.060630467 0.03950742
000310 8a bc 6f bb 7e 62 05 3d 5d 1e df 3b 82 ea d7 3c
       -0.0036580884 0.032564633 0.0068090395 0.02635694
000320 04 64 40 3d c1 eb bc bc 8c 2e f1 bc 54 25 d0 3c
       0.046970382 -0.023061635 -0.02944114 0.025408424
000330 f1 ce 87 bc 21 64 79 bc 1e 2f a5 bb 7a 5a 50 3d
       -0.01657817 -0.0152216265 -0.005041017 0.050867535
000340 39 5b 5b bd e4 b2 95 bc f5 9e 3c bc 13 14 41 3d
       -0.053553794 -0.018273778 -0.011512508 0.047138285
000350 c6 83 2f bd a2 f9 a2 3c 78 51 42 3d 1e 72 54 3d
       -0.04285028 0.019894425 0.047440976 0.051866643
000360 68 3b 17 3d 35 74 0a 3d 4e 4f 27 bd 1b 86 7e bd
       0.03692189 0.03380223 -0.040847115 -0.06213961
000370 a3 b1 3b 3c 28 1d 27 3d d1 51 7a bd 88 20 9a bc
       0.011455926 0.04079929 -0.061113182 -0.01881434
000380 6e 4c cd 3c 03 26 77 bd 1d dd f0 3b b2 bf b6 bc
       0.025060859 -0.060338985 0.0073505775 -0.022308204
000390 0c 38 55 bc 5b 17 35 3d 4d c9 51 bd 7e db 1a ba
       -0.013013851 0.044211727 -0.051217366 -0.00059073407
0003a0 b6 22 47 3d c0 50 23 3d be 50 55 bc 7e 27 3b 3d
       0.048617087 0.03987193 -0.013019739 0.04569196
0003b0 7d 1d 52 3c 7f 43 32 3d 33 1a e8 3b 7f 02 01 bd
       0.012824413 0.0435214 0.0070832013 -0.03149652
0003c0 b9 0c 24 3d 74 6a f1 3b 69 19 f2 bb 15 69 dc bb
       0.040051196 0.0073674265 -0.007388283 -0.006726394
0003d0 73 84 4f 3d 94 49 ac bc d7 39 1e 3b 16 e3 1a 3d
       0.050663423 -0.021031179 0.0024143362 0.037814222
0003e0 c2 4d 4b bd 42 5c 03 3d ba 93 1b 3d 77 03 80 3a
       -0.049634703 0.032070406 0.03798268 0.0009766658
0003f0 40 c7 48 bd 25 04 fd 3c 6a 36 3c bd 9b c1 4c 3c
       -0.049018145 0.030885765 -0.04595033 0.012497331

cnn.conv_layer.3.conv.bias f4 [64]
000000 0c ea 19 bd ce 8c 5b bd f9 b7 0a 3d 5e 33 c5 bc
       -0.03757672 -0.05360108 0.033866856 -0.024072345
000010 de 98 b6 bc 1c 09 09 bd 62 35 67 3d f8 1e 02 3d
       -0.02228969 -0.033455953 0.056447394 0.031767815
000020 0b 67 65 3c 99 7d ab 3c 28 28 09 bd 4f 63 a9 3c
       0.014001618 0.020933913 -0.03348556 0.020677237
000030 6c e2 fd 3c d4 44 13 bb ae e4 1d bd 6a 12 e3 bc
       0.030991755 -0.0022471445 -0.038548164 -0.027718741
000040 5a fa f4 3c 00 49 73 bd 11 71 ed 3b 2f 2c 9a 3a
       0.029904533 -0.05939579 0.0072461446 0.0011762435
000050 b0 75 a1 bc 3c e3 79 bd 58 fb 58 bd 0a bf 33 3d
       -0.019709438 -0.061007723 -0.052974075 0.04388336
000060 8d 5c 59 bd 40 76 c6 bb 27 e5 c5 3c 57 34 ea 3c
       -0.05306678 -0.006056577 0.02415712 0.02858941
000070 b2 76 b2 bc bf 7f 15 3d de b9 6a bd 36 61 11 3b
       -0.021785114 0.03649878 -0.057306163 0.0022183186
000080 89 ab a4 3c 5b 18 75 3d db 2e 31 bd e8 b2 42 3d
       0.020101326 0.05983768 -0.043257575 0.0475339
000090 c5 01 6e bd d4 85 7c 3c ac bb 79 3c 1e 76 ef bc
       -0.058107156 0.0154127665 0.015242498 -0.029231127
0000a0 d7 a1 c4 bc df b2 e6 3b f2 50 69 3d 0f 14 2e 3d
       -0.024002953 0.007040366 0.05696196 0.042499598
0000b0 7b 34 20 bd 40 ea 73 bd 77 ad 45 3d f2 af 0a 3d
       -0.03911255 -0.05954957 0.048261132 0.0338592
0000c0 2b ca 3e bd 83 b9 5a bd 54 23 7b 3d dc d8 56 3c
       -0.04657952 -0.053399574 0.06131299 0.013113227
0000d0 ad 31 7c 3d 64 b8 d9 3b df 7b d8 3c aa 00 4b bd
       0.061570812 0.0066442955 0.026426254 -0.04956118
0000e0 a1 8e 2a bd ae ef 00 bd bb 34 d8 3c 56 6e 15 bd
       -0.041639928 -0.031478576 0.026392331 -0.036482178
0000f0 fc 8a 36 3d 61 dc 48 bc 81 81 00 3d 3d 82 85 3b
       0.04456614 -0.012259574 0.031373505 0.0040743635

cnn.conv_layer.3.adn.N.weight f4 [64]
000000 e6 d9 7f 3f 7a d6 7f 3f be 0d 80 3f 36 dc 7f 3f
       0.9994186 0.9993664 1.0004194 0.9994539
000010 b2 e2 7f 3f 66 f7 7f 3f ee 13 80 3f c3 0d 80 3f
       0.99955285 0.99986875 1.0006082 1.00042
000020 37 e5 7f 3f e7 12 80 3f e7 ee 7f 3f 2f f2 7f 3f
       0.9995913 1.0005769 0.9997391 0.9997892
000030 3f db 7f 3f 4d 13 80 3f 89 d7 7f 3f ee fe 7f 3f
       0.9994392 1.000589 0.99938256 0.99998367
000040 f8 e9 7f 3f 7e ed 7f 3f c4 0b 80 3f 10 11 80 3f
       0.99966383 0.9997176 1.000359 1.0005207
000050 84 f9 7f 3f 87 02 80 3f 62 01 80 3f 57 0e 80 3f
       0.99990106 1.0000771 1.0000422 1.0004376
000060 86 ff 7f 3f 2c 0e 80 3f e7 02 80 3f 0d 0f 80 3f
       0.9999927 1.0004325 1.0000886 1.0004593
000070 ed 12 80 3f 88 d9 7f 3f 67 f1 7f 3f b9 ed 7f 3f
       1.0005776 0.999413 0.99977726 0.9997211
000080 7c 13 80 3f 49 1a 80 3f 8f 11 80 3f 67 d8 7f 3f
       1.0005946 1.0008022 1.0005358 0.9993958
000090 c6 0d 80 3f 00 10 80 3f 55 0d 80 3f f4 07 80 3f
       1.0004203 1.0004883 1.0004069 1.0002427
0000a0 ad 0c 80 3f 86 04 80 3f 4b eb 7f 3f 9a 0f 80 3f
       1.0003868 1.000138 0.99968404 1.0004761
0000b0 aa ee 7f 3f d0 06 80 3f 33 fb 7f 3f ba 0e 80 3f
       0.9997355 1.0002079 0.99992675 1.0004494
0000c0 85 ef 7f 3f f5 e6 7f 3f e5 0d 80 3f 2c 0f 80 3f
       0.9997485 0.9996179 1.000424 1.000463
0000d0 a5 0f 80 3f f4 0b 80 3f d2 df 7f 3f 48 ef 7f 3f
       1.0004774 1.0003648 0.999509 0.9997449
0000e0 b3 08 80 3f 62 11 80 3f 91 02 80 3f 13 00 80 3f
       1.0002655 1.0005305 1.0000783 1.0000023
0000f0 0b 0e 80 3f 5d db 7f 3f 5f f0 7f 3f 71 0c 80 3f
       1.0004286 0.99944097 0.9997615 1.0003797

cnn.conv_layer.3.adn.N.bias f4 [64]
000000 64 8a dd b9 3b 18 28 ba d1 dd cd 39 cf c3 1b ba
       -0.00042255514 -0.0006412302 0.00039265913 -0.00059419585
000010 6e 8b cd b8 1c 54 28 39 b5 4a 36 3a 9f e3 21 ba
       -9.8011325e-05 0.00016053062 0.0006953881 -0.0006175581
000020 4f e2 08 ba 2e cc cb 39 e9 d1 73 b9 e3 1c 3a b9
       -0.0005221711 0.00038871303 -0.00023252484 -0.00017749103
000030 c0 94 07 ba a2 e8 09 37 4f cd 13 ba 90 e1 0c ba
       -0.0005172007 8.22e-06 -0.00056381983 -0.00053741876
000040 87 af 2f ba f5 de d2 b7 80 3d ac 39 8f e3 3a 3a
       -0.0006701876 -2.5137773e-05 0.00032852218 0.0007129246
000050 0a 64 bd 38 b7 6f a0 b9 f1 02 09 3a 66 68 bd 39
       9.030856e-05 -0.00030600812 0.00052265736 0.00036126672
000060 a5 22 49 b9 58 ff 0c 3a ff cc cd 39 6d 47 7e 39
       -0.0001918176 0.00053786254 0.0003925338 0.00024249936
000070 42 2b 10 3a c9 d4 12 ba 32 ab 96 39 a3 0b f1 b9
       0.000549961 -0.00056011655 0.0002873778 -0.00045975772
000080 c8 30 f2 39 d4 c6 ed 39 52 98 1c 3a 36 1b 27 ba
       0.00046194182 0.000453523 0.0005973625 -0.0006374599
000090 ac c7 23 3a 4c 4e f9 39 b8 35 da 39 23 35 8a b6
       0.000624771 0.00047551317 0.00041620224 -4.1189064e-06
0000a0 ca e7 f8 39 99 3d 8a 39 5a 28 cb b9 15 f0 f3 39
       0.00047474942 0.00026367305 -0.00038749242 0.00046527447
0000b0 e4 8b ab b9 40 11 0b 35 2f b1 d8 38 33 e5 76 39
       -0.00032719888 5.180664e-07 0.000103326856 0.00023545772
0000c0 4b cf 59 b9 92 78 a7 39 2d 1b b9 b9 ea 84 23 3a
       -0.00020771955 0.00031942554 -0.00035306197 0.0006237762
0000d0 a6 61 1a 3a a4 98 c6 b8 f9 9f 03 ba fd df ec b9
       0.00058891845 -9.469807e-05 -0.0005021091 -0.00045180312
0000e0 81 73 b6 39 f3 86 df 39 45 2a a3 37 22 01 93 b9
       0.00034799802 0.0004263442 1.9450797e-05 -0.0002803887
0000f0 3e f4 01 3a 81 a3 0a ba 2b 74 c9 b8 59 ba 0b 3a
       0.00049573544 -0.0005288646 -9.606065e-05 0.0005330197

cnn.conv_layer.3.adn.N.running_mean f4 [64]
000000 7a 65 1b 3d 5a ba a8 bd 05 c6 ca 3d 81 70 6e 3e
       0.037938572 -0.08238669 0.099010505 0.23285104
000010 ac 8f 2b bd 15 23 d6 3d ff 94 f5 3d b5 3c 49 3e
       -0.041885063 0.1045591 0.119913094 0.19652064
000020 7c fe 27 3e ef 4e 85 3d b6 40 29 be 3b a1 0c be
       0.16405672 0.06509196 -0.16528592 -0.1373338
000030 e0 6f 07 be 0e 04 a1 bd c0 45 91 3e 24 bc 8c 3e
       -0.1322627 -0.078621015 0.28373528 0.2748729
000040 b2 7a 34 3e b0 26 b2 bd 5b a8 a0 bd 37 35 34 3d
       0.1762493 -0.08698785 -0.07844611 0.043996062
000050 12 02 25 3d 67 4a 2e 3e 66 68 2d 3d c2 f8 1c bd
       0.040285178 0.1702057 0.04233589 -0.03832317
000060 c3 eb f3 bd 12 3b 26 3e 50 7a ff 3c 79 c6 33 3d
       -0.11910202 0.16233471 0.031186253 0.04389045
000070 70 fc 06 be d6 3f 36 3f 2f 65 86 3d 97 53 85 3e
       -0.13182235 0.71191156 0.06562268 0.26040336
000080 ea bb 28 3e 78 99 8e 3d 67 27 a8 3e 5e 99 73 3d
       0.16477934 0.069628656 0.32842562 0.059472434
000090 7b 58 a7 3e fa 43 88 be 97 c5 8d be 16 da 20 bd
       0.32684693 -0.26614362 -0.27689812 -0.039270483
0000a0 e1 f4 d6 3e 7a 3c b5 bd cf d4 e1 3d 3e 17 5a 3e
       0.41983703 -0.088494256 0.11026918 0.21297929
0000b0 73 e8 a1 bd eb ff cf bd 12 6e 57 bd 5f a5 15 3e
       -0.07905664 -0.10156234 -0.052595206 0.14613865
0000c0 c4 76 8a be 4e c7 c4 bd 82 42 0e 3a 5c f9 7d 3e
       -0.27043736 -0.09608327 0.00054267806 0.24802154
0000d0 9a 09 03 3d cf b2 36 be 70 ae b5 3c 24 e3 bb bd
       0.03199158 -0.17841648 0.022177905 -0.09174183
0000e0 4c 01 72 be cb 7d a8 be 56 60 05 be 0a 5c 6e 3d
       -0.23633307 -0.32908472 -0.1302503 0.058193244
0000f0 3b 8a fd 3c 4d 59 73 3e 94 3a b0 3e 0f 0c ba 3e
       0.030949702 0.23764534 0.34419692 0.36337325

cnn.conv_layer.3.adn.N.running_var f4 [64]
000000 5c 39 e8 3e ad d0 c8 3e 54 f1 a2 3e 3d 74 fa 3e
       0.45356262 0.39221707 0.31824744 0.48916808
000010 89 cc 94 3e 9a 06 ca 3e c3 26 a2 3e 5c 37 dc 3e
       0.29062298 0.39458162 0.31670198 0.43010986
000020 c6 e2 10 3f 94 23 8f 3e 09 77 f0 3e 74 0b b4 3e
       0.5659603 0.2795683 0.46965817 0.35164988
000030 ff cc 95 3e 8c af d2 3e 0b e3 11 3f a8 c6 f0 3e
       0.29257962 0.41149557 0.56987065 0.47026563
000040 c2 39 ba 3e b4 12 bf 3e bd 3b c6 3e 53 58 9f 3e
       0.3637219 0.37318957 0.38717452 0.31122074
000050 0f 75 e6 3e fb dd b6 3e 3b 44 ef 3e b6 2e 9a 3e
       0.45011184 0.35716233 0.46731743 0.30113763
000060 90 33 c4 3e 85 4e 95 3e 95 b7 f6 3e e9 05 b4 3e
       0.3832059 0.29161468 0.48186937 0.3516076
000070 88 aa a8 3e 95 7d 5a 3f d3 3e c4 3e 6b 78 43 3f
       0.32942605 0.8534787 0.3832918 0.7635562
000080 f3 71 95 3e 42 4b c8 3e 61 25 16 3f 1a c3 9b 3e
       0.291885 0.39119917 0.58650786 0.30422288
000090 7c 72 0b 3f c0 1b f8 3e 3f ac 03 3f 7d 47 f4 3e
       0.54471564 0.48458672 0.514347 0.4771079
0000a0 f9 23 0d 3f 0f 54 b9 3e c4 61 9a 3e be 2f ba 3e
       0.55133015 0.36196944 0.30152714 0.3636455
0000b0 9d 65 a1 3e 11 82 9b 3e 81 43 c1 3e 0a c2 d9 3e
       0.31522837 0.3037267 0.37746814 0.42530853
0000c0 cd ae c7 3e 29 32 97 3e dd 3d e2 3e 90 a2 cd 3e
       0.3900055 0.29530457 0.44187823 0.40163088
0000d0 0e 63 d9 3e 2e cf b3 3e 37 60 b7 3e 5d f0 9d 3e
       0.42458385 0.35119003 0.35815594 0.30847445
0000e0 67 74 b2 3e e0 08 0b 3f 6f a8 c7 3e 92 37 c6 3e
       0.34854433 0.5431042 0.38995692 0.38714272
0000f0 02 c8 d3 3e 08 eb ec 3e 79 8d 5e 3f e2 f0 0c 3f
       0.4136353 0.46273065 0.8693462 0.5505506

gru.gru.weight_ih_l0 f4 [192, 512]
000000 64 44 ac 3d f0 6e 37 3c 05 78 b8 bd 5b 4d ea 3d
       0.08411482 0.011195883 -0.09007267 0.11440536
000010 a1 7e fe bc e5 ed d3 3d e8 5e ec bd ef 48 43 bd
       -0.03106624 0.10348109 -0.115415394 -0.047676977
000020 b9 30 f8 bd 87 f2 5b 3d c3 dc 87 bc d3 e4 c9 bd
       -0.12118668 0.05369809 -0.01658476 -0.09858098
000030 c8 0f db 3d d6 34 9c 3c ad 22 ef ba 53 6a ac bd
       0.106963694 0.019068163 -0.0018244587 -0.08418717
000040 c6 c9 bb 3c d0 7f c1 3d b1 6b 59 bd b7 74 fc bd
       0.022923362 0.094482064 -0.05308122 -0.12326949
000050 93 4e 50 bc 92 14 f8 3a 23 8d 33 3d 04 fc de 3c
       -0.012714046 0.0018927029 0.04383577 0.02721978
000060 7c 4c 3d 3d 2a 32 a1 3d a5 b6 cc bd bf c4 49 bd
       0.04621552 0.07870896 -0.09995774 -0.049259897
000070 7b 10 47 bd 90 cc 8a bc 87 cc d8 3b 4d 26 ce 3d
       -0.0485997 -0.016943246 0.0066161784 0.10065899
000080 2b bc c4 bd f5 cf e4 bc e0 5d 9b 3d a7 ca e4 bd
       -0.09606203 -0.027931193 0.075862646 -0.11171465
000090 0f 8a fc bc ed 9b 7f bd 64 a0 8a 3d 2e ef f0 bd
       -0.03082755 -0.06240456 0.06768873 -0.1176437
0000a0 af e5 14 bd 8d 7d ac 3d 90 9b cd 39 e2 23 d9 3d
       -0.036351856 0.084223844 0.0003921655 0.10602547
0000b0 08 15 58 3c 9d 84 ff bc 40 bb 5c 3c 4d 19 98 bd
       0.013188608 -0.031191165 0.013472378 -0.07426701
0000c0 f0 10 0a 3d 0f 08 b0 bd 3c 95 cf 3d 28 27 cb bd
       0.03370756 -0.08595287 0.10135886 -0.09919578
0000d0 16 cc 90 bd e8 93 c0 bd a6 d4 e3 bd 7d 55 22 bd
       -0.07070176 -0.09403211 -0.11124544 -0.03963231
0000e0 a8 c3 ad 3d 99 01 c7 bd 52 9f cc 3c a8 43 9d 3d
       0.08484584 -0.097171016 0.024978314 0.0767892
0000f0 15 21 b8 3d b4 c2 cd 3d a8 4f eb bd 10 ea 75 bd
       0.08990685 0.10046902 -0.114898026 -0.060037673
000100 44 d9 fb 3c 8e 7f d7 3d ae 8f 97 bc b5 e9 ec 3d
       0.030743249 0.10522376 -0.018501129 0.115680136
000110 f2 6a b2 3d 84 af e1 3c a8 4e 5a bd 4a 52 1c 3c
       0.087118044 0.027549513 -0.05329767 0.009541104
000120 7b 73 f1 3c 9d 64 9e 3d 06 c2 c9 3d 30 fa 9e 3d
       0.02947401 0.07734034 0.0985146 0.07762563
000130 4a 44 e0 3c a5 51 d8 bd a5 11 d8 bd cf 7b d6 bd
       0.027376313 -0.105624475 -0.105502404 -0.10472833
000140 b1 da e0 bd 9d 40 d9 bc cd a1 f8 bd d8 b7 b0 3d
       -0.10979212 -0.026520068 -0.12140236 0.086288154
000150 1d dc 4e 3d a8 b7 b6 bd 8a 9c 88 bd fa 34 91 bd
       0.050502885 -0.089217484 -0.066704825 -0.070901826
000160 18 94 b6 3c 2f 9d 81 bd 18 cc 9d bd f4 fb 6a 3d
       0.022287413 -0.063288085 -0.077049434 0.057369187
000170 da 9f 7b bd 85 8b bc bd c3 df bb 3c 44 96 e3 3d
       -0.061431743 -0.09206299 0.022933846 0.11112645
000180 a6 80 0e bd fd 57 08 3d 0d 1b dd 3d c5 e8 42 3d
       -0.034790657 0.033287037 0.10796175 0.047585268
000190 86 79 e8 3d 3d 5c 9e bd cb b6 ac bd b8 d4 99 bd
       0.11351304 -0.07732437 -0.084333025 -0.07511276
0001a0 6b 65 14 3d 9d 41 80 bd 08 4c a6 3d fe 27 50 3d
       0.036229532 -0.06262515 0.081199706 0.05081939
0001b0 4d 52 48 bd 53 61 d5 bd 3b 7b f3 bd 14 f7 0f 3d
       -0.048906613 -0.10418954 -0.11888739 0.03514774
0001c0 cd fb 32 3d 5b eb a1 bd 99 e5 1f bd 37 08 d6 3d
       0.043697167 -0.079062186 -0.03903732 0.104507856
0001d0 89 e1 d7 3d 5d 83 6a 3d c4 a1 9d 3d a9 42 b2 bd
       0.10541064 0.057254184 0.0769687 -0.08704121
0001e0 85 71 05 bd 3e a1 f1 bd 94 01 26 3c a1 12 ae 3d
       -0.032578964 -0.11798333 0.010132212 0.08499647
0001f0 21 5f 67 3c a2 9a 9a bd 72 5a f3 bc ca f5 c9 3d
       0.014121802 -0.07549025 -0.029706214 0.09861334
000200 76 e3 a6 3d 87 85 0a 3d 88 72 cf bd 1f e1 41 bd
       0.081488535 0.033818748 -0.10129267 -0.047333833
000210 2a dc 87 bd 4f cf a8 3d 31 60 27 bd 63 df 6b bc
       -0.0663379 0.08242666 -0.04086322 -0.014396521
000220 02 dc b4 3d 45 d3 65 bd 84 7b f4 bc 07 89 95 bd
       0.08831026 -0.056109685 -0.029844053 -0.073015265
000230 5d a5 a4 3d 28 ae 69 3c 38 00 9e bc 9f 64 66 bd
       0.08039353 0.0142627135 -0.019287214 -0.056248304
000240 5a 5a 56 bd b0 b1 a3 3d 02 8d 3b 3d af 84 71 3d
       -0.05233226 0.079928756 0.045788772 0.058964428
000250 07 70 09 3c 63 8d 2d 3a 9c f9 c7 3d dd 15 da bd
       0.008388526 0.00066204945 0.09764406 -0.10648701
000260 a0 30 9d bd 45 66 69 bd 73 7f 2b 3d 11 ce c6 bd
       -0.0767529 -0.056982297 0.041869592 -0.09707273
000270 db c8 ea bc 6b 32 ba 3c c1 62 98 3d bb 55 ea bd
       -0.028660228 0.02272912 0.07440711 -0.11442133
000280 27 7d 1d 3d 94 64 e6 bb cb 06 f3 3d 59 3f e4 bd
       0.038449433 -0.007031033 0.1186653 -0.11144895
000290 a7 d4 91 3d 88 27 e3 3d 51 52 25 bc be ce 18 3d
       0.07120638 0.11091524 -0.010090427 0.03730654
0002a0 ef 3f 22 bb d9 eb be bc 3e f4 c3 3d 31 3d 34 bd
       -0.0024757346 -0.02330582 0.0956807 -0.04400367
0002b0 e7 41 23 3d 0a 1e b5 bc 1d 31 ff bc e5 4c e3 bb
       0.03985777 -0.02210905 -0.031151349 -0.006936657
0002c0 0e e4 81 3d d4 e7 e6 bc 2a c6 c3 3d 1d 49 66 bd
       0.06342326 -0.028186716 0.09559281 -0.05622207
0002d0 ca 67 57 3d 76 d1 74 bd 94 80 f2 bb 2f 2b 2e bd
       0.052589215 -0.05977007 -0.0074005816 -0.04252165
0002e0 58 7f 96 bd 5f 1d 12 3d ae 6b db 3b 03 56 11 3d
       -0.07348508 0.03567254 0.006696186 0.035482418
0002f0 ee bf f1 3d 52 40 ca bd 25 4f b2 bd 9c d8 99 bd
       0.11804186 -0.098755494 -0.08706502 -0.07512018
000300 29 8c 81 3c 94 d5 45 3d 54 d5 50 3d d8 8e a3 3d
       0.015813904 0.048299387 0.050984696 0.0798623
000310 27 db f4 bd 1a fb d8 bd 49 c4 93 bc 24 31 cc 3c
       -0.119558625 -0.10594769 -0.018037932 0.024925776
000320 5b 8e 94 3d 77 02 b9 bc ed 27 dd bd d1 91 a7 bc
       0.07253715 -0.022584183 -0.10798631 -0.020455273
000330 e8 e4 20 bd 41 ec 1a bd f8 db fb bd e8 53 97 bd
       -0.039280802 -0.037822966 -0.12297815 -0.07389051
000340 12 4d b3 bd 30 dc a9 3d 2d 58 d9 3d 9c 6b 2a bd
       -0.08754934 0.082939506 0.10612521 -0.04160653
000350 0d 3a 9a 3c 09 ff 82 bc 02 49 ee 3d c6 29 ed 3d
       0.018826509 -0.01599075 0.11635019 0.11580233
000360 f3 bf 2f bd f0 58 54 bd 43 79 46 3d f6 f7 d5 3d
       -0.042907666 -0.05184263 0.048455488 0.104476854
000370 89 de 8f 3d 1e 08 20 3b 78 1e fc bd da b2 0d 3d
       0.07024867 0.00244189 -0.12310499 0.034594394
000380 67 71 23 bd 61 e7 32 3d f5 0a 95 3c 81 ed 60 3a
       -0.03990307 0.04367769 0.018193701 0.0008580313
000390 05 48 84 3d dc c5 89 3d 14 cd fd bd 3b 87 e7 bd
       0.06459049 0.06727192 -0.12392631 -0.1130509
0003a0 34 56 f3 3d 3c 05 f5 bc 9a 9f bc 3d 43 56 12 3d
       0.11881676 -0.029909723 0.09210129 0.035726797
0003b0 80 a1 d0 bc 49 cf 38 3d c6 e7 07 bd d6 95 91 bd
       -0.025467634 0.045119558 -0.03318002 -0.07108657
0003c0 dd 8c 83 bd b1 81 f4 bc 19 8c 9c 3c 3a 61 9a bd
       -0.06423352 -0.029846998 0.019109773 -0.07538076
0003d0 1b 17 b1 3d bb 74 05 bd a0 71 b8 bd 51 47 f4 bd
       0.08646985 -0.032582026 -0.09006047 -0.11927665
0003e0 6e c5 ca 3d 16 0f 25 bc ed 16 d9 bd f5 65 de bd
       0.09900938 -0.010074398 -0.10600076 -0.108592905
0003f0 14 cb 8a bd 5e 12 bf bc 85 50 59 3d 6a bd 21 bd
       -0.06777015 -0.023324188 0.053055305 -0.03948728
