model_fmri_20_ep_scheduler_2022-10-27T09:19:30.763387/best_metric.pth (torch, 561209 bytes, 32 tensors)

cnn.conv_layer.0.conv.weight f4 [8, 1, 2, 2, 2]
0	0xbe5860bc	-0.21130651
1	0x3de23c62	0.11046673
2	0x3e9a1310	0.3009267
3	0x3e150efa	0.14556494
4	0xbda2f234	-0.07956353
5	0xbe645131	-0.22296597
6	0x3e1d2b2f	0.15348504
7	0xbe2d0958	-0.16898096
8	0x3e60c37a	0.21949568
9	0x3e2c2118	0.168095
10	0xbe3adf3f	-0.18249224
11	0xbead655b	-0.3386639
12	0xbeacd5d7	-0.33756897
13	0xbcfd1d23	-0.030897683
14	0xbe8c162a	-0.2736066
15	0x3e4d8c0c	0.20072955
16	0x3bf097df	0.007342323
17	0x3e4a30ae	0.19745132
18	0x3e9b8ac7	0.30379316
19	0xbd9c3162	-0.076266065
20	0x3e448547	0.19191466
21	0xbea6dccf	-0.3259034
22	0x3e96b1d5	0.2943255
23	0x3e0d3621	0.1379018
24	0xbe846d43	-0.2586461
25	0x3d0630a4	0.03276123
26	0x3d8bd67f	0.06828021
27	0xbe0f1e8b	-0.13976495
28	0xbe126536	-0.14296421
29	0xbcef9bbe	-0.029249068
30	0xbd55a0bb	-0.052155238
31	0xbe10161b	-0.14070933
32	0xbe8f700b	-0.2801517
33	0xbe2b7cab	-0.16746776
34	0xbb8c65ab	-0.0042845807
35	0x3ea692dc	0.3253392
36	0x3e3fc999	0.18729247
37	0x3e6507b6	0.22366223
38	0x3e232c52	0.15934876
39	0x3ead9d17	0.33908913
40	0xbd9c94d0	-0.07645571
41	0xbe4037de	-0.18771312
42	0x3d32436e	0.043521337
43	0xbe8bf528	-0.27335477
44	0xbe60f9f9	-0.21970357
45	0x3eb32a22	0.34993082
46	0xbd6113f4	-0.05495067
47	0x3dd6483d	0.10462997
48	0xbe6ecc7b	-0.2332019
49	0xbe841386	-0.25796145
50	0xbd96c27d	-0.073613144
51	0x3ea07675	0.31340376
52	0xbe8c7cff	-0.27439114
53	0x3e6b4c8c	0.22978419
54	0x3e8c0ef6	0.27355164
55	0xbe8fbe6f	-0.28074977
56	0x3d8b098b	0.067889296
57	0xbe42a085	-0.19006546
58	0xbea9a06c	-0.33130205
59	0x3d7460ca	0.059662618
60	0x3eb131ff	0.34608456
61	0x3eadc926	0.33942527
62	0xbc17a9b4	-0.009256769
63	0xbe8e8145	-0.27833

cnn.conv_layer.0.conv.bias f4 [8]
0	0xbe6fe4b5	-0.23427089
1	0x3e94f9e4	0.290969
2	0xbe77c190	-0.24194932
3	0x3d44994d	0.04799776
4	0xbe275f23	-0.16344886
5	0x3e023300	0.12714767
6	0xbdcbb750	-0.099470735
7	0x3d851f4c	0.0650011

cnn.conv_layer.0.adn.N.weight f4 [8]
0	0x3f7fece0	0.9997082
1	0x3f80090e	1.0002763
2	0x3f7fdf04	0.9994967
3	0x3f801868	1.0007448
4	0x3f80064e	1.0001924
5	0x3f7fbd41	0.99898154
6	0x3f800c72	1.0003798
7	0x3f800cef	1.0003947

cnn.conv_layer.0.adn.N.bias f4 [8]
0	0x39a9fa10	0.00032420503
1	0x39801c66	0.0002443522
2	0x3a2e9415	0.0006659639
3	0x3a50568e	0.0007947468
4	0xba19ab2c	-0.00058619934
5	0x3913a954	0.00014082092
6	0x39746ca8	0.00023310131
7	0xb9af44d9	-0.00033429897

cnn.conv_layer.0.adn.N.running_mean f4 [8]
0	0xbe3eda72	-0.18638018
1	0x3e710bcf	0.23539661
2	0xbe4a7386	-0.19770631
3	0x3d3101b2	0.043214507
4	0xbe0b278b	-0.13589303
5	0x3dd3bc79	0.10338683
6	0xbd9cb786	-0.07652192
7	0x3d5254c0	0.051350355

cnn.conv_layer.0.adn.N.running_var f4 [8]
0	0x3e69de7a	0.22838774
1	0x3ed690a0	0.41907215
2	0x3f0938ea	0.5360247
3	0x3eee642b	0.46560797
4	0x3f1c28f2	0.6099998
5	0x3e8dab62	0.27669817
6	0x3e8cb9d0	0.27485514
7	0x3e771cff	0.24132155

cnn.conv_layer.1.conv.weight f4 [16, 8, 2, 2, 2]
0	0x3d92c2f6	0.07166092
1	0xbd9b7465	-0.0759056
2	0x3dcf4c51	0.10121978
3	0x3c957403	0.018243795
4	0xbd39c52b	-0.04535405
5	0xbdef0dfa	-0.11672588
6	0xba9d16ac	-0.0011984906
7	0x3d994257	0.074833564
8	0x3dc5bc6b	0.096550785
9	0x3de51d5b	0.1118724
10	0xbdf57d35	-0.11986772
11	0xbd8225cd	-0.06354866
12	0x3daae8fd	0.0834522
13	0x3d026b73	0.031840753
14	0x3d8e17dc	0.069381446
15	0xbc8c6c3c	-0.017141454
16	0xbdce43af	-0.10071503
17	0xbd4c92a6	-0.049944542
18	0x3ce6badc	0.028165273
19	0xbd0d0caa	-0.034435906
20	0xbdf89f56	-0.12139766
21	0x3dbef285	0.09323601
22	0x3de2a7ab	0.110671364
23	0x3de2f7fa	0.11082454
24	0x3dc77f0f	0.097410314
25	0xbb8c2702	-0.004277111
26	0x3d76bc47	0.06023815
27	0xbcd40995	-0.025883475
28	0xbd8cc4e7	-0.06873494
29	0xbd8b7600	-0.06809616
30	0x3d468f6b	0.048476618
31	0xbd56a451	-0.052402798
32	0x3d51843c	0.0511515
33	0xbdccbc06	-0.099968
34	0x3ce91f4d	0.028457308
35	0x3d508f2e	0.050917797
36	0x3d2cc370	0.04217857
37	0x3d8a366e	0.06748663
38	0x3df7b035	0.12094156
39	0xbd9231e2	-0.07138421
40	0x3df08a7a	0.11745162
41	0xbdadac58	-0.084801376
42	0x3d0e5129	0.03474537
43	0x3bc3e5ad	0.005978307
44	0x3d862856	0.06550662
45	0xbd05ce44	-0.032667413
46	0x3d998b7b	0.07497307
47	0x3d836148	0.06415039
48	0x3d14a37c	0.036288723
49	0xbd95f64a	-0.073223665
50	0xbd8cd77c	-0.06877038
51	0xbdadd41f	-0.084877245
52	0x3da9928a	0.08279903
53	0x3deba2d9	0.1150567
54	0xbcc6f13a	-0.024284948
55	0xbda560f0	-0.0807513
56	0xbdc205b5	-0.09473745
57	0x3d6a4991	0.057199065
58	0xbcb317d9	-0.021861957
59	0xbde75afa	-0.11296649
60	0x3d19a21c	0.037508115
61	0x3dd6c7a7	0.104872994
62	0x3cddee90	0.027091295
63	0x3df97ce9	0.12182028
64	0xbd3487d0	-0.044074833
65	0xbd856a20	-0.06514382
66	0xbdf86cb2	-0.12130107
67	0xbd97c6f8	-0.07410997
68	0xbc1166c2	-0.008874597
69	0xbd26f449	-0.040760312
70	0x3b9547ea	0.004555692
71	0xbdbf2bcf	-0.09334528
72	0xbd323cc9	-0.043515
73	0xbd8730d3	-0.06601109
74	0xbdd6fab9	-0.1049704
75	0x3db6aba9	0.0891946
76	0xbded6fc5	-0.11593584
77	0xbd0d139b	-0.034442525
78	0x3ddabb1c	0.106802195
79	0x3d91eb2b	0.07124933
80	0xbd8dfa58	-0.06932515
81	0xbdaf4363	-0.08557775
82	0xbd86a45e	-0.06574319
83	0x3de98437	0.11402171
84	0x3c947828	0.018123701
85	0xbd498f8f	-0.049209174
86	0x3d64ccd1	0.05585939
87	0x3bdb0583	0.0066840067
88	0x3986a1e4	0.0002567909
89	0x3dd2afdb	0.10287448
90	0xbb16f69d	-0.0023035177
91	0xbd2a9703	-0.041647922
92	0x3de92f02	0.11385919
93	0x3de8c34b	0.11365374
94	0x3decbca4	0.11559418
95	0x3dfbb787	0.122908644
96	0xbd36a24e	-0.04458838
97	0x3cfd9be1	0.030958118
98	0xbd4b190b	-0.04958443
99	0xbd54c2c7	-0.051943567
100	0xbdd7db6d	-0.10539899
101	0x3d89f2d4	0.06735769
102	0x3c683519	0.014172816
103	0x3c79b311	0.015240447
104	0xbdbbdc49	-0.091728754
105	0x3d0150ff	0.031571385
106	0x3d9230d7	0.07138222
107	0x3db45d35	0.0880684
108	0x3b63a8fe	0.0034738178
109	0xbd7aebd9	-0.061260078
110	0xbced7695	-0.028987208
111	0x3c908dbf	0.017645715
112	0x3dec48f4	0.11537352
113	0x3d54306f	0.051804002
114	0x3df4772f	0.11936795
115	0xbd83a410	-0.06427777
116	0x3d47c2dd	0.04876982
117	0xbccc72b6	-0.024957042
118	0x3d8f5bc1	0.069999225
119	0xbdf9d95e	-0.121996626
120	0x3ddbbba2	0.107291475
121	0x3d51453a	0.05109141
122	0x3cb34bc5	0.021886716
123	0x3db8ddbc	0.090266675
124	0x3d8dd76f	0.06925856
125	0x3df3def7	0.119077615
126	0xbd16e765	-0.03684177
127	0x3d8c0004	0.068359405
128	0xbdfec78f	-0.124404065
129	0xbcb3bd3b	-0.021940818
130	0x3df97c4a	0.121819094
131	0xbd375bbd	-0.044765223
132	0x3d973430	0.07383001
133	0xbda633ad	-0.08115325
134	0xbd4753a9	-0.04866377
135	0xbddae598	-0.10688323
136	0xbdc3dede	-0.09563993
137	0xbbc812bc	-0.006105749
138	0x3b0f159f	0.0021832956
139	0x3c8fe29c	0.01756411
140	0xbdc61ea1	-0.09673811
141	0x3da45b39	0.08025212
142	0xbc7624ac	-0.015023392
143	0xbd358a92	-0.044321604
144	0xbd441dc2	-0.04787994
145	0x3a81dfdb	0.0009908633
146	0x3ab31228	0.0013662027
147	0x3dc33a6e	0.09532629
148	0x3de6d371	0.11270798
149	0xbbaf129c	-0.0053427946
150	0xbd5692b5	-0.052386004
151	0xbc79348e	-0.015210284
152	0x3d87edca	0.066371515
153	0xbd963cba	-0.073358014
154	0xbdd06153	-0.10174813
155	0xbd9cd9a6	-0.07658701
156	0x3dab4880	0.08363438
157	0xbdac0165	-0.083987035
158	0x3defdded	0.11712251
159	0x3af65cbc	0.0018795948
160	0x3d322f5a	0.04350219
161	0xb7865ada	-1.601635e-05
162	0x3d2acc81	0.041698936
163	0xbcf638bc	-0.03005635
164	0xbddc7685	-0.10764793
165	0xbdd10478	-0.102059305
166	0xbdb642b3	-0.088994406
167	0xbd80813a	-0.06274648
168	0x3cf1c9bc	0.02951514
169	0x3b89adf1	0.0042016436
170	0xbc1a9071	-0.009433852
171	0x3c1636b5	0.009168317
172	0xbd898bc8	-0.06716114
173	0xbc9aa0ca	-0.018875498
174	0xbc72545c	-0.014790621
175	0x3c52663f	0.01284176
176	0x3d35de3c	0.044401392
177	0xbd7abdca	-0.061216153
178	0xbd1e8a76	-0.038706265
179	0x3db5a6bb	0.08869692
180	0x3da51eab	0.0806249
181	0xbd8f8776	-0.07008259
182	0x3d848338	0.064703405
183	0x3d8e1bbf	0.06938886
184	0x3d6b335f	0.05742204
185	0xbdb2c947	-0.08729797
186	0xbdbfbd7a	-0.09362312
187	0x3d7bd271	0.06147999
188	0xbd016d72	-0.031598516
189	0xbd646a7a	-0.055765606
190	0xbde836c8	-0.11338574
191	0x3df120ba	0.1177382
192	0x3d7858f4	0.060631707
193	0xbce5e3a5	-0.028062651
194	0x3d0c66c7	0.034277704
195	0x3d43ee4b	0.047834676
196	0x3df66dc0	0.12032652
197	0xbd0ac763	-0.033881556
198	0xbbab9b31	-0.005237006
199	0x3cbaf7ee	0.0228233
200	0xbc8559f3	-0.016278243
201	0x3dbbda27	0.09172469
202	0xbca1c3ac	-0.019746624
203	0xbc0917a7	-0.008367456
204	0x3d300450	0.042972863
205	0xbdeee637	-0.11665004
206	0xbda78218	-0.0817911
207	0x3d54cffc	0.05195616
208	0x3ce0fc6e	0.027464118
209	0xbbcabf96	-0.0061873896
210	0x3d1167ba	0.035499312
211	0xbda3b8b4	-0.07994214
212	0x3d8961ee	0.06708132
213	0xbd5193bd	-0.051166285
214	0xbd2f1cee	-0.0427522
215	0x3d96c9b1	0.07362688
216	0x3ddf4ce9	0.10903341
217	0xbd7cfe6c	-0.061766073
218	0x3db62034	0.08892861
219	0x3d9a661f	0.07539009
220	0xbda86e89	-0.08224208
221	0x3dc2c75b	0.0951068
222	0x3d0413f6	0.0322456
223	0x3da448a6	0.08021669
224	0x3b8ec4cc	0.004356956
225	0xbdda70bf	-0.10666036
226	0xbd354497	-0.044254865
227	0xbdd84141	-0.10559321
228	0xbd5bb6ee	-0.053641252
229	0x3dbdebb1	0.0927347
230	0xbdf9c49c	-0.121957034
231	0x3d59e898	0.053200334
232	0x3d344bfd	0.04401778
233	0xbcb75e13	-0.022383725
234	0xbd31efc0	-0.043441534
235	0x3dbef2b1	0.093236335
236	0x3d294f16	0.041335188
237	0x3ce6e190	0.028183728
238	0x3dfdb524	0.123880655
239	0xbde43087	-0.11142068
240	0xbdd58903	-0.104265235
241	0x3d1ce965	0.03830852
242	0xbcd0b07c	-0.02547478
243	0x3da68be1	0.081321485
244	0xbd43f595	-0.047841627
245	0x3d371b1b	0.044703584
246	0xbd778f18	-0.0604392
247	0x3dac64df	0.08417677
248	0x3dfa1c82	0.12212469
249	0xbd045e60	-0.032316566
250	0xbdf56977	-0.119830064
251	0x3d5474a7	0.05186906
252	0x3da9e90f	0.082964055
253	0xbdd0bfcb	-0.101928316
254	0xbd3ff009	-0.046859775
255	0x3d0ffb37	0.035151687

cnn.conv_layer.1.conv.bias f4 [16]
0	0x3d0115af	0.03151482
1	0xbd7fc787	-0.062446143
2	0xbd7d4409	-0.06183246
3	0x3dcea55c	0.100901335
4	0xbdfed2ae	-0.12442528
5	0x3d8c6787	0.06855684
6	0xbd79f7a7	-0.061027195
7	0x3d93c45c	0.07215187
8	0xbddccef7	-0.10781663
9	0xbd85bb6b	-0.06529888
10	0x3dfa683a	0.12226911
11	0x3d63d458	0.05562243
12	0xbd1e03a6	-0.0385777
13	0xbc51c570	-0.01280342
14	0x3c92d4cc	0.017923735
15	0x3debdf70	0.11517227

cnn.conv_layer.1.adn.N.weight f4 [16]
0	0x3f7fc898	0.99915457
1	0x3f80151d	1.0006443
2	0x3f8005f5	1.0001818
3	0x3f7fcca1	0.99921614
4	0x3f80079d	1.0002323
5	0x3f802246	1.001046
6	0x3f800cd2	1.0003912
7	0x3f800158	1.000041
8	0x3f8017f0	1.0007305
9	0x3f8002ba	1.0000832
10	0x3f7fcef0	0.99925137
11	0x3f800576	1.0001667
12	0x3f7fdcca	0.9994627
13	0x3f7fdff5	0.99951106
14	0x3f7ffa5e	0.99991405
15	0x3f8012e8	1.000577

cnn.conv_layer.1.adn.N.bias f4 [16]
0	0x3938469a	0.00017573909
1	0x3a1f1f31	0.00060700165
2	0x3a10dcf9	0.00055260916
3	0xba74b643	-0.00093350204
4	0xb7faca45	-2.9896511e-05
5	0x39fd41a6	0.00048304832
6	0x3a17f1bc	0.0005796214
7	0xba15af87	-0.00057100545
8	0x3a50a0d9	0.00079585385
9	0x3a4b57ff	0.0007756948
10	0xba23caa3	-0.0006248152
11	0xb9839458	-0.00025096792
12	0xba0656f3	-0.0005124651
13	0xb8c8ac75	-9.568866e-05
14	0x3a7d5973	0.0009664513
15	0x3a0d1222	0.0005381425

cnn.conv_layer.1.adn.N.running_mean f4 [16]
0	0x3e861884	0.2619058
1	0x3da64093	0.08117785
2	0xbe9be2ca	-0.30446464
3	0x3e4f6978	0.20255077
4	0x3dcea51c	0.10090086
5	0x3ed1e7be	0.40997118
6	0xbeb0fa7a	-0.34566098
7	0x3ebd4e66	0.36973876
8	0xbe0b8b60	-0.13627386
9	0xbabc5977	-0.0014369924
10	0x3e86d8b5	0.2633721
11	0xbe2f1a6f	-0.17099927
12	0xbf0a80c2	-0.5410272
13	0xbe646d20	-0.22307253
14	0x3e374c04	0.17900091
15	0x3e516bb1	0.20451237

cnn.conv_layer.1.adn.N.running_var f4 [16]
0	0x3eb0d0f0	0.34534407
1	0x3ef1c493	0.47220287
2	0x3ebcbffb	0.3686522
3	0x3e8d5586	0.27604312
4	0x3e8d254a	0.27567512
5	0x3ebe0d35	0.3711945
6	0x3e9ca8cb	0.3059753
7	0x3e8c8457	0.27444717
8	0x3ef4a2b4	0.47780383
9	0x3ec6363c	0.38713253
10	0x3e916a5f	0.28401467
11	0x3f0654ea	0.5247332
12	0x3ea68d82	0.32529837
13	0x3ea1927d	0.31557074
14	0x3eb6b3e4	0.3568412
15	0x3eb833a4	0.359769

cnn.conv_layer.2.conv.weight f4 [32, 16, 2, 2, 2]
0	0x3cce9f12	0.025222335
1	0x3c21214a	0.009834597
2	0x3d22a19b	0.0397049
3	0x3d85de92	0.065365925
4	0x3db29fba	0.08721872
5	0x3cd40490	0.025881082
6	0xbd17113d	-0.036881674
7	0x3d713808	0.058891326
8	0xbc0796e8	-0.008275725
9	0xbd81292a	-0.063066795
10	0xbd330c7f	-0.04371309
11	0x3d699f93	0.057036947
12	0xbc8e10cd	-0.017341996
13	0x3db3a72e	0.08772121
14	0x3d6dff82	0.058105
15	0x3d9046f9	0.07044787
16	0xbd9c9e59	-0.0764739
17	0xbd904b96	-0.07045667
18	0xbd3f3ab0	-0.046686828
19	0x3cfa84e6	0.030580949
20	0xbba0ae0b	-0.00490356
21	0xbd1693fd	-0.036762226
22	0xbd86fb3a	-0.065908864
23	0xbd331553	-0.04372151
24	0x3d42e056	0.047577225
25	0xbd2538b5	-0.040337283
26	0x3c41867f	0.0118118515
27	0x3d1e538e	0.038653903
28	0x3c8ae6b9	0.01695572
29	0x3da732ba	0.08163972
30	0xbc864ec8	-0.016394988
31	0xbcaedba0	-0.02134496
32	0x3da7a989	0.08186633
33	0xbd151154	-0.03639348
34	0x3d9b193a	0.07573171
35	0x3dae8d13	0.085230015
36	0xbd6bd97b	-0.057580452
37	0xbc8c9b30	-0.017163843
38	0x3d343d87	0.04400399
39	0x3bfb93fa	0.0076775523
40	0xbda09c2a	-0.07842286
41	0xbc93392c	-0.017971598
42	0x3d919fe7	0.07110577
43	0xbd72278e	-0.059119754
44	0xbd172603	-0.036901485
45	0xbd872bfb	-0.066001855
46	0x3ce110f7	0.02747391
47	0x3d76b1fd	0.060228337
48	0xbdb55cf1	-0.08855618
49	0xbc31b0c0	-0.010845363
50	0xbd342a80	-0.043985844
51	0xbdac5bf3	-0.084159754
52	0x3bb01d02	0.0053745518
53	0xbd202508	-0.039097816
54	0x3c33f95b	0.010984744
55	0xbbc69e1d	-0.006061329
56	0x3c2c7f17	0.010528347
57	0xbbf17138	-0.007368233
58	0x3ccf65da	0.025317121
59	0xbd60036c	-0.054690763
60	0x3da35e16	0.0797693
61	0xbd1d0071	-0.0383305
62	0xbd99b1be	-0.07504605
63	0xbc095c21	-0.008383782
64	0xbcfc0d2a	-0.030767996
65	0x3d12f9e3	0.03588284
66	0xbd914f8d	-0.07095251
67	0x3d82d5b9	0.063884206
68	0x3d7f1c53	0.06228287
69	0x3d03cbe1	0.032176856
70	0xbd650f87	-0.05592301
71	0x3d265060	0.040603995
72	0x3d51256a	0.05106107
73	0x3bb09c8e	0.0053897565
74	0xbd100e05	-0.03516962
75	0x3cea249f	0.028581915
76	0xbcc99f78	-0.024612173
77	0x3d49afbd	0.049239863
78	0xbd3207cb	-0.043464463
79	0x3d955f07	0.07293516
80	0x3dae6338	0.08515018
81	0xbd347895	-0.04406031
82	0x3b2c266d	0.002626802
83	0xbdb32932	-0.08748092
84	0xbd906935	-0.07051317
85	0xbceb2d68	-0.028708175
86	0xbd995939	-0.07487721
87	0x3d0a630e	0.033785872
88	0x3d4fa0c6	0.050690435
89	0xbd309248	-0.043108255
90	0x3d16bcef	0.036801275
91	0xbda8d2fb	-0.08243366
92	0x3d4603a1	0.048343305
93	0xbcff15da	-0.03113835
94	0xbc822c94	-0.015890397
95	0x3ca00309	0.019532697
96	0xbda675e5	-0.08127955
97	0xbd3122ed	-0.0432462
98	0xbd985376	-0.07437794
99	0x3d04da57	0.032434788
100	0xbd9c23e4	-0.07624033
101	0xbca00329	-0.019532757
102	0xbce455f3	-0.027873015
103	0xbd551d27	-0.052029755
104	0xbd996164	-0.07489279
105	0x3d4ba110	0.049714148
106	0xbda1c34f	-0.0789858
107	0x3d960b26	0.07326345
108	0xbd40f3eb	-0.04710762
109	0xbd76a1ff	-0.060213085
110	0xbc96aa65	-0.018391797
111	0x3cc910a7	0.024544073
112	0xbd9b9b0b	-0.075979315
113	0xbdb38bed	-0.08766923
114	0xbaa8ed30	-0.001288807
115	0x3d62896c	0.055306837
116	0xbd674e88	-0.056471378
117	0xbd2eac6d	-0.042644907
118	0x3d84e1b2	0.064883605
119	0xbd75c62d	-0.06000345
120	0x3dab4fda	0.0836484
121	0xbda500b6	-0.08056776
122	0xbcd683b3	-0.026185846
123	0xbcb0c62a	-0.021578867
124	0x3d645ea4	0.05575432
125	0xbdb04781	-0.08607388
126	0x3d89c3aa	0.06726773
127	0xbc95fc74	-0.018308856
128	0x3d02b52e	0.031911068
129	0x3c94aa7c	0.0181477
130	0x3d1c214a	0.038117684
131	0xba5bf001	-0.00083899504
132	0xbd698bc2	-0.05701805
133	0x3d75c259	0.059999797
134	0xbd16c899	-0.0368124
135	0x3bcac98d	0.0061885775
136	0xbdafe09e	-0.08587764
137	0x3d214118	0.03936872
138	0xbdacae3b	-0.08431669
139	0x3c9147ce	0.017734434
140	0x3d0f3ee6	0.034972094
141	0x3d4e4ea7	0.050367977
142	0x39fa41df	0.00047732794
143	0xbb984784	-0.004647197
144	0xbb8613bc	-0.004091708
145	0xbd2822c9	-0.0410488
146	0xbca9a89e	-0.020710286
147	0xbd7cc87d	-0.061714638
148	0xbd02b5d9	-0.031911705
149	0x3cc789b4	0.024357654
150	0x3d17b219	0.03703508
151	0x3d996d58	0.07491559
152	0x3d92e93b	0.071733914
153	0x3d0e49af	0.03473824
154	0xbda48173	-0.08032503
155	0xbcc60091	-0.024170192
156	0xbc8d120f	-0.017220525
157	0xbdaf3434	-0.08554879
158	0xbd2dff85	-0.04248001
159	0x3d8718b7	0.06596511
160	0x3d6fee5d	0.05857693
161	0xbd04195c	-0.032250747
162	0xbb92c5c9	-0.0044791442
163	0xbd83d3d7	-0.064368896
164	0xbcab8d61	-0.020941438
165	0xbd9f127e	-0.07767199
166	0x3d183b33	0.03716583
167	0x3d8a7369	0.06760294
168	0xbd675e65	-0.056486506
169	0x3d9de568	0.077097714
170	0x3bb23f62	0.0054396847
171	0xbd041c14	-0.03225334
172	0xbbb25902	-0.0054427395
173	0xbd15e9ca	-0.03659991
174	0xbd82f0a4	-0.06393555
175	0xbbc4d3bb	-0.0060066856
176	0xbda6c184	-0.08142379
177	0x3d2138ea	0.039360918
178	0x3d608cbb	0.05482171
179	0xbd681a73	-0.05666585
180	0xbb1c8a7f	-0.002388626
181	0x3d4739c5	0.048639078
182	0xbd16f5ed	-0.036855627
183	0xbd236f83	-0.039901268
184	0x3d04c70a	0.03241638
185	0xbca314e1	-0.019907417
186	0x3d9e9403	0.07743075
187	0xbc5c431a	-0.013443733
188	0x3dab942a	0.083778694
189	0xbd2cfa18	-0.042230695
190	0x3da1bcc8	0.07897335
191	0x3d615ca6	0.055019997
192	0xbd3fec27	-0.04685607
193	0xbcaebedd	-0.021331245
194	0xbc6cd0fc	-0.014454123
195	0xbd9eb209	-0.07748801
196	0xbc60989f	-0.013708263
197	0x3c87b405	0.016565332
198	0x3cf13ac6	0.02944697
199	0x3c83267d	0.016009564
200	0xbdb2ffe8	-0.087402165
201	0x3c354608	0.01106406
202	0xbb6f1064	-0.0036478275
203	0xbd2e3e53	-0.042539906
204	0xbd87cb4e	-0.06630574
205	0x3d9d5e96	0.076840565
206	0x3da8f6ee	0.08250223
207	0x3d5b3be3	0.05352391
208	0xbb8d1b95	-0.0043062665
209	0x3d942feb	0.07235702
210	0x3d9d79f8	0.07689279
211	0xbd9fed59	-0.07808942
212	0x3ce8121b	0.028328946
213	0xbcf98700	-0.03045988
214	0x3ca5f6fc	0.020259373
215	0x3cd5c2b3	0.026093816
216	0x3da91d18	0.08257502
217	0x3d86a5ef	0.06574618
218	0xbd341cec	-0.043972895
219	0xbd908f39	-0.070585676
220	0xbd5452ed	-0.051836897
221	0xbce7b2d7	-0.02828352
222	0x3c640279	0.013916605
223	0x3d3b66a8	0.045752198
224	0xbd52d2f2	-0.051470704
225	0xbd7fff01	-0.06249905
226	0x3d9361b5	0.071963705
227	0x3c7144e8	0.014725901
228	0x3d9e9bae	0.07744537
229	0xbd94a3a0	-0.072577715
230	0xbdae3ec7	-0.085080676
231	0xbd584bf9	-0.05280683
232	0xbd383c96	-0.044979654
233	0xbd97fefd	-0.07421682
234	0xbd058246	-0.03259494
235	0xbd106bae	-0.03525894
236	0xbcf22ce3	-0.02956242
237	0x3d936357	0.07196682
238	0x3cebc322	0.02877957
239	0x3cb99e0d	0.022658372
240	0xbd5b8b5d	-0.053599704
241	0xbce2834b	-0.027650496
242	0x3bc3e6c4	0.005978437
243	0xbd82a6ed	-0.06379495
244	0x3d47e3a2	0.048801072
245	0x3d56a42c	0.05240266
246	0xbdb05491	-0.0860988
247	0xbdae8c78	-0.08522886
248	0xbb7db1e2	-0.0038710763
249	0x3d64cd20	0.055859685
250	0x3d44d513	0.048054766
251	0x3a971886	0.0011527694
252	0x3c85c643	0.01632989
253	0xbd8eb71b	-0.06968518
254	0x3c3b2e0e	0.0114245545
255	0x3d312d3b	0.043256026

cnn.conv_layer.2.conv.bias f4 [32]
0	0xbdac3e78	-0.084103525
1	0x3d12c495	0.035832006
2	0x3d40115c	0.046891555
3	0x3d3a1151	0.04542667
4	0xbc50d939	-0.012747102
5	0x3d852b94	0.065024525
6	0x3d29298b	0.041299384
7	0xbd88c2e2	-0.06677796
8	0x3c98470c	0.018588565
9	0x3d7cfe4d	0.061765958
10	0x3c2dc466	0.010605907
11	0x3d404e39	0.0469496
12	0x3d83ffa5	0.06445245
13	0x3cb97f70	0.022643775
14	0xbd75e910	-0.06003672
15	0xbc986b40	-0.018605828
16	0xbcbd9a50	-0.023144871
17	0xbcb282e1	-0.021790924
18	0x3b940540	0.0045172274
19	0x3d2874dc	0.04112707
20	0x3d084133	0.033265304
21	0xbd87c6ee	-0.0662974
22	0x3caa9b5e	0.020826038
23	0x3d62b9fa	0.055353142
24	0x3d58f708	0.052969962
25	0xbd1e075b	-0.038581233
26	0xbd9d2da0	-0.07674718
27	0x3a880d7b	0.0010379994
28	0x3c29dea0	0.010368019
29	0xbb17503b	-0.0023088593
30	0x3dadf209	0.0849343
31	0xbd9e4d5f	-0.07729601

cnn.conv_layer.2.adn.N.weight f4 [32]
0	0x3f800676	1.0001972
1	0x3f7fd688	0.99936724
2	0x3f7fbbf1	0.9989615
3	0x3f7feec9	0.9997373
4	0x3f7ff879	0.99988514
5	0x3f7fcd1f	0.99922365
6	0x3f80237a	1.0010827
7	0x3f80097d	1.0002896
8	0x3f801718	1.0007048
9	0x3f800a72	1.0003188
10	0x3f801f0e	1.0009477
11	0x3f7ff92c	0.9998958
12	0x3f7fd67b	0.99936646
13	0x3f801b65	1.000836
14	0x3f8008a5	1.0002638
15	0x3f7fdbaf	0.99944586
16	0x3f7fcae3	0.99918956
17	0x3f8008eb	1.0002722
18	0x3f800345	1.0000998
19	0x3f7fcb4c	0.9991958
20	0x3f7fc19d	0.99904805
21	0x3f800f17	1.0004605
22	0x3f8013e7	1.0006074
23	0x3f7fb923	0.9989187
24	0x3f802524	1.0011334
25	0x3f8023ce	1.0010927
26	0x3f800875	1.0002581
27	0x3f7fec5a	0.9997002
28	0x3f7fcdbb	0.99923295
29	0x3f7fcbaf	0.9992017
30	0x3f7ff132	0.9997741
31	0x3f8018e9	1.0007602

cnn.conv_layer.2.adn.N.bias f4 [32]
0	0x3a446222	0.00074914296
1	0xba333afe	-0.00068370986
2	0xba4d4d4f	-0.0007831649
3	0xba95f6a9	-0.0011441308
4	0xb95f04b4	-0.0002126869
5	0xba554d50	-0.00081368256
6	0xb9e6b361	-0.00044002666
7	0x3a077a2d	0.0005168047
8	0x3a42d68c	0.00074324827
9	0x3a4205fe	0.00074014056
10	0x3a6ea898	0.0009104102
11	0x3a090cd6	0.0005228048
12	0xba45da60	-0.0007547494
13	0x38e8d00a	0.000111013724
14	0x398ea5f5	0.00027207998
15	0x3a2b2749	0.0006528986
16	0xba187e0b	-0.0005817122
17	0x3a155c05	0.0005697611
18	0x3a75064e	0.0009346948
19	0xba850f8f	-0.0010151732
20	0xba670bab	-0.00088136893
21	0xb987b319	-0.00025882645
22	0x3a5e8e49	0.000848983
23	0xba8dd7f6	-0.0010821808
24	0x3a5f9372	0.0008528746
25	0x3a908a00	0.0011027455
26	0x3a47638f	0.0007606083
27	0x3a0d033e	0.0005379206
28	0x39581e37	0.00020610621
29	0xba93e31c	-0.0011282894
30	0x3a504a44	0.0007945637
31	0x3a69efa9	0.0008923957

cnn.conv_layer.2.adn.N.running_mean f4 [32]
0	0xbe8973af	-0.26846072
1	0xbd66e61b	-0.05637179
2	0x3e6d91d7	0.23200165
3	0xbe42b042	-0.1901255
4	0xbce144c8	-0.027498618
5	0x3e03a101	0.12854387
6	0x3ea6feb7	0.32616207
7	0xbdd3c3eb	-0.10340103
8	0x3eb0ad1b	0.3450707
9	0x3e8ade96	0.27122945
10	0x3ed01b07	0.4064562
11	0x3ed0e9ce	0.4080338
12	0x3e0e8c45	0.13920696
13	0xbd0bcdc4	-0.03413178
14	0xbebc1b63	-0.36739644
15	0xbdae1e09	-0.085018225
16	0xbe81cf94	-0.25353682
17	0x3debec64	0.11519697
18	0x3d47f75d	0.04881989
19	0x3db135a3	0.086528085
20	0x3e028b5e	0.12748477
21	0xbe4f8f9e	-0.2026963
22	0xbe537729	-0.20650925
23	0xbe8ddb59	-0.2770641
24	0xbe1192ee	-0.14216205
25	0xbe743cf0	-0.23851371
26	0xbee81207	-0.45326254
27	0x3ed703fb	0.41995224
28	0xbe7e879b	-0.24856417
29	0x3cc04886	0.023472082
30	0x3e42e9db	0.19034521
31	0xbe46b84e	-0.19406244

cnn.conv_layer.2.adn.N.running_var f4 [32]
0	0x3ea643fa	0.32473737
1	0x3e865d34	0.26242983
2	0x3ed99643	0.42497453
3	0x3eb2710b	0.3485187
4	0x3eada7e2	0.33917147
5	0x3e9ce539	0.30643633
6	0x3eb267cc	0.34844816
7	0x3e9967c4	0.2996198
8	0x3ec4d477	0.38443348
9	0x3f136809	0.5758062
10	0x3ef6fa7c	0.4823798
11	0x3f01d673	0.5071785
12	0x3e91d59c	0.28483284
13	0x3ead6be2	0.3387137
14	0x3eeb18ef	0.4591746
15	0x3eb47ec5	0.35252967
16	0x3edc6679	0.4304693
17	0x3ea7e1a7	0.32789347
18	0x3e915f66	0.28393096
19	0x3ebd890e	0.37018627
20	0x3ea27a56	0.3173396
21	0x3ec7109a	0.38879853
22	0x3ec82e85	0.39097992
23	0x3f12e0a4	0.57374024
24	0x3ea553fc	0.32290637
25	0x3ec7b628	0.39006162
26	0x3ed01342	0.40639693
27	0x3f212eac	0.6296184
28	0x3ef40214	0.47657835
29	0x3ea12110	0.31470537
30	0x3ec0943f	0.37613103
31	0x3e94c93c	0.2905978

cnn.conv_layer.3.conv.weight f4 [64, 32, 2, 2, 2]
0	0xbd224227	-0.03961387
1	0xbae88c20	-0.0017741956
2	0xbd16c777	-0.03681132
3	0x3d19089e	0.037361734
4	0x3d5c8c53	0.05384476
5	0xbd497e78	-0.049192876
6	0x3d4b5588	0.049642116
7	0xbd142727	-0.03617015
8	0x3c1ae8a6	0.009454882
9	0x3d346bcd	0.04404812
10	0xbcc14ce3	-0.023596233
11	0x3cac365a	0.02102201
12	0xbd2ac014	-0.041687086
13	0x3c12a3ee	0.008950217
14	0xbd192dab	-0.037397068
15	0xbcfbfcba	-0.030760158
16	0xbadff696	-0.0017087038
17	0xbcf70b89	-0.030156868
18	0xbc0294e3	-0.007970068
19	0x3ccfec61	0.025381269
20	0x3ce1787d	0.027523274
21	0xbcc072e2	-0.02349228
22	0x3d0bca1f	0.034128305
23	0xbd34fce2	-0.04418648
24	0xbcfded01	-0.030996801
25	0x3d20658d	0.039159346
26	0x3cb64027	0.022247387
27	0x3d000f96	0.031264864
28	0xbc549849	-0.012975761
29	0xbcc1fdfc	-0.02368068
30	0x3d2808e0	0.04102409
31	0x3d7105d7	0.05884346
32	0x3d40be34	0.04705639
33	0x3cdbef9b	0.026847651
34	0x3d3871be	0.045030348
35	0x3c5bd744	0.013418023
36	0x3bb699a2	0.0055725137
37	0x3b9152ab	0.0044349036
38	0xbc900021	-0.017578186
39	0x3c6bc2de	0.014389722
40	0xbd042ed7	-0.032271232
41	0xbc951d1e	-0.01820236
42	0x3c9f31bb	0.019432893
43	0x3cca1bea	0.024671514
44	0xbd16a796	-0.036780916
45	0x3b0840be	0.0020790542
46	0x3d7b3219	0.061327074
47	0x3d802d4a	0.06258638
48	0xbc1f203b	-0.009712274
49	0x3d1686a6	0.036749505
50	0x3c93b82d	0.018032158
51	0xbc19cd9e	-0.009387402
52	0x3d3dd368	0.04634419
53	0x3d2f7328	0.04283443
54	0xbd15690a	-0.036477126
55	0x3d41b396	0.047290407
56	0xbd3122b1	-0.043245975
57	0x3d774f9a	0.06037865
58	0x3d476de6	0.04868879
59	0x3d644b24	0.055735722
60	0xbd5628ce	-0.052285008
61	0x3d5f96b2	0.054587074
62	0xbbe1b808	-0.0068883933
63	0x3aa143d3	0.0012303538
64	0xbd31a78a	-0.04337267
65	0x3ca1b0bb	0.019737592
66	0xbd672e55	-0.05644067
67	0x3d2580dc	0.040406093
68	0xbc73c92c	-0.014879506
69	0xbc513aed	-0.012770397
70	0x3d3146db	0.043280464
71	0xbab05c80	-0.0013455302
72	0xbd71b0c5	-0.05900647
73	0xbc9ae407	-0.01890756
74	0xbd37777f	-0.044791695
75	0x3d416d86	0.04722359
76	0xbd5b5b9d	-0.053554166
77	0xbd7e96a5	-0.062155385
78	0xbd125c10	-0.03573233
79	0x3d4b9b94	0.049708918
80	0xbc529dff	-0.012855052
81	0x3ce701c3	0.028199082
82	0xbd23e717	-0.040015306
83	0xbc42848f	-0.011872425
84	0xbd47ec08	-0.04880908
85	0xbc61e4bb	-0.013787444
86	0xbc8d3af0	-0.017240018
87	0x3c96735f	0.01836556
88	0xbd21e010	-0.039520323
89	0xbcf7c48f	-0.030245094
90	0x3d75bd9e	0.059995286
91	0xbd4412a0	-0.047869325
92	0x3cad5e2e	0.021163072
93	0xbc10215e	-0.008797018
94	0x3d6f484a	0.05841855
95	0xbae2dc2a	-0.0017308046
96	0xbd2c2cf1	-0.042035047
97	0x3c76d126	0.015064513
98	0x3d7c780e	0.06163793
99	0xbc372c5c	-0.01118001
100	0xbd3c4b6a	-0.045970358
101	0x3cf34f83	0.029701
102	0x3d7ae665	0.061254878
103	0x3d08db56	0.0334123
104	0x3acbf18f	0.0015559661
105	0xbcd1bb17	-0.025601907
106	0x3ca002c8	0.019532576
107	0x3b513e4c	0.0031928
108	0xbbaf2a15	-0.0053455927
109	0x3d2b5387	0.041827705
110	0xbcda628d	-0.02665832
111	0x3d0f06e8	0.034918696
112	0xbc15ab84	-0.009135131
113	0xbd65ee8d	-0.056135703
114	0xbd79e4bb	-0.06100915
115	0x3d18f6ca	0.03734473
116	0x3d067b57	0.03283247
117	0x3d7afb94	0.06127508
118	0xbd2e0c97	-0.042492475
119	0xbd75d2dd	-0.060015548
120	0xbb3888be	-0.0028157677
121	0xba8d1b40	-0.0010765567
122	0x3d52bec6	0.051451467
123	0xbd3b325c	-0.045702323
124	0x3c3ff7a2	0.011716755
125	0x3d096cc3	0.03355099
126	0x3c376c30	0.0111952275
127	0xbd083877	-0.033256974
128	0xbd786359	-0.06064162
129	0xbd7ab606	-0.061208747
130	0x3d139247	0.036028173
131	0xbd534eb2	-0.05158872
132	0xbc87cb9c	-0.01657658
133	0xbd223030	-0.039596736
134	0xbd039c33	-0.032131385
135	0xbbf254ad	-0.007395348
136	0x3c961624	0.018321104
137	0x3b751be4	0.0037400657
138	0x3b875b28	0.0041307397
139	0xbc51ea86	-0.012812262
140	0x3b97c91d	0.004632129
141	0xbd1eda4b	-0.0387824
142	0x3d060c92	0.03272683
143	0x3c5ddf5b	0.013542022
144	0x3d295c1e	0.041347615
145	0x3cc8788e	0.024471547
146	0xbd78712f	-0.060654815
147	0x3d20e4fd	0.03928088
148	0xbd200af1	-0.039072935
149	0x3d690db3	0.05689783
150	0x3d43d072	0.04780621
151	0x3c6ab4a8	0.014325298
152	0x3d171a25	0.036890168
153	0x3cc13290	0.02358368
154	0xbd590baa	-0.05298964
155	0xbd3c3360	-0.045947433
156	0x3d027dd2	0.031858273
157	0xbd45a36e	-0.04825156
158	0xbc51fc23	-0.012816462
159	0xbc5aca6e	-0.013353927
160	0x3c1b91f7	0.00949525
161	0x3cd2bd81	0.025725128
162	0x3d42c151	0.047547642
163	0x3d806315	0.062688984
164	0xbba7ebdc	-0.005124552
165	0xbd2828c9	-0.04105452
166	0xbadc9968	-0.0016830387
167	0xbd1ec674	-0.03876348
168	0xbd0ae1f2	-0.033906884
169	0x3d5a9e0e	0.05337339
170	0x3d546dcf	0.051862534
171	0xbcd74139	-0.026276218
172	0x3d590bf3	0.05298991
173	0x3d501d28	0.050809056
174	0xbd078800	-0.033088684
175	0x3d674339	0.056460593
176	0x3ccff1e7	0.025383903
177	0x3cb743a0	0.022371113
178	0x3bd1a2a6	0.006397563
179	0xbc8cfd03	-0.01721049
180	0x3cf8ec82	0.030386213
181	0x3d6cebba	0.057841994
182	0x3d748982	0.05970145
183	0x3b5e5ef7	0.0033931115
184	0x3d444af5	0.047923047
185	0x3c109a3d	0.008825836
186	0xbd63ab6d	-0.055583406
187	0x3d4abe1c	0.04949771
188	0x3d57533b	0.05256961
189	0x3d007f98	0.031371683
190	0xbd1101c5	-0.03540208
191	0xbd754cd5	-0.059887726
192	0xbc8a386a	-0.016872603
193	0x3d386f35	0.04502793
194	0xbcc16167	-0.023606015
195	0x3d25f37c	0.040515408
196	0xbd4cb90c	-0.049981162
197	0x3b1e9145	0.0024195474
198	0xbcdffcdb	-0.02734225
199	0xbd1793e2	-0.037006266
200	0x3d6a6aaf	0.057230648
201	0x3cd12fa1	0.025535407
202	0xbc5aa490	-0.013344899
203	0x3ca159d2	0.01969615
204	0x3d627a79	0.05529258
205	0x3d6a01f7	0.05713078
206	0x3c0e0992	0.008669274
207	0x3d2ca820	0.042152524
208	0xbb8bd8bd	-0.0042677806
209	0xbc19412a	-0.009353915
210	0x3ab8ac50	0.0014089439
211	0x3d38d0dc	0.04512106
212	0x3c717623	0.014737639
213	0x3d79313a	0.06083796
214	0x3d381b30	0.044947803
215	0xbd38a317	-0.04507741
216	0x3d5446e8	0.051825434
217	0xbd65c52e	-0.05609625
218	0xbd2f8303	-0.042849552
219	0xbd2e9cf1	-0.04263014
220	0xbb75db27	-0.0037514658
221	0xbd5050d4	-0.050858334
222	0xbd3319c0	-0.04372573
223	0x3d14e3dd	0.03635012
224	0x3ca936ee	0.020656075
225	0x3d674058	0.056457847
226	0x3cafa4a5	0.021440813
227	0xbbdcc286	-0.006737056
228	0x3cfe8655	0.031069914
229	0xbcaf9817	-0.021434827
230	0x3d31cae9	0.0434064
231	0x3cc336f9	0.023829924
232	0x3ceb5da9	0.028731184
233	0x3cc361db	0.023850372
234	0xbd766403	-0.060153972
235	0x3cc600d2	0.024170313
236	0x3d09640b	0.033542674
237	0x3d7864a5	0.060642857
238	0xbbdcd414	-0.006739149
239	0xbd52fc2a	-0.051510014
240	0x3d7f0692	0.062262125
241	0x3cc4ee1d	0.024039323
242	0x3d47fd35	0.04882546
243	0x3d427585	0.047475357
244	0x3caf0bd2	0.021367941
245	0x3d7c0131	0.061524574
246	0xbc970a3d	-0.0184375
247	0xbd6e6265	-0.058199305
248	0x3d22f45f	0.03978383
249	0xbd7bba07	-0.061456706
250	0x3d043489	0.032276664
251	0xbd12cf29	-0.035842095
252	0xbcaf62b4	-0.02140937
253	0x3cbe41a1	0.023224654
254	0x3d20d28f	0.039263304
255	0x3b18950d	0.00232822

cnn.conv_layer.3.conv.bias f4 [64]
0	0x3d241efd	0.040068615
1	0x3c0af294	0.008480687
2	0x3c6b61ae	0.01436655
3	0x3d35aa58	0.044351906
4	0x3caafc32	0.02087221
5	0xbce7cfef	-0.028297393
6	0x395fe050	0.000213505
7	0xbd52fd98	-0.051511377
8	0xbd4f88d3	-0.050667595
9	0xbc45fd15	-0.012084265
10	0xbc02ed9f	-0.007991224
11	0xbd43c5f0	-0.04779619
12	0x3b97c9b5	0.0046321996
13	0x3d21e84e	0.039528184
14	0xbd4d3f6f	-0.050109323
15	0xbceb1580	-0.028696775
16	0x3c0b8ec6	0.008517927
17	0xbc75e6bb	-0.015008624
18	0x3cc33939	0.023830997
19	0xbb46808f	-0.003028903
20	0x3d192221	0.037386063
21	0xbd31bc3d	-0.04339241
22	0x3d2752a5	0.0408503
23	0xbd466fe8	-0.048446566
24	0xbcbc517e	-0.022988077
25	0xbc53e970	-0.012934074
26	0x3cf585b8	0.029970989
27	0xba1794b4	-0.00057823514
28	0xbbe582dc	-0.007004125
29	0xbc8d8d3d	-0.017279262
30	0xbd1eff37	-0.03881761
31	0xbb96c8a4	-0.004601555
32	0xbc0e5a49	-0.008688518
33	0x3c79c68f	0.015245094
34	0x3ce9752b	0.028498253
35	0x3d0898bd	0.033348788
36	0xbd4e8a05	-0.050424594
37	0xbbec959d	-0.0072199837
38	0x3d74bffd	0.059753407
39	0xbd61cd50	-0.055127442
40	0xbb64ccd0	-0.0034912117
41	0xbd6a9d6c	-0.057279035
42	0x3c3537aa	0.011060635
43	0x3d0a9389	0.033832107
44	0xbd5687a7	-0.052375462
45	0x3d6a4800	0.05719757
46	0x3ca5bf43	0.020232802
47	0x3c09789d	0.008390573
48	0x3c8fa605	0.017535219
49	0x39c53227	0.00037612134
50	0xbb2fac3f	-0.0026805548
51	0xbd77d980	-0.06051016
52	0x3b60fe4a	0.0034331256
53	0xbd481807	-0.04885104
54	0xbd150fec	-0.036392137
55	0x3d1e2625	0.038610596
56	0x3d2a18d7	0.041527595
57	0x3c6bb8ad	0.014387292
58	0x3d2785f2	0.040899225
59	0xbd1dac48	-0.03849438
60	0x3c8fb270	0.01754114
61	0xbcc285a1	-0.02374536
62	0xbcfb3536	-0.030665021
63	0xbd53e7f3	-0.051734876

cnn.conv_layer.3.adn.N.weight f4 [64]
0	0x3f800dde	1.0004232
1	0x3f7fbf61	0.99901396
2	0x3f801660	1.0006828
3	0x3f7fc859	0.9991508
4	0x3f800a63	1.000317
5	0x3f802530	1.0011349
6	0x3f7fbc1e	0.9989642
7	0x3f80126e	1.0005624
8	0x3f80181a	1.0007355
9	0x3f800ac8	1.000329
10	0x3f801b2f	1.0008296
11	0x3f7fbdf9	0.9989925
12	0x3f802622	1.0011637
13	0x3f7ffc31	0.9999419
14	0x3f7fdb9e	0.99944484
15	0x3f801c4e	1.0008638
16	0x3f7fc4ef	0.9990987
17	0x3f800c64	1.0003781
18	0x3f8018e3	1.0007595
19	0x3f80217c	1.0010219
20	0x3f802182	1.0010226
21	0x3f7ff0e5	0.9997695
22	0x3f7fbf2e	0.9990109
23	0x3f801637	1.000678
24	0x3f7fd490	0.9993372
25	0x3f8019a8	1.000783
26	0x3f8014b9	1.0006324
27	0x3f7ff830	0.9998808
28	0x3f7fc0be	0.99903476
29	0x3f7fc615	0.99911624
30	0x3f7fb5d9	0.9988685
31	0x3f8020ea	1.0010045
32	0x3f802641	1.0011674
33	0x3f801cdb	1.0008806
34	0x3f7fc5de	0.99911296
35	0x3f7fc08c	0.9990318
36	0x3f801f91	1.0009633
37	0x3f802136	1.0010135
38	0x3f7fc6d0	0.9991274
39	0x3f7fd900	0.9994049
40	0x3f7fbc8f	0.9989709
41	0x3f7fc63d	0.9991186
42	0x3f7ffe64	0.99997544
43	0x3f80254f	1.0011386
44	0x3f801fd2	1.0009711
45	0x3f7fc788	0.99913836
46	0x3f7fb808	0.99890184
47	0x3f7fc937	0.99916404
48	0x3f7fd7c9	0.99938637
49	0x3f7fb277	0.9988169
50	0x3f801feb	1.000974
51	0x3f7fbd69	0.9989839
52	0x3f801480	1.0006256
53	0x3f800852	1.0002539
54	0x3f801659	1.000682
55	0x3f800eae	1.000448
56	0x3f801536	1.0006473
57	0x3f8022c7	1.0010613
58	0x3f801281	1.0005647
59	0x3f7ff9be	0.9999045
60	0x3f7fb5b1	0.99886614
61	0x3f7fd714	0.9993756
62	0x3f7fca71	0.99918276
63	0x3f801981	1.0007783

cnn.conv_layer.3.adn.N.bias f4 [64]
0	0x3a0a008c	0.0005264364
1	0xba75fe73	-0.0009383924
2	0x3a681d90	0.0008854503
3	0xba4132dd	-0.0007369945
4	0x397444cb	0.0002329528
5	0x3a8eca21	0.0010893979
6	0xba941bca	-0.0011299786
7	0xb98a8ad4	-0.00026424846
8	0x3a40e8a2	0.0007358884
9	0xba512e65	-0.00079796306
10	0x3a5c8a60	0.00084129535
11	0xba880345	-0.0010376951
12	0x3a4dbff3	0.0007848732
13	0x37c7b254	2.380569e-05
14	0xb9c75b5c	-0.00038024306
15	0x3a6d717d	0.00090577436
16	0xba450816	-0.00075161585
17	0x3921ffb8	0.00015449419
18	0xb946c1e4	-0.00018954981
19	0x3a86a139	0.0010271437
20	0x3a4d8dba	0.00078412483
21	0x3a07b468	0.0005176724
22	0xba8f59e1	-0.001093682
23	0x3a519d6d	0.00079961756
24	0xba7a3daf	-0.0009545935
25	0x3a0bb66b	0.00053296116
26	0x3a3c9dcf	0.0007195146
27	0xb9825370	-0.00024857698
28	0xba4968fa	-0.0007683184
29	0xba2b75b6	-0.00065406726
30	0xba8d5f3f	-0.0010785832
31	0x3a55328f	0.0008132839
32	0x3a99752e	0.0011707896
33	0x3a63390d	0.0008667864
34	0xba508a8e	-0.00079552166
35	0xba747ead	-0.00093267375
36	0x3a9d70d4	0.0012011775
37	0x3a45c535	0.000754434
38	0xba2f0a19	-0.0006677225
39	0xba38d407	-0.00070506375
40	0xba7c1303	-0.000961587
41	0xba5d7a8a	-0.00084487407
42	0x3a467c87	0.00075716566
43	0x3a8ba16c	0.0010652966
44	0x3a818089	0.0009880225
45	0xba5e2f2a	-0.0008475656
46	0xbaa9522e	-0.0012918168
47	0x3a05369d	0.00050816854
48	0xb99b98a0	-0.00029677618
49	0xbaa21b9f	-0.0012367851
50	0x3a66729c	0.0008790882
51	0x38a81c56	8.016142e-05
52	0x39af3b02	0.00033422565
53	0xb9b02593	-0.0003359733
54	0x3a14519c	0.00056579127
55	0x3a4f861f	0.0007916409
56	0x3a617568	0.0008600564
57	0x3a66ae5f	0.0008799787
58	0x39fd2fad	0.00048291442
59	0x39e2e9c1	0.0004328024
60	0xba7def01	-0.00096867984
61	0xba253614	-0.0006302309
62	0xb96a350c	-0.0002233574
63	0x3a55e772	0.0008159793

cnn.conv_layer.3.adn.N.running_mean f4 [64]
0	0x3ecd7df8	0.4013517
1	0x3ddac32c	0.10681757
2	0xbd25f54e	-0.040517144
3	0xbe0898f9	-0.13339604
4	0xbebea9da	-0.3723896
5	0xbe4c48a1	-0.1994958
6	0x3d03d908	0.0321894
7	0x3f0e0010	0.55468845
8	0x3e3f8ee9	0.1870686
9	0xbe7e231d	-0.24818082
10	0x3f03b7a2	0.51452076
11	0xbd88b590	-0.06675255
12	0x3e3cc236	0.1843346
13	0xbe0a5bd3	-0.1351159
14	0x3e0d2b0e	0.13785955
15	0x3d3fba1a	0.04680834
16	0xbe4c0b14	-0.19926101
17	0xbe43b82e	-0.19113228
18	0xbea03838	-0.31292892
19	0xbdb19e01	-0.08672715
20	0xbe98f128	-0.29871488
21	0x3e277fa3	0.16357283
22	0x3af3c864	0.001859915
23	0xbd4f17c7	-0.050559785
24	0xbe22a251	-0.15882231
25	0xbc24a25f	-0.010048478
26	0xbcabd190	-0.02097395
27	0xbebada4f	-0.3649468
28	0x3da0be17	0.07848757
29	0x3ea3b18f	0.31971404
30	0xbe69d143	-0.22833733
31	0x3cd62e2e	0.026145067
32	0x3e8d5567	0.2760422
33	0x3d6f23e2	0.05838383
34	0xbe4c6656	-0.19960913
35	0x3e1b3823	0.15158133
36	0xbebe1df4	-0.37132227
37	0x3e88f798	0.267514
38	0x3e8a5f9c	0.2702607
39	0x3e921784	0.28533566
40	0x3e0894bf	0.13337992
41	0x3eaa3049	0.33239964
42	0xbeca4e3f	-0.39512822
43	0xbe13b1ed	-0.14423342
44	0xbb9902b0	-0.00466951
45	0x3c1c0bfa	0.00952434
46	0x3dea435e	0.114386305
47	0xbdbbf295	-0.09177128
48	0x3df77a50	0.12083876
49	0xbe985790	-0.29754305
50	0x3e8e212f	0.27759692
51	0x3e2dc6dc	0.1697039
52	0xbe798cf1	-0.24370171
53	0x3e729c82	0.23692515
54	0xbc66220d	-0.014046204
55	0x3e828ca4	0.25497925
56	0x3e9a59de	0.30146688
57	0xbe154f9a	-0.14581147
58	0xbe910463	-0.2832366
59	0x3ea80fb0	0.3282447
60	0x3e56f87b	0.20993225
61	0x3e88d3a2	0.26723963
62	0x3d31300a	0.043258704
63	0x3e21b8ba	0.15793124

cnn.conv_layer.3.adn.N.running_var f4 [64]
0	0x3ea86e48	0.32896638
1	0x3ed1803f	0.40918157
2	0x3eae4c83	0.3404275
3	0x3ebc20c5	0.3674375
4	0x3ef4bc9a	0.47800142
5	0x3ecc1174	0.39857066
6	0x3ebafb67	0.3651993
7	0x3f1bcf5f	0.608633
8	0x3ec0f751	0.37688687
9	0x3e95d8dc	0.29267013
10	0x3f0de0b0	0.5542097
11	0x3ea8ce79	0.32970026
12	0x3eb821ec	0.3596338
13	0x3ec76ecd	0.38951722
14	0x3ed1c85a	0.4097317
15	0x3ea02f99	0.31286314
16	0x3ecfbdd4	0.40574515
17	0x3ef34e69	0.4752076
18	0x3ed0e0da	0.40796548
19	0x3ed0602d	0.40698376
20	0x3ed284f8	0.41117072
21	0x3ec90d25	0.3926784
22	0x3ebbe26f	0.36696193
23	0x3eada319	0.33913496
24	0x3eba15e3	0.36344823
25	0x3ebee4ed	0.37284032
26	0x3e9c0796	0.30474538
27	0x3ed3e99d	0.4138917
28	0x3eb7ca6a	0.35896617
29	0x3f0c0c8d	0.5470665
30	0x3ed936cd	0.42424622
31	0x3e9433f2	0.2894588
32	0x3ed8712d	0.42273846
33	0x3eb6dcd6	0.3571536
34	0x3ef7ff96	0.48437184
35	0x3ec330ea	0.38123256
36	0x3ea80f4e	0.32824177
37	0x3ec5fae8	0.3866799
38	0x3eb53a09	0.3539584
39	0x3f06c803	0.52648944
40	0x3eeeb290	0.46620607
41	0x3ee18a84	0.44050992
42	0x3edccedb	0.43126568
43	0x3ea4c6d7	0.32182953
44	0x3ec5ddbe	0.38645738
45	0x3e991bac	0.29903924
46	0x3eb58d22	0.35459238
47	0x3eaf8765	0.34282985
48	0x3e97fd39	0.2968538
49	0x3eb14a28	0.3462689
50	0x3eac2543	0.33622178
51	0x3eb5c2db	0.35500225
52	0x3e9e7c2a	0.30954105
53	0x3efe86d8	0.49712253
54	0x3ea23c40	0.31686592
55	0x3ebc8c86	0.3682596
56	0x3ed84d4f	0.42246482
57	0x3eaf13dc	0.3419484
58	0x3ecbec6a	0.39828807
59	0x3f0236e8	0.5086503
60	0x3ea5e84c	0.3240379
61	0x3eb997dd	0.36248675
62	0x3ef2924e	0.47377247
63	0x3ec23963	0.37934408

gru.gru.weight_ih_l0 f4 [192, 512]
0	0xbd735394	-0.05940588
1	0xbdeaff18	-0.114744365
2	0xbc6e048a	-0.014527449
3	0x3dc9c5bc	0.09852168
4	0x3d142d53	0.036176037
5	0xbdecee37	-0.115688734
6	0xbda941fc	-0.08264539
7	0xbd208b6e	-0.03919547
8	0x3d8dba60	0.06920314
9	0xbd721973	-0.0591063
10	0x3dd2c069	0.102906056
11	0xbd576a35	-0.05259152
12	0xbd4cf39d	-0.050037015
13	0x3dd07588	0.10178667
14	0xba859c82	-0.0010193738
15	0x3d48f09d	0.04905759
16	0x3dcd003a	0.10009809
17	0x3d81e447	0.063423686
18	0xbd999e0e	-0.0750085
19	0x3d24057e	0.0400443
20	0xbde98b27	-0.11403494
21	0x3d9656e0	0.07340789
22	0xbd9d550a	-0.076822355
23	0xbbc72880	-0.006077826
24	0xbdaa5207	-0.08316427
25	0x3dd2bd55	0.102900185
26	0x3df382c3	0.11890175
27	0x3dc25297	0.09488409
28	0xbd6f988b	-0.058495086
29	0xbc7fee37	-0.01562076
30	0x3cb37505	0.021906385
31	0x3d794d94	0.060865
32	0xbdb19a21	-0.08671976
33	0xbde43702	-0.111433044
34	0x3d7b1d22	0.06130708
35	0x3d9718c2	0.07377769
36	0x3d834ac1	0.064107426
37	0x3dcdbe30	0.10046041
38	0x3ddbd75f	0.10734438
39	0x3b6a3b01	0.0035740735
40	0x3de991e8	0.114047825
41	0x3c373fcb	0.011184643
42	0xbdee046a	-0.11621936
43	0x3d6174e5	0.05504312
44	0x3dc04dfe	0.09389876
45	0xbdb86c90	-0.09005082
46	0x3db63b65	0.08898047
47	0xbddedf81	-0.10882474
48	0xbd4b07b6	-0.0495679
49	0x3d172583	0.03690101
50	0x3d32710b	0.043564837
51	0x3c8249c2	0.015904311
52	0x3d5731b0	0.05253762
53	0x3cfb21e1	0.030655803
54	0x3d9849d5	0.07435957
55	0x3d7a6ab9	0.061136935
56	0xbd41a92f	-0.047280487
57	0x3cffd37b	0.031228771
58	0x3cd552eb	0.026040515
59	0xbdd1f9dc	-0.10252735
60	0xbba3f1eb	-0.005003204
61	0xbd8cce2f	-0.06875264
62	0xba40f51b	-0.00073607423
63	0x3d876490	0.06610978
64	0x3cd5285b	0.02602022
65	0x3ddc73e4	0.10764292
66	0xbb1f45bf	-0.0024303047
67	0xbdefde39	-0.117123075
68	0xbdca16a8	-0.098676026
69	0x3cfc802a	0.030822832
70	0xbd576066	-0.052582167
71	0x3b734d84	0.003712506
72	0xbda94b41	-0.08266307
73	0x3d313830	0.043266475
74	0xbda1abb4	-0.07894078
75	0xbda2d90f	-0.07951557
76	0x3dd820ba	0.10553117
77	0xbda5faf4	-0.08104506
78	0xbd101768	-0.035178572
79	0x3da6b56a	0.08140071
80	0x3d083991	0.033258025
81	0xbc711802	-0.014715197
82	0x3df3e814	0.119095
83	0x3c300bf4	0.010745037
84	0x3c427f3f	0.011871158
85	0x3b8865f8	0.0041625462
86	0x3b07a16c	0.002069558
87	0xbcdda866	-0.027057838
88	0x3d8fea14	0.07027069
89	0x3dbf2232	0.09332694
90	0x3c2cf1f7	0.010555736
91	0xbd368035	-0.04455586
92	0xbd96adbf	-0.07357358
93	0x3d4ba1f1	0.049714986
94	0xbca6c236	-0.020356279
95	0xbd3bf9b6	-0.04589244
96	0xbd7f75e8	-0.062368304
97	0x3d49da50	0.049280465
98	0x3dbe5ded	0.09295259
99	0xbdfd1e5c	-0.12359306
100	0x3cb67d68	0.022276595
101	0xbb0050ca	-0.0019579404
102	0xbddf9e92	-0.10918917
103	0xbdc9bada	-0.09850092
104	0x3dcaf759	0.09910459
105	0xbd985a97	-0.07439154
106	0x3df2a8c3	0.11848595
107	0xbc3ad289	-0.011402735
108	0x3de4bbae	0.111686096
109	0x3db05395	0.08609692
110	0xbdb799af	-0.0896486
111	0x3d50ed52	0.051007576
112	0x3db516e5	0.088422574
113	0xbcf86afb	-0.03032445
114	0xbcd77d4e	-0.026304867
115	0xbdb61f9c	-0.08892748
116	0x3d90d11c	0.070711344
117	0xbd8472dc	-0.0646722
118	0xbdccdcf0	-0.10003078
119	0xbc83e29b	-0.016099265
120	0xbdaa4774	-0.0831441
121	0xbbc1c8b1	-0.005913817
122	0x3c043bb0	0.008070871
123	0xbc85b295	-0.016320506
124	0x3ded596f	0.11589324
125	0x3d7467a8	0.059669167
126	0x3d8f1a78	0.069874704
127	0x3d069e1f	0.03286564
128	0xbcaa4ce8	-0.020788625
129	0x3d25067b	0.040289383
130	0x3dd56632	0.10419883
131	0xbd561e8c	-0.052275226
132	0xbdf03bad	-0.11730132
133	0x3d68b688	0.0568147
134	0xbd045cf6	-0.032315217
135	0x3cf86d3c	0.030325525
136	0xbd39c71c	-0.0453559
137	0xbdecbdd7	-0.115596466
138	0xbd99cda1	-0.07509924
139	0xbdd3792f	-0.10325848
140	0xbc06dcfd	-0.008231399
141	0xbdde22ca	-0.10846479
142	0xbd20c83d	-0.039253462
143	0xbdb6f89f	-0.089341395
144	0xbbe44094	-0.006965706
145	0xbce6a81b	-0.02815633
146	0x3d5b62a8	0.053560883
147	0x3c726f6c	0.014797073
148	0xbc96de34	-0.018416502
149	0x3d8f809d	0.07006953
150	0x3d8d5d87	0.069026046
151	0x3a968887	0.001148478
152	0xbd229249	-0.03969029
153	0xbd91561a	-0.07096501
154	0x3d922a6f	0.07137
155	0x3d30b31a	0.043139555
156	0x3cf9204f	0.030410914
157	0xbdd59b7c	-0.10430047
158	0xbdac8f5e	-0.084257826
159	0x3d5c5738	0.053794116
160	0xbdae3e66	-0.08507995
161	0x3dd98344	0.1062074
162	0x3d6992bd	0.057024706
163	0xbd3e5c42	-0.046474703
164	0xbb0f68cc	-0.0021882532
165	0xbd589596	-0.05287703
166	0x3d9dbd64	0.07702139
167	0xbd42a1c0	-0.047517538
168	0x3d723301	0.059130672
169	0xbdf78f34	-0.12087861
170	0x3d697e2a	0.057005085
171	0x3db2c03b	0.08728071
172	0x3d4ff31d	0.05076896
173	0x3d526458	0.051365227
174	0xbe0090da	-0.12555256
175	0xbd58cee2	-0.052931674
176	0x3dca212d	0.09869609
177	0x3db6ae35	0.08919946
178	0xbde51b6c	-0.11186871
179	0x3db0d206	0.08633809
180	0xbd89e542	-0.067331806
181	0xbdaa1ec5	-0.0830665
182	0xbdc52833	-0.09626808
183	0xbd3894bf	-0.04506373
184	0x3a112414	0.0005536687
185	0x3db5c830	0.08876073
186	0xbd338a84	-0.04383327
187	0x3c91445c	0.017732792
188	0xbdb4f76c	-0.088362545
189	0xbdc18b4e	-0.094503984
190	0x3deacb2d	0.11464534
191	0x3c9117fe	0.017711636
192	0xbbaf4f6a	-0.005350043
193	0x3c4a3b61	0.012343259
194	0xbdc57ff5	-0.096435465
195	0xbdf794e0	-0.120889425
196	0x3cb02fb7	0.021507127
197	0xbce26252	-0.027634773
198	0x3dd74e8a	0.10513027
199	0xbdb05b17	-0.08611124
200	0x3cd307c8	0.025760546
201	0xbdb124e0	-0.086496115
202	0xbd3df9c5	-0.046380777
203	0x3de589aa	0.11207898
204	0xbdbad941	-0.09123469
205	0x3c1df3fb	0.009640689
206	0xbdd762ca	-0.105168894
207	0xbd5ac26f	-0.053408083
208	0x3db59544	0.08866361
209	0xbd296402	-0.04135514
210	0x3d8330fd	0.06405828
211	0x3df3a95d	0.11897538
212	0x3d7d8817	0.061897364
213	0xbdd53bbd	-0.10411785
214	0xbcb07d6f	-0.021544186
215	0x3ca5e9c7	0.020253075
216	0xbcd96bab	-0.026540598
217	0xbdf8c6c4	-0.121472865
218	0x3dfce679	0.12348647
219	0x3db66c17	0.08907335
220	0x3d36c32b	0.04461972
221	0x3d9e2821	0.07722498
222	0x3dd57d8a	0.10424335
223	0xbdc273cd	-0.094947435
224	0xbd52684d	-0.051369
225	0x3d097408	0.03355792
226	0x3dab4e23	0.08364513
227	0x3d7384e4	0.059452906
228	0xbd84dc14	-0.06487289
229	0x3d546074	0.051849797
230	0xbd920e8c	-0.07131681
231	0x3d53ca53	0.051706623
232	0xbde366f5	-0.11103622
233	0x3d80a0be	0.06280659
234	0x3d47df65	0.04879703
235	0xbd6f3940	-0.058404207
236	0xbd06a677	-0.032873597
237	0x3d1ac88d	0.037788916
238	0x3dcb636c	0.099310726
239	0x3de9fd51	0.114252694
240	0x3d736fd1	0.05943281
241	0x3d0ab542	0.033864267
242	0xbd9fa6c6	-0.077954814
243	0x3c5bd461	0.013417334
244	0x3dbb70a6	0.09152345
245	0xbb05db09	-0.0020424745
246	0x3df41bf7	0.11919396
247	0xbdab9906	-0.08378796
248	0x3d96a0f7	0.0735492
249	0xbdfa2515	-0.12214104
250	0xbde5bbed	-0.112174846
251	0x3cba9bd1	0.022779377
252	0x3cb8d8a1	0.022564234
253	0xbd140297	-0.036135282
254	0x3d3ef5e1	0.046621207
255	0x3d6c8012	0.057739325
