model_fmri_40_ep_2022-10-26T23:49:52.314514/best_metric.pth (torch, 561209 bytes, 32 tensors)

cnn.conv_layer.0.conv.weight f4 [8, 1, 2, 2, 2]
000000 a9 37 6c be 45 07 72 3d 62 fd a2 3e df f0 ab 3e
       -0.23068108 0.059088964 0.3183394 0.33582208
000010 31 a2 24 bd 2b 02 8b 3d 4c ba 53 3e 0e 94 53 3e
       -0.04019374 0.06787523 0.20676535 0.20661947
000020 9e 45 08 bc a8 13 2b 3d 0a fc 5f 3e 84 3b bf 3d
       -0.008317379 0.041766793 0.21873489 0.093375236
000030 87 9c 03 3e ed 3f 94 3e 18 c0 b2 bd ec 65 56 be
       0.12852679 0.28955022 -0.08728045 -0.20937318
000040 66 a2 5f 3e c2 85 b0 3e 53 f0 bd 3d 45 5a 6f 3e
       0.21839294 0.3447705 0.09274354 0.23374279
000050 01 c8 7a 3e 07 73 8b 3e 77 be b0 be c3 ac 20 be
       0.24490358 0.27236196 -0.34520313 -0.15690903
000060 aa 54 aa be c0 b7 38 3d 9f 2c b9 bd 66 97 9d 3e
       -0.3326772 0.045097113 -0.09041714 0.3077957
000070 3f 31 ba bd b8 be 54 3e 95 4c 8f be aa 10 01 be
       -0.09091424 0.20775878 -0.27988115 -0.12604013
000080 ff f8 b2 bd 6f 7c 52 bd 63 77 a2 3e 87 3f 4f 3e
       -0.087388985 -0.0513882 0.3173171 0.20239078
000090 f3 31 f7 bc ae 2f 56 be 24 89 80 3d 75 16 f1 bd
       -0.030175185 -0.20916626 0.062761575 -0.117718615
0000a0 a9 b2 dd bc 5c 46 6a 3e 3e 94 9d be 0b 2f 2a 3a
       -0.02706273 0.22878402 -0.30777162 0.00064919953
0000b0 3b 2e 08 be 89 3f 28 be aa 85 2e 3c 74 78 a5 3c
       -0.13298886 -0.16430487 0.010651985 0.020199038
0000c0 f3 82 27 be 5c 37 81 be bc 3c 38 bd f9 4f b0 3e
       -0.16358547 -0.25237548 -0.044979796 0.34436014
0000d0 c6 88 71 be 71 e0 8b be 29 66 26 be cd fc f8 3d
       -0.23587331 -0.27319673 -0.16249909 0.12157593
0000e0 07 31 82 3e 3f 58 2a bd d0 eb 9a 3b 74 26 08 be
       0.2542803 -0.041588064 0.004727818 -0.13295919
0000f0 1d 65 49 3e e8 57 a0 be e9 91 3f 3c b4 c4 8d 3d
       0.19667478 -0.31317067 0.011692503 0.06922284

cnn.conv_layer.0.conv.bias f4 [8]
000000 b6 d6 b2 be 2c 69 6b 3e c4 87 9c be ce 43 9e be
       -0.34929436 0.22989339 -0.3057233 -0.30911106
000010 12 b8 30 3d b6 63 49 be a5 6e c6 bb c8 81 9f be
       0.043144293 -0.19666943 -0.0060556703 -0.31153703

cnn.conv_layer.0.adn.N.weight f4 [8]
000000 b3 fd 7f 3f 93 09 80 3f 98 f1 7f 3f 9a 07 80 3f
       0.9999649 1.0002922 0.9997802 1.000232
000010 ef f2 7f 3f d4 07 80 3f 90 03 80 3f e3 fa 7f 3f
       0.9998006 1.0002389 1.0001087 0.999922

cnn.conv_layer.0.adn.N.bias f4 [8]
000000 32 ac 44 b9 11 90 af 39 80 44 74 b9 0f 5d 1d 38
       -0.00018756164 0.0003348594 -0.00023295172 3.7518384e-05
000010 f7 f2 7a 39 0f 82 df b7 30 20 d1 38 63 fa 99 39
       0.0002393237 -2.6644235e-05 9.971892e-05 0.00029368987

cnn.conv_layer.0.adn.N.running_mean f4 [8]
000000 eb 27 b5 be 22 6e 65 3e 08 f4 9e be ec 61 9b be
       -0.35382017 0.22405294 -0.31045556 -0.30348146
000010 62 3a 2c 3d 20 84 44 be 69 a0 10 ba 61 50 9e be
       0.042047866 -0.19191027 -0.0005517067 -0.309207

cnn.conv_layer.0.adn.N.running_var f4 [8]
000000 0f e2 2a 3f d6 64 36 3e d7 36 2a 3f 64 55 07 3e
       0.6675119 0.17811903 0.6648993 0.13216168
000010 1a 3e 2d 3d f6 d4 f3 3d 65 d4 be 3e e3 37 d1 3c
       0.042295553 0.119058535 0.3727142 0.025539344

cnn.conv_layer.1.conv.weight f4 [16, 8, 2, 2, 2]
000000 d4 0e 1a 3b 1a 6f a5 bd e6 9d 8b 3d 0a fa bc 3d
       0.0023507373 -0.080778316 0.06817226 0.09227379
000010 ac 18 bf bd 23 ee 5a 3d 60 cc 8c 3d d4 1c e5 bd
       -0.09330878 0.05344976 0.06874919 -0.11187139
000020 46 03 cd 3d ae 9d e0 3d 60 ea ee bd 28 a9 9a bd
       0.1001039 0.10967575 -0.11665797 -0.07551795
000030 f5 22 fa 3d dd 48 20 3c e7 93 d0 bd 83 2a 24 3c
       0.12213699 0.009782997 -0.1018446 0.010019901
000040 24 1f 83 3d 05 88 28 3d 82 66 e9 bd 2a 49 f3 3d
       0.06402424 0.041145343 -0.11396505 0.11879189
000050 c2 a4 5a 3d e3 a9 fd 3d 42 31 e4 3d 58 73 be bc
       0.05337978 0.12385919 0.11142208 -0.02324836
000060 0d c5 21 3d 31 c0 ba 3d 42 8c 27 3d 2e 23 92 3d
       0.039494563 0.09118689 0.040905245 0.07135616
000070 c3 78 0b bd d2 8a 4e 3c a6 03 b0 3d 12 82 f1 3c
       -0.034050714 0.0126063395 0.08594446 0.029480968
000080 f8 f2 c3 bd 11 5c 92 bd 9e 6c a3 bd 39 63 e6 3d
       -0.09567827 -0.071464665 -0.079797015 0.11249394
000090 d6 c4 e3 ba c1 ca 9f 3c 2c 05 b8 bc 19 95 cf bd
       -0.0017377387 0.01950586 -0.022463404 -0.1013586
0000a0 fa dd 3b bd 4d 7e 09 bd 6f 97 e2 3d 95 b3 65 3c
       -0.04586599 -0.033567715 0.1106404 0.0140198665
0000b0 34 7c cc 3d a1 ad 3e 3d 06 81 b1 3d 5a 75 71 bb
       0.09984627 0.046552304 0.086671874 -0.0036843629
0000c0 86 f6 ab bd a2 fd b0 bd 43 69 85 bc c4 31 88 bd
       -0.0839663 -0.086421266 -0.016285544 -0.06650117
0000d0 3f 9d 6a bc 95 18 9b 3d 68 95 f8 bd 59 84 bc 3d
       -0.014319717 0.07573048 -0.12137872 0.09204931
0000e0 09 2c 72 bd 9e d0 8d bd 92 8e dd 3d e1 45 a2 3c
       -0.059124026 -0.06924556 0.10818209 0.019808711
0000f0 d4 4a e8 3d 4b 68 b7 3d 09 7a f6 3d ba 49 7d bd
       0.11342397 0.08955439 0.12034995 -0.06183789
000100 74 d5 ad 3d a5 14 8d 3d 2c 68 fc 3d 21 b1 8e 3b
       0.084879786 0.06888703 0.12324557 0.0043546115
000110 d0 43 86 3d 77 fc 93 3c 56 f8 d4 bc 66 d0 e9 bd
       0.06555903 0.01806472 -0.025997322 -0.11416702
000120 f1 20 c4 3d 5a b3 32 bc 5d c1 58 3d 93 ec 83 bd
       0.095765956 -0.010907019 0.05291878 -0.06441607
000130 71 5f e6 3d ea 29 5d ba 68 97 e9 3d 3e a5 af bd
       0.11248673 -0.00084367266 0.114058316 -0.08576439
000140 da 9a 16 bc c7 8f 80 bd 20 a6 0e 3d 69 fd bc bd
       -0.009192193 -0.06277423 0.034826398 -0.09228022
000150 3c d1 b6 3d 1e ca cc bd f4 92 f3 bc bc f4 c7 bd
       0.08926627 -0.09999488 -0.029733159 -0.09763476
000160 13 3a ba bd 08 57 e7 b8 af 2f 0a bc dc fa 9e 3d
       -0.09093108 -0.00011031149 -0.00843422 0.077626914
000170 06 37 95 3c 09 57 d2 3c 88 c8 16 bb b2 0a ab bc
       0.018214714 0.025676267 -0.002300771 -0.020879123
000180 5e be 88 bd b0 ea 60 3d 91 b7 6a bc de ae b0 3d
       -0.06676935 0.054911315 -0.014325992 0.08627103
000190 cc 4b 76 3d e7 e2 51 bb 90 0c 0f bd 96 b2 b1 bd
       0.06013088 -0.0032026113 -0.03492409 -0.08676641
0001a0 b2 c2 ad 3d fb 82 67 3c d6 0d e8 bd db 96 62 3c
       0.08484401 0.014130349 -0.11330764 0.013829912
0001b0 af 51 8f bd b5 18 37 bd 74 ce 2f bd b6 0b 67 3c
       -0.06998002 -0.044701297 -0.0429215 0.014101913
0001c0 a2 bf db bc 95 61 c1 bd 6d e4 a4 bc ef ac 99 bc
       -0.026824776 -0.094424404 -0.020128453 -0.018759219
0001d0 37 5c a1 bc 3e 28 98 bd 54 84 be 3d 95 aa 9c 39
       -0.019697292 -0.074295506 0.09302583 0.00029881732
0001e0 ae 57 84 3c 23 5a de 3d 82 b0 cf bc d0 48 81 bc
       0.01615509 0.10857036 -0.02535272 -0.01578179
0001f0 ec 26 d6 3d 7b 31 14 bc 0d e6 58 3d 96 9d c3 bc
       0.104566425 -0.009045 0.05295377 -0.023878854
000200 2e b7 d7 bd a5 e2 2f 3d 58 50 dc ba d6 70 32 bd
       -0.10532986 0.042940754 -0.0016808612 -0.04356464
000210 1b 1b 13 bd 2a d8 b5 bd 11 26 b2 3d ea d2 92 bd
       -0.03591452 -0.08879121 0.08698667 -0.07169135
000220 de de 55 3d 8d 11 8b 3d ef d2 22 3d b0 d5 89 3d
       0.052214496 0.06790457 0.039751943 0.06730211
000230 8c 59 1b 3d 7a ba 05 3d ba 83 a0 39 b2 33 97 3c
       0.037927195 0.03264854 0.00030615722 0.018457267
000240 f5 ec ba bd 63 15 d4 bd 1b be 7d bd f3 16 ab 3c
       -0.09127227 -0.10355642 -0.061948877 0.020884966
000250 5c 5f 0f bd c9 62 17 3c 8f 99 e9 3d b8 60 72 bc
       -0.03500305 0.009239861 0.11406242 -0.014793567
000260 d2 68 45 3d eb 47 86 bb 79 93 f1 bc 9a 55 55 bd
       0.048195668 -0.0040979288 -0.029489266 -0.05208359
000270 e0 1d b8 bd 7e 08 88 bc de 5b d0 3d dd aa a7 3d
       -0.08990073 -0.016605612 0.10173772 0.081868865
000280 10 52 48 3c a6 1c a6 3c dd 62 eb 3c d1 43 ba bd
       0.0122265965 0.020277333 0.028733665 -0.09094966
000290 d2 77 82 bd f9 59 80 3d f5 72 97 bd 63 04 48 3d
       -0.0637051 0.06267161 -0.07394973 0.04883231
0002a0 38 47 a7 bd d2 7b c9 bd 21 d9 74 3c 6e a0 ae bc
       -0.08167881 -0.0983807 0.014944346 -0.021316733
0002b0 01 a8 ba bc 56 40 9f 3d 87 20 dc 3d be 33 8a bd
       -0.022785189 0.07775943 0.107483916 -0.0674815
0002c0 ce ff b1 bd 9b b7 ec bc f9 b7 8a bd 82 63 9f bc
       -0.08691369 -0.028896144 -0.06773371 -0.019456629
0002d0 6e e7 5d 3d 91 cc a4 3d 07 e1 28 bc 73 d4 9c bd
       0.054175787 0.080468304 -0.010307557 -0.07657709
0002e0 1a 1e b2 bd 87 dc 98 3d d1 0d e3 bd 9b ba 34 bc
       -0.08697148 0.07463937 -0.1108662 -0.011030818
0002f0 92 bb 99 bd e3 f8 2c 3c 64 e6 b6 bd 4a 0a a0 bd
       -0.07506479 0.010557386 -0.08930662 -0.078144625
000300 05 f1 92 bd 06 db 3c bd e7 ec d7 3d fc 1f a6 bd
       -0.07174877 -0.046107315 0.105432324 -0.08111569
000310 72 e1 5a bd 86 b2 a2 bd e7 61 4d bd 43 b7 89 3c
       -0.053437658 -0.07944207 -0.050142195 0.016811019
000320 cf e6 bb 3d 25 f2 e9 3d 20 d1 87 3d 43 27 3a bd
       0.091748826 0.114231385 0.06631684 -0.0454476
000330 f2 47 bb 3d d3 74 2a 3d 68 dd ec bd 9f a9 c5 3d
       0.09144582 0.04161532 -0.115656674 0.09651493
000340 c4 1e 9e 3d 7a 67 92 3d f2 f3 a4 bc 9a 94 75 3d
       0.07720712 0.07148643 -0.020135853 0.05995617
000350 ba 60 2d 3d 69 7b 56 3d 2a 68 9c bd 15 85 a1 bd
       0.042328574 0.052363787 -0.07637055 -0.078867115
000360 e3 3d cd 3d 9a 5e 74 bd 17 cf 58 3d 24 eb fb bd
       0.100215696 -0.05966053 0.05293187 -0.12300709
000370 ee e3 fe bd 98 cc c8 3d ed 0e 1c 3d b4 0c b1 3a
       -0.12445818 0.09804648 0.03810017 0.0013507814
000380 27 53 1a 3d 19 0a f2 bd e9 3c ca 3d 67 04 a4 3d
       0.037676957 -0.11818332 0.09874899 0.08008652
000390 be 7b a8 3d 89 d1 15 3d a4 c9 8d bd b5 3e 39 3d
       0.08226727 0.03657678 -0.069232255 0.045225818
0003a0 c8 61 a7 3d 48 0b 9d bc ec ec 4c bd 81 00 d9 3d
       0.08172947 -0.019170418 -0.050030634 0.10595799
0003b0 5b 13 c2 bd 37 4b ad 3d 9e 52 15 3d b6 fe 19 bc
       -0.09476348 0.08461612 0.036455743 -0.009399107
0003c0 a6 1a 57 bd 2a 39 ad bd bf db 3a bd b7 99 f9 bd
       -0.05251565 -0.08458169 -0.045619722 -0.12187522
0003d0 cf 3f 2e bc 4a 53 0f 3c 18 e1 b4 bc 4a 87 97 bd
       -0.01063533 0.008747885 -0.02207999 -0.07398851
0003e0 06 f1 42 3d d8 67 52 bc 0f a6 5b 3c e3 d6 21 3d
       0.04759314 -0.012842141 0.013406291 0.039511573
0003f0 87 75 8b 3b 41 d8 9d 3d 7f bc a5 3d 19 48 9a 3d
       0.0042559537 0.07707263 0.080925934 0.07533283

cnn.conv_layer.1.conv.bias f4 [16]
000000 3c ed 97 3d 05 ae f1 bb 42 09 87 3c 88 10 b7 3d
       0.07418296 -0.007375481 0.016483907 0.089387
000010 7b 62 07 3d 8a 6a 5c 3d 98 a9 99 3d 41 97 6d bd
       0.033052903 0.05381254 0.075030506 -0.058005575
000020 74 b9 90 bc d3 2f af 3d 7a fc bb bd 01 b5 99 3d
       -0.017666556 0.085540436 -0.091790155 0.07505227
000030 aa 7b f9 3d c9 a9 6b 3b 45 83 b7 bd 41 fd 6a 3c
       0.1218179 0.0035959354 -0.089605846 0.014342607

cnn.conv_layer.1.adn.N.weight f4 [16]
000000 95 02 80 3f 05 f5 7f 3f f4 06 80 3f 73 e8 7f 3f
       1.0000788 0.99983245 1.0002122 0.99964064
000010 cb 02 80 3f f8 07 80 3f 40 06 80 3f 8e 09 80 3f
       1.0000852 1.0002432 1.0001907 1.0002916
000020 c8 0c 80 3f 0b ef 7f 3f ab ea 7f 3f fe f0 7f 3f
       1.00039 0.99974126 0.9996745 0.999771
000030 3a 0c 80 3f d3 03 80 3f 73 04 80 3f 3a f4 7f 3f
       1.0003731 1.0001167 1.0001358 0.99982035

cnn.conv_layer.1.adn.N.bias f4 [16]
000000 e9 af 2c 39 3a 8b 9a b9 fd 89 54 39 14 92 1c b9
       0.0001646873 -0.000294769 0.000202693 -0.00014931738
000010 c4 3d 9c 39 d8 0d 7a 39 9d 61 1d 39 a3 97 7b 39
       0.00029800658 0.00023847015 0.0001500905 0.00023993714
000020 00 08 b0 39 d9 71 59 b9 eb a8 5b b9 37 9d 87 b9
       0.00033575296 -0.00020737144 -0.00020948394 -0.0002586634
000030 97 12 c3 39 ce 7e 75 38 df 96 b2 39 78 8b 41 39
       0.0003720715 5.8530648e-05 0.00034063213 0.0001845787

cnn.conv_layer.1.adn.N.running_mean f4 [16]
000000 e3 31 de 3e 44 32 80 3d ec d9 9d be 82 86 b9 3e
       0.43397436 0.062595874 -0.30830324 0.36235434
000010 ce 10 e1 bd 5f a4 b5 3e a7 c4 93 be 73 09 b8 be
       -0.10989533 0.35476968 -0.2886097 -0.3594471
000020 ab 7d b3 bd ac 4b b4 3e b4 33 ae bc 6e 3d 8a be
       -0.08764204 0.35213983 -0.021264888 -0.26999992
000030 ed e5 f6 3d d0 47 b0 3e 0e 5b 72 be 80 bd 61 be
       0.120555736 0.3442979 -0.23667547 -0.22044945

cnn.conv_layer.1.adn.N.running_var f4 [16]
000000 00 00 8d 3e c5 db 98 3e e9 b6 53 3e ad 97 e7 3e
       0.27539062 0.2985517 0.20675243 0.45232907
000010 84 6f 87 3e cb f3 8d 3e 8e a4 f9 3e 24 ab 6a 3e
       0.26452267 0.27725062 0.48758358 0.22916847
000020 72 e8 07 3f 9e 9f 3e 3e 52 1f 83 3e 25 da 8d 3e
       0.5308906 0.18615577 0.25609833 0.27705494
000030 3e 04 3f 3e 9c cd 66 3f 25 dc 6a 3e 79 54 29 3e
       0.18653962 0.90157485 0.22935541 0.1653613

cnn.conv_layer.2.conv.weight f4 [32, 16, 2, 2, 2]
000000 a3 c1 00 bd 13 12 b9 bc b1 b3 3e 3d b5 65 a9 bd
       -0.031434666 -0.022591626 0.046558086 -0.08271352
000010 74 f2 49 3d df d6 8b bd 04 2b 1e bd f6 ae ac bd
       0.049303487 -0.06828093 -0.03861524 -0.08431809
000020 d3 1f 87 bd 82 37 3c bd f7 79 8c bd fc 8b 7b bb
       -0.06597867 -0.045951374 -0.068592004 -0.0038382998
000030 0c 26 0d 3d 85 42 a8 bd 3c 99 72 3d f7 41 31 3c
       0.034460112 -0.082158126 0.059228167 0.01081895
000040 55 58 b8 bb d6 f6 0b bd 4b 29 17 3d 0a 16 5d 3d
       -0.0056257644 -0.034170948 0.036904614 0.053976096
000050 38 a6 3a 3b 34 83 71 3b ff e6 4f bb c4 b3 b4 3d
       0.0028480422 0.0036851885 -0.0031723378 0.0882335
000060 fb 2b 00 3a 79 ed ae bc f0 eb bf 3c 68 c2 98 bd
       0.0004889366 -0.02135347 0.023427933 -0.07458955
000070 2f 3b 46 3c d1 f3 d7 bc ee bb ab 3d 69 73 4f bd
       0.012099071 -0.026361378 0.08385454 -0.050647173
000080 36 61 70 3d 47 da 73 bd ee 36 27 bd 12 f4 b9 3c
       0.058686458 -0.059534337 -0.04082387 0.02269939
000090 16 10 5c 3d 4a 8c ca 3a ca 5c 5b 3d 4f 72 1f 3d
       0.05372628 0.0015453186 0.053555287 0.038927373
0000a0 45 22 aa 3d 5e fd 24 bd 57 6e dd 3c 85 94 ab 3d
       0.08307318 -0.040280692 0.027030153 0.08377937
0000b0 f1 ad 9b 3d 3c 5b 1c 3d d9 ec 70 bd 37 43 8b 3d
       0.07601536 0.038172945 -0.058819626 0.067999296
0000c0 65 ce 9f bd 36 b3 a3 3b 92 57 42 bd 70 e8 80 3d
       -0.078030385 0.004995729 -0.047446795 0.06294334
0000d0 11 0d 10 3d d7 05 a1 bc 4c e8 a0 3d db f7 13 bd
       0.03516871 -0.019656105 0.07856807 -0.036125045
0000e0 96 18 b3 bc ea d0 89 3d a3 38 50 3d b7 4c 9d bd
       -0.02186231 0.067293 0.050835263 -0.07680648
0000f0 fa e6 1d bd 6d 44 54 bd 0c 2a 3f 3d c9 45 11 3d
       -0.038550355 -0.05182307 0.04667096 0.035466943
000100 c2 4b dd 3c 1d 5d b1 3d f8 c7 3e bd f6 ce af 3c
       0.027013663 0.08660338 -0.046577424 0.021460991
000110 66 eb 7d 3d c2 8d 5d bd 88 cc bc bc 4e 4c 4c 3b
       0.06199207 -0.05409027 -0.023046747 0.003117341
000120 bc b2 76 3d 02 de db 3c 34 31 a8 bd bc 6c 0c bd
       0.060229048 0.02683926 -0.0821251 -0.034283385
000130 8d 8b c6 bc fe f9 61 3d 45 d9 a1 3d 80 b4 21 bd
       -0.024236465 0.05517005 0.07902769 -0.03947878
000140 a2 38 f0 bc 87 a0 88 bd bc 52 77 3d 88 6f 0f 3d
       -0.02932388 -0.06671243 0.060381636 0.035018474
000150 5a e8 70 bd e3 37 1b bd 55 88 9a ba 8d 5f b1 bd
       -0.058815338 -0.037895095 -0.0011789898 -0.08660803
000160 69 ba 56 bd d9 a4 ab 3d 1b 3d 96 bd 33 cd 37 3b
       -0.05242387 0.083810516 -0.07335874 0.0028045892
000170 03 56 bb 3c 73 54 4c bd eb e4 95 bd 07 10 89 bd
       0.022868162 -0.049885225 -0.07319053 -0.0669251
000180 77 08 0b 3d 42 73 86 3d 46 3a 8d bd 0d ce de bb
       0.03394362 0.065649524 -0.068958804 -0.0067994655
000190 6a 71 a4 bc db 79 14 3c 5a 7b 87 3b f5 3c 6d 3d
       -0.020073611 0.009062256 0.0041345777 0.05791946
0001a0 2d b9 93 3d ab 51 27 bd b8 0c 47 3d a3 42 6c 3d
       0.07213054 -0.04084937 0.048596114 0.057680737
0001b0 bf b3 e1 bc d2 e4 42 3d 77 3d 7f bd c5 f9 80 3b
       -0.02755153 0.0475815 -0.062314477 0.003936025
0001c0 b3 ca 44 bd 73 99 3e 3d f0 90 e1 3c 86 d6 97 bd
       -0.04804487 0.04653306 0.027534932 -0.07413964
0001d0 25 a2 ad bc e5 0b b1 bd 85 25 f8 bc ce f7 a1 bc
       -0.02119548 -0.08644847 -0.030291328 -0.019771483
0001e0 69 0a 52 bd 85 ea 35 3d ca ef a7 3d 23 99 fc 3c
       -0.05127946 0.04441311 0.08200033 0.03083474
0001f0 d3 b2 63 3b b4 5f 16 3d 05 a8 fb 3c 72 af ed 3c
       0.0034744039 0.036712363 0.030719766 0.029014323
000200 57 ba 11 bd 63 98 25 bc 8d 31 e3 bc 84 7b b1 bd
       -0.0355781 -0.010107133 -0.027733589 -0.08666137
000210 24 f9 3f bd d3 ac 66 3d 34 7a 9f bd ad ee 9f 3d
       -0.04686846 0.05631716 -0.0778698 0.07809196
000220 8c 96 5e bd a7 a2 a0 3d e6 b0 28 3d 55 16 ac bc
       -0.05434279 0.078435235 0.04118433 -0.021006742
000230 36 de b9 3b 36 bb ae 3a 72 a9 ce 3a bc ae 9b 3d
       0.0056722416 0.001333094 0.0015767051 0.07601687
000240 82 f9 1b 3b 62 69 6f 3c 82 95 72 bd 07 9b 24 3d
       0.0023799841 0.014612528 -0.059224613 0.040186908
000250 4c 46 0f 3d 21 0e ae bd 74 2f 90 3d aa 26 ef bb
       0.03497915 -0.084987886 0.07040301 -0.0072983103
000260 02 bc 96 bd f1 91 a8 3d 79 99 51 bd 6c e7 7a bd
       -0.073600784 0.08230961 -0.051171754 -0.061255857
000270 1a 66 ac bd 39 c1 19 3b ec 1d 31 bd 31 2e 81 3d
       -0.08417912 0.0023461117 -0.043241426 0.063076384
000280 f3 67 7d 3d be 00 97 3d 2c 66 dc bb 3f 70 a2 3d
       0.06186671 0.073731884 -0.006726047 0.079315655
000290 d4 83 42 3d 48 c7 37 3c df d8 29 3d 18 65 68 3d
       0.047489002 0.011216946 0.04146659 0.056737036
0002a0 8e 81 7e 3a 93 28 b0 bc e6 d1 d5 3c 5a 36 73 3d
       0.0009708636 -0.021503722 0.026101064 0.059378006
0002b0 72 ad d2 bc 74 3e 2b bd 1d 83 96 bd 8b e4 de 3b
       -0.02571747 -0.041807607 -0.073492266 0.006802147
0002c0 4e 34 aa 3d f2 ea 6d bd 01 de 47 3c 78 24 43 3d
       0.083107576 -0.05808539 0.012198926 0.0476422
0002d0 6b 37 6a bd a0 9d 55 bc cc b5 ba 3c 0e 15 99 3d
       -0.057181757 -0.013038069 0.022791766 0.07474719
0002e0 3d 7f 31 bd a5 e5 81 bb b4 e3 ff bc 39 be ac 3d
       -0.043334235 -0.0039641433 -0.031236507 0.084347196
0002f0 4a 53 98 bd 82 38 aa 3d 51 95 25 bb d0 74 8b 3c
       -0.07437761 0.08311559 -0.0025266001 0.017023474
000300 98 67 f2 3c 1c 95 4d 3d 24 86 8c bd f5 cd b4 3c
       0.029590413 0.05019103 -0.06861523 0.022070864
000310 b8 d8 c6 3c d8 4f 69 3d b4 8a 6a 3c cf 59 4e bd
       0.024273261 0.05696091 0.014315296 -0.050378617
000320 4d 4a db 3c 5a fd 5c bd c5 a1 07 bd a7 15 aa bc
       0.026768828 -0.053952552 -0.03311326 -0.020762278
000330 d4 22 62 3c 3b aa 89 bd 58 db 27 3d 9d b8 02 bd
       0.013802249 -0.06721922 0.040980667 -0.031914342
000340 9b 28 e0 3c a4 89 b6 3c fe 0d 8e bc ce 0b 6c bd
       0.027363112 0.022282429 -0.017340656 -0.057628445
000350 92 c3 41 3d d2 a4 6b bd be 56 b0 bc 4c 65 a3 bb
       0.04730565 -0.05753023 -0.021525737 -0.0049864408
000360 c9 17 6d bd 70 99 c1 bc 59 0b 62 3d 3d fa 53 3c
       -0.05788401 -0.023632735 0.055186603 0.012938079
000370 50 60 c0 3c 6f 61 57 3d df 5e 8b bd ee 04 64 3d
       0.023483425 0.052583154 -0.068052046 0.055668764
000380 04 d6 b6 3c 94 91 7e 3d 27 8d 05 bd 11 06 d2 bb
       0.022318847 0.062150553 -0.032605316 -0.0064094146
000390 af 3f 0a bc 04 8a 50 3d 8f 8b b8 3c 83 b1 88 bc
       -0.008438035 0.050912872 0.022527484 -0.016686207
0003a0 bb 22 b4 3c e3 17 a5 bd d2 24 89 bd 61 9f 94 3d
       0.021989217 -0.08061197 -0.06696476 0.072569616
0003b0 16 31 55 3d 02 d6 70 3c 95 94 c4 ba 0a de 74 3d
       0.052048765 0.014699461 -0.0014997894 0.059782065
0003c0 66 c1 bb 3c 08 8a 09 3d e9 69 8a bc 01 50 0c 3c
       0.022919368 0.033578902 -0.016896205 0.008563996
0003d0 17 33 87 3d 45 99 d8 3b ba d1 77 bb 64 18 8a 3d
       0.066015415 0.006610068 -0.0037814216 0.067429334
0003e0 38 bc 5e 3c 88 7c af bc b4 52 9f 3d d7 56 6e 3d
       0.01359468 -0.021421686 0.07779446 0.058188286
0003f0 f0 c8 f8 3c 1f f8 b2 3c 23 84 a8 3d 22 aa b5 bc
       0.030369252 0.021846829 0.08228328 -0.022175852

cnn.conv_layer.2.conv.bias f4 [32]
000000 2d 68 91 3d 22 0d d5 bc ac 28 9e bd 85 a7 1a bd
       0.07099948 -0.026007239 -0.07722601 -0.037757415
000010 8d a8 8f 3d 64 06 9b 3a d7 1a 8d 3d 03 22 f1 3c
       0.070145704 0.0011827466 0.06889885 0.029435163
000020 42 3b 04 3d f2 d0 a2 3d 50 47 51 3d 42 d0 a6 3d
       0.032283075 0.079500094 0.0510934 0.08145191
000030 de 31 d8 3b 56 23 c6 bc 7c d9 61 3d 38 85 67 3d
       0.0065977415 -0.024186771 0.05513905 0.05652353
000040 45 ef 2c 3d e4 fc ae 3d 36 cd 20 3c 25 c8 16 3d
       0.042220373 0.08544329 0.009814551 0.036811966
000050 d0 f7 95 bd a2 6d 40 3d 73 1b 8a 3d af 5e 4d bd
       -0.07322657 0.046979554 0.06743517 -0.050139125
000060 56 a1 99 bd 3f 4a 54 bd a6 23 27 bd 11 3b b3 bb
       -0.075014755 -0.05182862 -0.04080548 -0.0054696877
000070 4d 96 58 bd d4 93 e3 bb ea 42 e7 3a 73 b9 05 3d
       -0.052877713 -0.0069451127 0.0017643843 0.03264756

cnn.conv_layer.2.adn.N.weight f4 [32]
000000 59 0b 80 3f e4 0b 80 3f f8 fd 7f 3f 29 fc 7f 3f
       1.0003463 1.0003629 0.999969 0.9999414
000010 aa e8 7f 3f ab f5 7f 3f f6 ef 7f 3f 41 05 80 3f
       0.9996439 0.99984235 0.99975526 1.0001603
000020 41 f3 7f 3f 34 ea 7f 3f b3 03 80 3f 09 07 80 3f
       0.9998055 0.9996674 1.0001129 1.0002147
000030 63 ec 7f 3f 1a ea 7f 3f 46 ef 7f 3f cc e7 7f 3f
       0.9997007 0.99966586 0.9997448 0.9996307
000040 22 f1 7f 3f ed eb 7f 3f 40 0a 80 3f 76 05 80 3f
       0.99977314 0.9996937 1.0003128 1.0001667
000050 bf 08 80 3f 3b 0b 80 3f 2c ef 7f 3f 37 fd 7f 3f
       1.0002669 1.0003427 0.9997432 0.9999575
000060 27 03 80 3f 37 ea 7f 3f e5 03 80 3f 4c f2 7f 3f
       1.0000962 0.9996676 1.0001189 0.9997909
000070 f9 06 80 3f 16 0c 80 3f b7 09 80 3f 9f f6 7f 3f
       1.0002128 1.0003688 1.0002965 0.9998569

cnn.conv_layer.2.adn.N.bias f4 [32]
000000 e0 f1 a1 39 f9 bb b5 39 e1 df 21 b8 e7 2e 68 39
       0.00030888524 0.0003466306 -3.8593895e-05 0.00022142717
000010 69 d3 a5 b9 ad 35 09 39 52 dd 45 39 bd d2 46 39
       -0.00031628765 0.00013085334 0.00018869832 0.00018961258
000020 d9 1f 8c b9 23 d9 bf b9 f4 70 88 39 b8 a2 b1 39
       -0.0002672661 -0.00036592138 0.00026024098 0.00033881306
000030 2f db a0 39 8f be 86 b9 94 31 f8 37 c3 03 16 b9
       0.00030680883 -0.0002570045 2.958699e-05 -0.00014306516
000040 da 6b 53 b9 d8 b7 ac b9 8e 96 9f 39 9f 8e ce b8
       -0.00020162706 -0.0003294337 0.00030439015 -9.849411e-05
000050 c8 2c 0a 39 f8 98 9f 39 55 89 a0 b9 42 21 81 39
       0.00013177388 0.00030440814 -0.00030619898 0.00024629576
000060 67 af d0 b9 44 75 8c b9 6f d2 22 39 e9 ef 78 b9
       -0.00039803536 -0.0002679025 0.00015527917 -0.00023740497
000070 28 bd b3 39 25 ef b1 39 7b 4a 20 39 d3 05 0f b9
       0.00034282473 0.00033938247 0.00015286535 -0.00013639712

cnn.conv_layer.2.adn.N.running_mean f4 [32]
000000 67 2c 26 3d f4 9d 50 3e 97 f3 0a be 64 d6 57 be
       0.04056969 0.20372754 -0.13569485 -0.21077877
000010 38 ce f6 3d be 40 15 3d b2 60 0f 3f b2 f4 1f 3e
       0.12051052 0.036438696 0.5600692 0.15620688
000020 69 4a c6 be cb 21 f7 3e 0b 59 02 3e 7d 21 94 bd
       -0.38728645 0.4826797 0.1272928 -0.0723295
000030 0e 86 04 be b6 12 b5 bc 25 a9 a3 3e 92 03 e3 3d
       -0.12941763 -0.022103649 0.31964985 0.11084665
000040 b5 24 34 b9 c7 80 56 3b d0 2a 47 3c 2e 7e 8c 3e
       -0.00017179812 0.0032730566 0.012156203 0.27440017
000050 22 3d 10 3d a7 62 c1 3e 39 94 3c 3e ed 32 c6 be
       0.03521455 0.37770578 0.18415917 -0.38710728
000060 4e ab c0 3e b5 63 b0 be 6a 2e 00 3d 10 a8 bc bb
       0.37630695 -0.3445107 0.031294264 -0.0057573393
000070 95 98 bc bb be 9b 94 3e d3 0b 91 be 48 4f 07 3e
       -0.005755494 0.29025072 -0.28329334 0.13213837

cnn.conv_layer.2.adn.N.running_var f4 [32]
000000 aa ee ee 3d 91 5e 48 3e a6 4e 97 3e 2f 25 4b 3e
       0.11666615 0.19567324 0.29552191 0.19838403
000010 e8 a3 a9 3d 92 a0 0a 3e 80 d2 b8 3e 63 97 0d 3e
       0.08283216 0.13537815 0.360981 0.1382728
000020 af 7a c0 3e fd 3e b2 3e 5b 50 51 3e 94 84 e2 3d
       0.375936 0.3481368 0.2044081 0.110604435
000030 f5 a0 34 3e 4f 01 d5 3d cd 5b 1c 3e 44 04 a8 3d
       0.17639525 0.1040064 0.15269394 0.082039386
000040 82 0f f2 3d 57 79 1f 3e 67 66 26 3e ab 13 21 3e
       0.11819364 0.15573631 0.16250001 0.15730159
000050 69 cd 62 3e e5 5d 3a 3e cb fb 93 3d f2 55 0d 3e
       0.2214867 0.1819988 0.0722576 0.13802317
000060 c1 f7 95 3e b6 64 8b 3e dc 35 0d 3e 7c b4 e8 3d
       0.29290584 0.27225274 0.13790077 0.1136255
000070 2c b1 5a 3e 93 98 72 3e 33 3a 8b 3d 67 52 53 3e
       0.21356648 0.23691015 0.0679821 0.20636903

cnn.conv_layer.3.conv.weight f4 [64, 32, 2, 2, 2]
000000 14 61 bc 3c 16 23 99 bc c9 75 2b 3d c9 57 78 bd
       0.02299551 -0.018693488 0.041860376 -0.060630593
000010 af 31 38 3d 92 91 0f 3d 82 f9 e1 3c a5 54 0d bd
       0.044969257 0.035050936 0.027584795 -0.03450455
000020 33 8b b9 bc 61 f4 4d bd b6 b6 59 bb 88 91 3e 3d
       -0.022649383 -0.050281886 -0.0033220476 0.04652551
000030 f6 2c e0 bb bf 77 e0 bb a8 f2 66 3d 98 2f 2c 3d
       -0.0068412973 -0.0068502123 0.05638376 0.042037576
000040 7e 3d e7 bc 6d 99 1a bd 51 2d b1 bb 84 ff 0e 3d
       -0.028227564 -0.037743974 -0.0054070135 0.034911647
000050 a9 98 0a 3d f4 f8 3c bd 35 2f ab 3c e7 e5 8f bc
       0.033836994 -0.046135858 0.020896534 -0.01756568
000060 a5 e7 0f bc 56 2f 38 bb d2 8d ec 3c e7 3e 4c bd
       -0.008783256 -0.0028104386 0.028876219 -0.049864676
000070 a3 40 05 3d 16 57 17 3d 85 b4 71 bd ed db 4d 3c
       0.032532346 0.036948286 -0.059010047 0.012564641
000080 86 85 52 bd 07 35 e6 3c da fb f0 3c fc 73 35 bd
       -0.05139687 0.028101457 0.029416967 -0.044300064
000090 5d a8 5d bd 0b a2 94 3c ec 6c 1e 3d 53 f6 b4 3c
       -0.05411564 0.018143674 0.038678095 0.022090113
0000a0 8f 3d 90 bb b9 c2 12 bd fb e0 ea 3b 9b 69 ab bb
       -0.0044018696 -0.035830233 0.007167933 -0.005231095
0000b0 92 cf f9 bc f2 24 80 bd d2 5a 45 3d c2 1e a3 bc
       -0.030494485 -0.06257047 0.048182316 -0.019912127
0000c0 48 de 07 3d 35 ce 5e 3d 8a 33 fb 3b ae 1a 82 bc
       0.03317097 0.054395873 0.007666056 -0.015881862
0000d0 b8 e0 28 bc 57 d9 53 bd 6a 7e 3e 3d ac f8 90 bc
       -0.010307483 -0.051720943 0.046507277 -0.017696701
0000e0 a8 b8 ed 3c 9f 95 fe bc f3 84 40 3d eb 38 2f bd
       0.029018715 -0.031077204 0.04700179 -0.04277889
0000f0 3e 7a 41 3d 7d 81 58 3d c1 b8 b1 bb 58 e1 4a 3d
       0.04723572 0.052857865 -0.0054236357 0.04953131
000100 8b 63 f9 3c e2 23 ee bc 53 46 01 3c d5 bc 63 3d
       0.030442974 -0.029069845 0.007890302 0.055600006
000110 fa 36 0a 3d e4 d6 62 bd ae 45 0a 3d 92 a2 06 3a
       0.033743836 -0.055380717 0.033757858 0.0005135919
000120 ad f9 26 3d f8 56 d8 3c 76 e9 c4 3c 52 03 ff bc
       0.040765453 0.026408657 0.024037104 -0.031129513
000130 8c ed 0b bd 9b 03 18 bd f4 77 97 b9 56 e0 70 3d
       -0.03416209 -0.037112813 -0.00028890336 0.058807693
000140 c3 69 e6 bc 7c 39 b0 3c 9d b9 1c 3d 04 06 71 3d
       -0.028126603 0.021511786 0.038262952 0.058843628
000150 cb 3c e3 bc ee ad 09 bc f6 b6 04 bd 9a 60 a8 3c
       -0.02773895 -0.0084032845 -0.032401048 0.020553876
000160 a5 13 9c 3b 45 86 d4 bb f2 ed 69 bd 4d 12 60 3a
       0.004763084 -0.0064857327 -0.057111688 0.0008547649
000170 be a2 0e 3d cc 84 a6 bc 13 b2 90 bc 96 46 ba 3b
       0.03482317 -0.020326994 -0.017663037 0.005684684
000180 c2 4e af 3b 4c e4 73 bd 11 7a 5f bd 19 0b 53 bc
       0.005349965 -0.059543893 -0.05455977 -0.012881064
000190 e7 51 f1 bc 02 a9 b0 3c bf 8a 13 bb 0b c9 bc bc
       -0.029458 0.021564964 -0.002251312 -0.023045084
0001a0 f8 c8 ba bc c5 17 04 3d 0b 78 49 3b 03 ee 72 bc
       -0.022800907 0.03224923 0.0030741717 -0.014827254
0001b0 e5 ec 3b 3d 78 78 76 bd 2e 9a 23 3d 6e 46 e9 3b
       0.045880217 -0.06017348 0.03994196 0.0071189916
0001c0 4b bb 76 bd d6 b8 23 3d e2 f8 f0 bc 59 f2 2e 3d
       -0.06023721 0.039971195 -0.029415552 0.04271159
0001d0 c1 8c 44 3d a5 53 a6 bc 94 2a 69 3d 59 58 b5 3c
       0.047985796 -0.020303557 0.05692537 0.022136854
0001e0 18 3d 63 bc 77 cf fd bc 0d 56 18 bc 88 5a 08 bd
       -0.013869546 -0.030982716 -0.00929786 -0.033289462
0001f0 cf fb 8c bc 08 c4 54 bc 87 e5 ed 3c b7 8a 31 bd
       -0.017209915 -0.012986191 0.029040111 -0.04334518
000200 a4 54 38 3d 5f 3e 43 3d 3d e5 a8 bb 8c b0 f5 3b
       0.045002595 0.047666904 -0.0051542805 0.0074978527
000210 9b 8a 01 3d c5 4e 3e bd eb 65 8c 3c fb c6 50 3d
       0.031626325 -0.04646184 0.017138442 0.050971013
000220 cf 54 15 bc 6b a1 a0 bc a9 e7 92 bc 9d 42 36 bc
       -0.009114458 -0.01960822 -0.01793273 -0.01112428
000230 05 a3 06 3d 94 ce cd bc a9 ef 79 3d a5 4b b5 bc
       0.03287031 -0.025122918 0.061019573 -0.022130797
000240 0d b7 5d bd 41 0f 14 3a 32 7e 70 bd 7d 7c 94 bc
       -0.05412965 0.0005648025 -0.0587141 -0.018125767
000250 27 dd 8b bc b0 b7 08 bd 24 82 98 3b bd 93 31 bc
       -0.017073227 -0.033378303 0.004654186 -0.010838446
000260 bd 44 0b bd 8f 33 dd bb 1e 4b 3a 3d 21 c6 37 bd
       -0.0340011 -0.006750531 0.045481794 -0.044866685
000270 90 26 6b bd e6 63 99 3c 55 a6 31 3d 13 f5 4b bd
       -0.057409823 0.018724393 0.043371517 -0.049794268
000280 b2 7a 32 3c 5f 90 68 3d 41 a6 04 bd 2a a6 60 3d
       0.010893511 0.056778308 -0.032385115 0.054845966
000290 a5 de 4e 3d f9 14 78 3d e8 e6 0d 3d a8 d2 70 3d
       0.0505053 0.060566876 0.034644037 0.058794647
0002a0 07 ec 49 3b de b2 8c bc 1b f3 7f 3c 7b 1d c6 3c
       0.003081085 -0.017175134 0.015621926 0.02418398
0002b0 0e 25 ca bc 64 ec 07 bc 4a 47 6e 3d 15 92 68 bd
       -0.024675872 -0.008296106 0.058173455 -0.05677994
0002c0 01 e1 63 bd ee 89 ef 3c 0d 5e 13 3d 93 a2 7d bd
       -0.055634502 0.029240575 0.035978366 -0.06192262
0002d0 13 72 c7 3c b3 84 57 3d 13 1f 15 bc d5 77 9c bc
       0.024346387 0.052616786 -0.009101647 -0.01910011
0002e0 d2 70 7f bd 34 c9 47 bc a0 d3 48 bd 08 56 49 bd
       -0.062363453 -0.012193967 -0.049029946 -0.04915431
0002f0 f1 13 94 bc f1 f4 48 3d 2c 2f 9e bc 79 e2 51 3d
       -0.018075915 0.04906172 -0.019309603 0.05124137
000300 34 01 db 3c a0 04 5e bb 60 88 d3 bc 64 2f 84 bc
       0.026733972 -0.0033877268 -0.025821865 -0.016135879
000310 8d 78 56 3c 61 7e 58 bd bc 27 04 bd 3f a2 00 3c
       0.013090265 -0.0528549 -0.032264456 0.0078511825
000320 73 53 4f bd ea 88 1f 3d a3 76 0e bd e5 f2 2b bd
       -0.050616693 0.03894893 -0.03478111 -0.04197969
000330 cd 6a 76 3d 60 64 0e 3c 40 31 5c bd 8c fe da 3c
       0.060160447 0.008690923 -0.053757906 0.026732706
000340 e2 f8 96 3b 79 31 90 bc 36 52 c7 bc 01 43 23 3c
       0.004607306 -0.017601715 -0.024331193 0.009964705
000350 a5 1b bc bc 64 b5 e1 bc e0 dd 31 bd 89 3f a3 3a
       -0.0229624 -0.027552314 -0.043424487 0.0012454848
000360 8f a4 69 bb 63 bd 10 bb 64 92 69 3c fc 37 ea 3c
       -0.0035651063 -0.002208554 0.014256094 0.028591149
000370 4c 6a 67 bd 48 b2 53 bc c2 ef 78 3d af ac dd 3c
       -0.056497857 -0.0129209235 0.060775526 0.027059881
000380 37 8b cd bc 36 45 6b bd ae e0 62 bc 8d d2 99 3c
       -0.025090797 -0.05743905 -0.013847513 0.018777156
000390 ed 12 c2 3a 6b fe 98 3c 39 25 ad 3c 0a 25 e8 3c
       0.0014806666 0.018676003 0.021135913 0.028337974
0003a0 09 51 15 bc b1 a6 0a bd d7 8f 6e 3d da d6 74 3d
       -0.009113559 -0.033850376 0.058242645 0.05977521
0003b0 6e 8a 08 bc de bb 41 bd f8 ce 39 bd a1 92 26 bc
       -0.008333785 -0.047298305 -0.045363396 -0.010166795
0003c0 92 7f 58 ba 94 f9 1d bd 2f 4e 2a 3d 62 1d e2 bc
       -0.00082587556 -0.038568094 0.041578468 -0.027601901
0003d0 5e 79 83 bc 42 32 1a 3c 26 32 2f bd ee 23 34 3d
       -0.016049083 0.009411396 -0.042772435 0.043979578
0003e0 2d ca 64 bd 6d bc 36 bd 27 7f d8 bc e1 89 12 bc
       -0.055856872 -0.04461329 -0.026427818 -0.008944006
0003f0 a8 3d 32 bd 90 a2 ba bc c4 0b 81 3c 4c f0 7e 3d
       -0.04351583 -0.022782594 0.01575268 0.062240884

cnn.conv_layer.3.conv.bias f4 [64]
000000 b3 fe b6 3c f4 69 33 3c be 5b 7d bd c1 ef 1c 3d
       0.022338247 0.010950554 -0.06185507 0.038314585
000010 13 f2 4d 3d 88 0e e0 bc d1 4e 0b 3d 5f 69 81 3c
       0.050279688 -0.027350679 0.034010712 0.015797315
000020 d9 c3 6a bd 94 6f 4e 3c 35 89 82 bc ea 7e 1f 3d
       -0.05731568 0.0125998445 -0.015934566 0.038939394
000030 e8 e2 9b 3c 22 04 31 bd c7 b8 2c 3d 80 e8 29 3d
       0.019029096 -0.043216832 0.042168405 0.041481495
000040 53 44 5b bc 9c 86 2a bd cf 83 e3 3c 54 de 6d bd
       -0.013382989 -0.04163228 0.027772812 -0.058073357
000050 b7 5c cb 3c 8b 1f 4e 3d 34 dd 60 bd 54 6e de bc
       0.024824483 0.05032305 -0.054898456 -0.027152218
000060 13 f1 be bb 0a 77 d1 3c e2 59 6e 3d 0a 82 b6 3c
       -0.005827078 0.025569458 0.058191188 0.022278804
000070 fe db 7d bd d1 7e 9d bb f2 0b 8c b9 9e 69 1c bd
       -0.06197738 -0.0048063775 -0.0002671178 -0.038186662
000080 a9 f8 22 3d 64 9d a9 3c c6 de 72 3d d1 85 0d 3d
       0.039787922 0.020704933 0.059294485 0.034551445
000090 f5 c9 0d bd 11 68 84 3c f2 1d 57 3d 4e a4 e4 bb
       -0.03461643 0.016162904 0.052518792 -0.0069775945
0000a0 28 3a a6 39 48 7b 84 3c 76 3f b3 3c 48 14 38 bd
       0.00031705317 0.016172066 0.021880846 -0.044941217
0000b0 a3 8c e3 3c e1 ae 5c bc ae c7 1e 3a ff 2a 49 3d
       0.027777022 -0.013469429 0.0006056976 0.04911327
0000c0 69 78 23 3d 94 04 f3 bb 71 87 06 bc 5d c9 dd bc
       0.039909754 -0.0074163172 -0.008211003 -0.027073557
0000d0 3e 33 8f bb 3c 82 ea 3c 70 01 de 3b 08 37 98 bc
       -0.004370122 0.028626554 0.0067750737 -0.018580928
0000e0 31 bf c6 bc e9 d1 e7 3c a0 0a a6 3c 79 78 ee bb
       -0.024261089 0.028298335 0.020268738 -0.007277545
0000f0 11 85 59 bd 17 a9 f7 bb 28 bb 5f bd 57 9d f7 bc
       -0.053105418 -0.007557999 -0.054621845 -0.030226393

cnn.conv_layer.3.adn.N.weight f4 [64]
000000 01 0a 80 3f 35 0b 80 3f f1 08 80 3f 0a e7 7f 3f
       1.0003053 1.000342 1.0002729 0.9996191
000010 9c 0b 80 3f 5b e8 7f 3f 5e e6 7f 3f 4b ea 7f 3f
       1.0003543 0.9996392 0.9996089 0.9996688
000020 a8 06 80 3f 47 02 80 3f 41 01 80 3f 07 ea 7f 3f
       1.0002031 1.0000695 1.0000383 0.9996647
000030 62 0a 80 3f a4 f4 7f 3f b0 09 80 3f c9 02 80 3f
       1.0003169 0.99982667 1.0002956 1.000085
000040 3d 0b 80 3f c6 f5 7f 3f bb 05 80 3f 1e 09 80 3f
       1.000343 0.99984396 1.0001749 1.0002782
000050 39 ee 7f 3f 3c 0b 80 3f 83 01 80 3f e3 0a 80 3f
       0.99972874 1.0003428 1.0000461 1.0003322
000060 2a 0c 80 3f 8e eb 7f 3f 20 0d 80 3f 79 ea 7f 3f
       1.0003712 0.999688 1.0004005 0.9996715
000070 dc e8 7f 3f 11 05 80 3f b6 e6 7f 3f 03 0d 80 3f
       0.9996469 1.0001546 0.9996141 1.0003971
000080 0b eb 7f 3f 48 0b 80 3f bb e6 7f 3f eb 02 80 3f
       0.9996802 1.0003443 0.9996144 1.000089
000090 c0 e6 7f 3f d1 f2 7f 3f 01 ee 7f 3f e4 e7 7f 3f
       0.9996147 0.99979883 0.9997254 0.9996321
0000a0 de ea 7f 3f d0 01 80 3f a6 06 80 3f b1 0a 80 3f
       0.99967754 1.0000553 1.0002029 1.0003263
0000b0 8d 09 80 3f e4 eb 7f 3f 3c 0b 80 3f 74 ff 7f 3f
       1.0002915 0.99969316 1.0003428 0.99999166
0000c0 97 06 80 3f 45 e9 7f 3f 6d 09 80 3f 26 08 80 3f
       1.0002011 0.99965316 1.0002877 1.0002487
0000d0 5d f8 7f 3f 6d f6 7f 3f c9 07 80 3f db f1 7f 3f
       0.9998835 0.9998539 1.0002376 0.9997842
0000e0 43 ea 7f 3f 7c 0c 80 3f 69 00 80 3f 4e ec 7f 3f
       0.9996683 1.000381 1.0000125 0.9996995
0000f0 d3 05 80 3f 5c 01 80 3f 37 07 80 3f bc e7 7f 3f
       1.0001777 1.0000415 1.0002202 0.99962974

cnn.conv_layer.3.adn.N.bias f4 [64]
000000 ae f7 ab 39 3a 5c a2 39 11 fc ba 39 8a 9f c4 b9
       0.00032800197 0.00030967762 0.0003566449 -0.000375029
000010 57 ce 5f 39 7e e6 be b9 d9 6c d1 b9 8c f3 b2 b9
       0.00021343805 -0.00036411354 -0.00039944684 -0.00034132262
000020 df b0 4d 39 e2 49 74 38 e3 c1 a4 b9 22 6a ba b9
       0.00019616213 5.8242942e-05 -0.00031424974 -0.0003555576
000030 2f f9 a6 b8 b9 54 4d b9 c8 9e 73 39 07 f2 1f 39
       -7.961911e-05 -0.00019581885 0.00023233437 0.00015253584
000040 63 68 af 39 5e 47 97 b8 8a d8 65 b9 88 72 92 38
       0.00033456375 -7.213534e-05 -0.00021919809 6.9831556e-05
000050 16 1a c8 b9 73 17 9b 39 39 91 8e 39 26 c6 c6 39
       -0.00038166408 0.00029581375 0.0002719255 0.00037913135
000060 a9 ef a2 39 ab 32 b5 b9 f5 e7 d4 39 88 85 c7 b9
       0.0003107761 -0.0003456076 0.00040608612 -0.00038055726
000070 0a 90 ba b9 3c 31 2c 39 49 b6 c1 b9 d9 4d c0 39
       -0.00035584002 0.0001642154 -0.00036947642 0.00036679095
000080 79 02 87 b9 f9 00 c5 39 5c b8 a8 b9 fe 77 9e b8
       -0.0002575105 0.00037575493 -0.00032180815 -7.5563774e-05
000090 0c ed b7 b9 8f c1 a4 b9 e1 c4 75 b9 23 e1 b0 b9
       -0.00035081094 -0.0003142473 -0.00023438364 -0.00033737076
0000a0 9b 61 ca b9 b2 b3 bf b9 9e ae 79 39 85 94 90 39
       -0.00038601164 -0.00036564242 0.0002381154 0.00027576476
0000b0 92 f5 c7 39 c0 cd a6 b9 c7 13 a6 39 54 75 16 b9
       0.00038139202 -0.00031815283 0.00031676723 -0.00014348823
0000c0 6a eb d9 38 b1 54 b2 b9 e3 08 6a 39 31 2f 76 b9
       0.000103912156 -0.00034013906 0.0002231929 -0.00023477968
0000d0 16 22 bb b9 cc 43 4d 39 cc 1f 96 35 ef e2 60 b9
       -0.00035692815 0.0001957558 1.1185125e-06 -0.00021446844
0000e0 5c 19 b0 b9 d0 c4 c8 39 59 c5 4f 38 56 b6 be b9
       -0.0003358823 0.0003829361 4.953644e-05 -0.00036375475
0000f0 9e d6 ea 38 7c 62 16 b9 7d 29 8c 39 d6 51 a2 b9
       0.00011197965 -0.00014341803 0.00026733792 -0.0003096002

cnn.conv_layer.3.adn.N.running_mean f4 [64]
000000 53 05 f9 bd c6 6a 2b be 8b 8f bf bd 89 1a 4b 3e
       -0.12159219 -0.1673995 -0.093535505 0.19834341
000010 df e6 5c 3e 09 d0 c2 be 0b 81 cb 3e ee 1b 78 3e
       0.21572445 -0.38049343 0.3974689 0.24229404
000020 e0 c0 f1 be 42 88 46 be 90 51 9d be a3 46 4d 3e
       -0.47217464 -0.19387916 -0.3072629 0.20046477
000030 50 f7 9f 3e 16 3d 8b 3d 83 03 af be 63 f4 17 be
       0.31243372 0.067987606 -0.34182367 -0.1483932
000040 9a a0 29 3e 47 bf 13 be 71 dc 53 3e 9d f6 8a be
       0.16565171 -0.14428435 0.2068956 -0.27141276
000050 c1 97 f7 3d 95 12 81 bd 5e b3 60 be 77 65 a7 3d
       0.12089492 -0.06302372 -0.21943423 0.0817365
000060 b2 14 a4 3b cd 3c ff be 66 0f f6 3e 3f 0a ac be
       0.00500735 -0.49851075 0.48058623 -0.33601567
000070 b3 63 a6 3d 14 08 85 bd 01 91 35 be 77 15 8d bb
       0.08124485 -0.064956814 -0.17731096 -0.0043055373
000080 d3 49 6a be 82 14 42 3e 20 9e 86 3d 44 ef 7c bb
       -0.22879724 0.18953136 0.06573129 -0.0038594762
000090 25 c3 0f 3e f7 a6 29 3e 84 7d a9 be df 05 20 bd
       0.14039285 0.16567598 -0.33103573 -0.0390681
0000a0 e8 50 93 3e 43 61 c6 3e 7c 7a 97 bc 44 a0 36 3e
       0.28772664 0.3874608 -0.018491022 0.17834574
0000b0 66 cd ba 3e f6 9e 43 be ee f1 71 3e d8 df bf bb
       0.36484832 -0.19103608 0.23627445 -0.0058555417
0000c0 7f 56 6d 3e f0 87 ba be d5 2f 4e 3d 30 e8 98 be
       0.23177527 -0.36431837 0.050338585 -0.29864645
0000d0 68 22 e0 be c3 75 17 3e 2a d9 63 bd 16 70 2b bd
       -0.4377625 0.14791016 -0.055627026 -0.04185494
0000e0 0b eb 5b bd 4f e8 cc bd 59 42 07 bf 81 21 5f be
       -0.05369095 -0.10005247 -0.52835613 -0.21790124
0000f0 c6 61 7c be c2 3b 4c be 85 26 16 bf 55 bc c5 3d
       -0.24646673 -0.19944671 -0.58652526 0.09655062

cnn.conv_layer.3.adn.N.running_var f4 [64]
000000 45 ee 54 3e f4 6a 5e 3e 59 92 c1 3e d4 e0 3e 3e
       0.20794018 0.21720487 0.37806967 0.18640453
000010 7b 04 39 3e 91 6e 7f 3e f0 9d 47 3e 94 3d 35 3e
       0.18068115 0.24944521 0.19493842 0.17699271
000020 6f b7 cb 3e d8 e8 a7 3e df 4f 3f 3e 4f 2f 27 3e
       0.39788386 0.32794833 0.18682812 0.1632664
000030 e0 99 82 3e 05 c7 59 3e f8 07 b0 3e 8a 98 0d 3e
       0.25508022 0.21267326 0.3438108 0.1382772
000040 14 dc b5 3d 45 2e 2e 3e fa c3 4b 3e 07 c7 5e 3e
       0.08879867 0.17009838 0.19898978 0.2175561
000050 c4 9f 38 3e cf 1d 3b 3e 12 3f 02 3e 63 e3 25 3e
       0.18029696 0.1827309 0.12719372 0.16200022
000060 91 cd 48 3e bf f4 b9 3e 60 96 a2 3e 2f 27 3d 3e
       0.19609667 0.3631954 0.31755352 0.18471979
000070 7c b5 97 3e 8a e0 88 3e 7b 80 0e 3e 03 f4 25 3e
       0.2963065 0.2673381 0.13916199 0.16206364
000080 b3 1b 8e 3e b1 12 28 3e 3c 32 bc 3d 38 a4 dd 3d
       0.27755508 0.1641338 0.09189269 0.10822338
000090 f6 d2 d2 3d 0b e1 82 3e 46 e3 14 3e 48 dc 01 3e
       0.10294144 0.2556232 0.14539823 0.12681687
0000a0 9c 4e 8a 3e ee d8 ae 3e 5b 72 f8 3d 53 7e 46 3e
       0.270131 0.3414988 0.121311866 0.19384126
0000b0 e8 27 fd 3d 8d 1f 11 3e 8f 9b 35 3e a0 bd ee 3d
       0.12361127 0.14172192 0.17735122 0.11657262
0000c0 7d b6 20 3e 23 75 13 3e 08 4e c6 3d 05 e2 8e 3e
       0.15694614 0.14400153 0.09682852 0.27906814
0000d0 c6 22 b2 3e 31 69 48 3e c8 18 a4 3d 49 14 c8 3e
       0.34792155 0.19571377 0.08012539 0.39077976
0000e0 00 ed 5c 3e 8e ad 32 3e 20 c6 2e 3f 62 f6 0b 3e
       0.21574783 0.17449018 0.68271065 0.13668206
0000f0 e9 76 0b 3e 5b d9 08 3e d8 87 db 3e e7 0c 64 3e
       0.1361958 0.13364165 0.42877078 0.22270547

gru.gru.weight_ih_l0 f4 [192, 512]
000000 24 71 1a 3c 68 9f d3 3d 04 b5 e0 3d 4a 53 83 bd
       0.009426389 0.10333139 0.10972026 -0.064123705
000010 0a a7 d7 3c 05 96 fe 3d a2 22 53 bd b6 c8 07 bc
       0.026324768 0.12430958 -0.0515467 -0.008287599
000020 77 22 76 3d 7b 4b ea bd ad 01 75 3d 0b 28 8e bd
       0.060091462 -0.11440178 0.05981605 -0.06941231
000030 62 f9 e0 bd b8 f3 60 bd 34 20 bb 3d fb 07 54 bd
       -0.10985066 -0.05491993 0.09137002 -0.051765423
000040 51 79 98 3d fc 78 08 bb af 50 fe 3d 4d 5a 6f 3d
       0.07445014 -0.0020824065 0.12417733 0.058435727
000050 01 bd 57 3d ae 5a 92 bd 48 ee 8a 3d 85 f5 cb 3d
       0.052670483 -0.07146202 0.0678373 0.099589385
000060 14 d1 38 bd 08 6e b4 bd 07 7a de bd d7 d8 52 bb
       -0.045121267 -0.08810049 -0.108631186 -0.0032172704
000070 9d 8d ee bd 33 5d f5 3d 73 20 fb bd 11 8a a9 bd
       -0.11648104 0.11980667 -0.122620486 -0.08278287
000080 00 10 65 3d 58 c6 87 3d 65 dd 20 bd 63 6a 3a bd
       0.055923462 0.06629628 -0.03927364 -0.045511615
000090 94 b6 74 bd 04 e0 ad 3d dd 58 f8 3d 00 76 ff 3d
       -0.059744433 0.08489993 0.12126324 0.124736786
0000a0 31 03 de bb 1d 58 b3 3d 41 f2 9b b9 4f c5 e5 bd
       -0.006775283 0.08757041 -0.00029744397 -0.11219274
0000b0 f5 6c 37 3c 22 95 ef 3d e9 34 08 3c fc 10 38 3d
       0.011195411 0.11698367 0.008313396 0.044938073
0000c0 9d 2f 3c 3d e1 6b a1 bd a8 4e d0 bd 56 da 01 3c
       0.045943845 -0.078819044 -0.101712525 0.0079255905
0000d0 ea 28 92 3c 72 e9 93 3d a4 eb bd 3d 67 66 06 3d
       0.017841775 0.072222605 0.092734605 0.032812502
0000e0 42 75 47 3d 6c eb 7c bd 06 ad ad ba 5a 07 ba 3c
       0.04869581 -0.061747953 -0.0013250418 0.022708584
0000f0 a5 83 eb bd 91 da 14 ba 71 fd f5 3d b3 a4 05 ba
       -0.114997186 -0.0005678321 0.12011231 -0.00050980895
000100 44 c8 9e 3d 19 b2 83 bb 35 52 27 bc 25 ba 15 bc
       0.077530414 -0.0040190336 -0.010212471 -0.009138619
000110 c0 71 2c 3d a8 15 06 3c 61 40 df 3d 3f 5c 5d 3d
       0.042100668 0.008183874 0.10900951 0.05404305
000120 6d d7 c2 3d 1a 67 6b 3d d5 bc 90 3d e1 fb 1c bd
       0.095137455 0.057471372 0.07067267 -0.038326148
000130 8d c9 02 3c 14 3d a5 3d 0c d9 29 bc 14 dd 03 3d
       0.007982624 0.0806829 -0.010366689 0.03219326
000140 5c 28 e2 bd 2f 1d fb bd f3 1f 39 bd d0 87 af bb
       -0.11042854 -0.12261426 -0.045196485 -0.0053567663
000150 0f ac eb 3d 4d f3 67 bb bf 79 d3 3d b0 2e bc 3d
       0.11507427 -0.0035392821 0.103259556 0.091885924
000160 e7 fd ef bd f6 78 7f bd f0 4e 88 bd aa 73 92 bd
       -0.1171835 -0.062371217 -0.06655681 -0.071509674
000170 29 af b1 3c c0 3e f6 bb d4 8d dc 3c 5a d1 f3 bd
       0.021689968 -0.0075148046 0.026923098 -0.11905165
000180 4c d6 64 3d bb 40 c8 3d f5 38 af bd 81 60 2a 3d
       0.055868432 0.09777971 -0.085557856 0.04159594
000190 c4 f0 a6 3c e5 ab 9e bb ff 46 18 3b a2 96 80 ba
       0.020378478 -0.004842269 0.0023235676 -0.0009810517
0001a0 4c 58 ab 3c 5a 99 3d bd ca cf df bd c2 4f c3 bd
       0.020916127 -0.046288826 -0.109283045 -0.09536697
0001b0 c1 4c d8 3c 29 85 ea bd 9b f4 3d bc 69 cd 20 3d
       0.026403787 -0.114511795 -0.011593963 0.039258394
0001c0 d9 56 b9 bd 83 bf e9 bd 5e e5 58 3b 1f b0 dd 3d
       -0.09049768 -0.11413481 0.0033095698 0.10824608
0001d0 7d 7a 06 3d f5 85 0c bd 4e 1a 73 3d 97 7e 52 bc
       0.032831658 -0.03430744 0.059351258 -0.012847564
0001e0 d7 2b cf 3c 9a c5 3d ba 32 78 8f 3d b2 d0 95 bc
       0.02528946 -0.0007239223 0.07005347 -0.01828799
0001f0 ef d6 86 3d 92 20 ca 3d fc f1 d3 3d e3 02 83 3d
       0.06583964 0.098694935 0.10348889 0.06397035
000200 6e 7b c6 3d 4b 4e 10 3d a0 54 cb 3d a2 bf ee 3d
       0.09691511 0.035230916 0.0992825 0.11657645
000210 f2 32 7d bd d0 61 8e bd df d5 f0 bd c5 96 63 bd
       -0.061816163 -0.0695225 -0.11759543 -0.055563707
000220 8e df ed 3c f6 71 a3 3c c5 8b 77 3d 24 9a 98 bd
       0.029037263 0.019951802 0.06043603 -0.07451275
000230 e8 86 a2 3d 6d e6 c3 3c f5 70 3b 3d a9 33 90 3d
       0.079358876 0.023913587 0.04576202 0.070411034
000240 46 1a aa 3d c5 ef d6 bd f9 68 b2 3d 03 8e 49 3d
       0.083057925 -0.10494951 0.08711428 0.0492077
000250 28 69 c7 3d 8d 24 33 bd 2c a6 c1 3d 49 9d 8e bd
       0.09736854 -0.04373603 0.09455523 -0.069635935
000260 fa 88 ef bc 43 6b 77 3d 17 01 ce bb 37 71 2f 3d
       -0.02924012 0.060405027 -0.006286751 0.04283258
000270 f3 a4 3e bd a9 98 d0 3d f9 a3 83 3d 24 7d c5 bd
       -0.046544027 0.101853676 0.0642776 -0.09643009
000280 65 f5 81 3c b5 ff 3e 3d ab 79 e0 bd 82 41 9f bb
       0.015864084 0.04663058 -0.10960706 -0.004860104
000290 e1 bb 95 bd 4e 24 64 bd 84 42 9c 3a be 38 62 bd
       -0.07311226 -0.055698685 0.0011921679 -0.055229895
0002a0 9c 4e b8 3d 7f 87 2c bd 9c da 7e bd 51 46 da 3d
       0.089993685 -0.042121407 -0.0622202 0.10657943
0002b0 49 75 40 bd af 45 13 3d 3f af 84 bc cb 58 99 bd
       -0.04698685 0.035955127 -0.016196845 -0.07487639
0002c0 75 27 c8 bd a8 15 9e bd 03 27 28 bd 45 84 d7 3c
       -0.09773151 -0.07718974 -0.04105283 0.026308188
0002d0 c0 ba 63 bd be 67 60 bd d2 38 81 3d df f1 8d 3c
       -0.05559802 -0.054786436 0.06309666 0.017327247
0002e0 65 42 f0 3d c6 eb 69 bd ae 1f f0 3d c2 ae 8b 3d
       0.11731414 -0.057109617 0.117247924 0.06820442
0002f0 bd 2e 63 3d 61 26 c4 3b 6d 45 d5 bc ec 38 e6 bd
       0.055464495 0.0059860204 -0.026034081 -0.11241326
000300 2c 1b ce bc 0a 62 03 3c 21 67 0b bc 2b 80 ce 3d
       -0.025159441 0.00801898 -0.008508475 0.1008304
000310 72 5a 7f 3d b9 cb e8 3d 99 12 1e 3d a4 be aa bd
       0.062342115 0.11366982 0.038591955 -0.08337143
000320 09 93 21 3d c7 e6 c5 3d 94 34 c7 bd 76 ea 7b bd
       0.039446864 0.09663158 -0.09726825 -0.061502896
000330 dd 91 78 bd 55 c4 a4 3d 8a d2 65 bd 0f 19 65 bd
       -0.06068598 0.0804526 -0.05610899 -0.0559321
000340 49 b4 4d 3d 8c 0c c9 bd fe ef d8 bc b8 14 b3 bd
       0.05022076 -0.09816846 -0.026481625 -0.08744186
000350 61 c9 27 bd 8d ed c4 3c d7 04 8b bd bd c7 b1 bd
       -0.040963534 0.024039054 -0.067880325 -0.08680675
000360 87 73 69 3d dc 9f d7 3c d2 70 10 3d a8 82 48 3d
       0.05699494 0.026321344 0.035263844 0.04895273
000370 25 fe 5d 3b 0c 35 18 bd 3a 66 92 3d b9 fa 03 bd
       0.0033873406 -0.037159964 0.071484044 -0.03222153
000380 a0 71 84 3d 11 00 04 bd 05 ba 14 3d 79 2e 8d bd
       0.06466985 -0.032226626 0.036310215 -0.068936296
000390 eb 3b 16 bd f3 f7 2b 3d 16 24 bf 37 8e e4 25 3d
       -0.036678236 0.04198451 2.2785778e-05 0.04050117
0003a0 a3 94 76 bc 8d 14 81 3d 05 cc f5 bd eb fd f0 bb
       -0.015050086 0.06302748 -0.12001804 -0.007354488
0003b0 92 66 a3 ba 11 99 db bd 66 80 f9 bd b0 79 88 bd
       -0.0012466481 -0.107225545 -0.12182693 -0.06663835
0003c0 30 4c b7 bd 7e 4d e2 3d d9 79 67 bd c8 35 ea bd
       -0.089500785 0.11049937 -0.056512687 -0.11436039
0003d0 eb f3 06 3d 33 7b c8 3d a6 49 bb 3d 91 be 3c 3d
       0.032947462 0.097891234 0.09144907 0.046080176
0003e0 ca 35 f4 bd 98 56 7a bd fb bf 3f 3d ab 90 4d 3d
       -0.11924322 -0.06111774 0.046813946 0.050186794
0003f0 ad 42 23 bd bc b8 a9 3d b6 05 1c bd 7b a8 ed bd
       -0.03985851 0.082871884 -0.038091384 -0.11604401
