model_smri_20_ep_scheduler_2022-10-27T09:20:17.731035/best_metric.pth (torch, 561209 bytes, 32 tensors)

cnn.conv_layer.0.conv.weight f4 [8, 1, 2, 2, 2]
00000000: ec0c 523e 26d5 77be 2b34 6dbe df4e 313d
00000010: 9f30 903d 2d90 d3bd 7f43 41be 19d1 403d
00000020: 3e1b 12bd ed5c 05bd 760f 273c d632 46be
00000030: 4181 4cbe 33aa 7e3e fd05 7ebe 4f2c 46be
00000040: ca95 f2bd cfac a0be 52fa 52be d946 3c3e
00000050: ca56 383e 0ec6 d03c c693 663e 2f6f fa3d
00000060: 2130 17bd 89ed 8cbe e6c3 8a3e 9ea1 e63d
00000070: bd1b 213e 22d1 923e 5f7f aa3e 1fc3 65be
00000080: f336 653e 665b ea3c 8113 91be 5af2 b4bd
00000090: b41b 903e 58a3 913e b3d4 893e a5ae b33e
000000a0: cdce 273e 720a 31be af43 463e 9f60 573e
000000b0: 282b ccbd 269e 9b3c a241 ae3e 23c4 a2be
000000c0: ce70 a03e 565d 9ebe 176f a13e fef0 34be
000000d0: 0f09 50bd b9c6 733e d770 1d3d 5c0c 4e3e
000000e0: cbbb c73c 8c68 95be 49dd 9d3c 8de0 56be
000000f0: 56e0 23be e630 96be 499e 0d3e ce64 483e
0.20512742 -0.24202403 -0.23164432 0.043288108 0.07040524 -0.10330234 -0.18873404 0.04707441
-0.03567051 -0.032559324 0.010196557 -0.1935533 -0.19971181 0.24869613 -0.24806972 -0.1935284
-0.11844976 -0.31381842 -0.20603302 0.18386401 0.18001857 0.025485065 0.22517309 0.12228238
-0.036911134 -0.27524975 0.27102584 0.11261295 0.15733238 0.2867518 0.333003 -0.22437714
0.22384243 0.028608035 -0.28335193 -0.088352874 0.28146136 0.28444934 0.2692009 0.3509418
0.16387482 -0.17289141 0.19361757 0.21032952 -0.09969169 0.01899631 0.3403445 -0.31790265
0.31336063 -0.30930585 0.31530067 -0.17670056 -0.05078989 0.23806275 0.03843769 0.20121902
0.024381539 -0.29181325 0.019270556 -0.20984097 -0.16003546 -0.29334182 0.13829912 0.19569704

cnn.conv_layer.0.conv.bias f4 [8]
00000000: 8e75 a93e 34f6 64be edc7 f43d 066a 82bc
00000010: 647d 6a3e 1939 f53c 2e3a 793c 976d 49be
0.330975 -0.22359544 0.11952195 -0.015919697 0.22899395 0.029934453 0.015211625 -0.19670711

cnn.conv_layer.0.adn.N.weight f4 [8]
00000000: fc83 803f d9b5 7e3f 390e 803f 1ad8 7f3f
00000010: f61c 803f 2367 803f c474 7f3f 71b3 7f3f
1.0040278 0.9949623 1.000434 0.9993912 1.0008838 1.0031475 0.99787545 0.9988318

cnn.conv_layer.0.adn.N.bias f4 [8]
00000000: 5e4a 4eb8 fa7d 26bb c786 bcb9 4650 4dba
00000010: 39f6 3c39 581f 143a 3fce a639 9fc6 51ba
-4.9183487e-05 -0.0025404678 -0.0003595857 -0.0007832091 0.00018020802 0.00056504225 0.00031815653 -0.0008002314

cnn.conv_layer.0.adn.N.running_mean f4 [8]
00000000: 124d aa3e 690f 62be 3443 f33d 2d5f 99bc
00000010: f5df 653e d535 e73c e6e8 4c3c 464e 46be
0.33261925 -0.22076191 0.11878052 -0.018722141 0.22448714 0.028223911 0.012506699 -0.19365796

cnn.conv_layer.0.adn.N.running_var f4 [8]
00000000: 74fe ec3d 6e85 973e ddf7 233d ae97 963e
00000010: ea7d 563f f60c d13d 97d3 733e 50d7 833e
0.115719706 0.29593986 0.040031303 0.29412597 0.8378588 0.1020755 0.23811184 0.25750208

cnn.conv_layer.1.conv.weight f4 [16, 8, 2, 2, 2]
00000000: b0b5 a33a 4cd8 f53d 3728 f23b d442 f33d
00000010: f3b0 1cbd 646c c93d eb3d a03d f498 eebd
00000020: a90e f3bc ec2d ff3c ef2a 8f3b 6b1c b2bc
00000030: aea8 993d e608 f83d 7fdd ae3d e6cd 76bd
00000040: 941a 90bd 494b ef3d 7ec3 9ebd f5c4 86bd
00000050: 6eaf 7f3d 9f72 e1bc da6d d5bd 8cfb a1bd
00000060: a4cd 753d 41a7 ee3d 1e53 80bd dc67 ff3c
00000070: d4be 7d3d d4a5 b7bd 9b9c 3d3a 8fe6 443d
00000080: 29dc 0dbd 254f e2bc 7e2c 46bd b06d b23d
00000090: 1a62 df3d 3df3 443d 6df7 28bd 63e3 123c
000000a0: 24b2 7abd bb39 b73d a86b 7e3d 1295 cabd
000000b0: ac25 283d 2283 b7bd fb66 903d 9911 a43c
000000c0: 6caf 013c c874 ae3d e157 623c fe1e a63c
000000d0: 938d c6bc b90c b5bd cbed d53d aea7 f43c
000000e0: e174 df3d d6fe 41bd e443 db3d 3af1 5bbc
000000f0: 6d7a e3bd 398c bf3c b1cd 393d eee9 e73c
00000100: 8603 eb39 c7be d23d 14f9 05bd 4f3e 60bd
00000110: 4787 81bd 3d53 babd 4079 8e3c 2ecd 673d
00000120: 95e1 efbd 5220 b43d f3a2 e63d c660 1439
00000130: a109 dcbd ef44 b9bd 13b0 b73d bd43 da3d
00000140: 712e 96bd 62c2 1a3d cfc5 d2bc 5f63 003e
00000150: e9d6 f0bd eded f3bc bd84 38bd 96e6 08bd
00000160: 9e80 843c 6ba0 933d f959 e13d af63 fe3c
00000170: 0892 e3bd f5fb d83c 005f 463d 6574 abbd
00000180: a575 c93d 4194 013e 7fa5 b8bd 87b9 013e
00000190: 2087 17bc 9133 1ebd abfe f9bd 5210 013e
000001a0: eb73 fc3b 43e0 7c3d d5f3 a53d e06c 98bd
000001b0: 225e 04bd b5d3 e4bd ba91 fe3c 40a6 3239
000001c0: d1c1 81bd 49fa d3bd 43b1 5bbd 471a ee3d
000001d0: b9ed 893d 0cba aebb e8b1 39bd 9d55 5c3d
000001e0: 9285 aabd 8b97 953d f5eb 50bd 8969 f1bd
000001f0: 272c bb3d beab efbb 5929 54bd 5b96 cb3d
00000200: 446f d5bd 309e 25bc b505 afbd b1e9 75bd
00000210: 2aca 843d b716 b0bd 661f adbd 8e12 8ebc
00000220: a04b a4bc a799 6abd f8c9 a03d 3611 0b3d
00000230: f0b5 72bb 384a 8d3d 0bac f8bd ab27 593d
00000240: 083a 553d aa7f c23d c486 0fbd b954 073d
00000250: 1faf d73d a09f 8fbd aa4e 49bd cf71 95bd
00000260: 0df8 da3d 8262 85bc 4894 cf3d ea0a 563d
00000270: 0415 95bc 40ee 993c 2e4c 073c fd7f de3c
00000280: f50f d2bd 2337 e83d 13fc 9b3d 99c7 a33b
00000290: 7359 91bc 0ddf 8e3d 1e19 fbbd 6948 85bd
000002a0: 2e32 c0bd 4e6a 38bc a6c8 f53d 5258 c53d
000002b0: 77ff 323d 1be8 c1bd 66f9 8fbd daa3 dcbd
000002c0: 7ced f4bd 22d3 553c a35f 95bc fd30 88bb
000002d0: 1c94 d7bd 8c66 703d 1950 4abd 9f28 ef3d
000002e0: 4731 3f3c 8ed1 a9bc cd34 b83d 6239 483d
000002f0: 08e4 373d 6d11 8abd 02fe c53c 2aec ccbc
00000300: ecad f5bd 29e3 78bd 3d07 9abd 8cf7 f4bd
00000310: 76fc c1bc 32bb 0c3d 84b2 113d 0f90 7f3d
00000320: 4d47 c33a a70b 9bbd 1900 56bc 9b2c ecbd
00000330: 85b2 943c 526e c33d 83eb fe3c c72f 42bd
00000340: 98cc fabc 1018 ca3c d51f a4bc 2ac3 febd
00000350: af10 8bbd 9896 e63d 8136 c2bd cc94 723d
00000360: d43c dbbc c5a7 e1bd e65a cc3d 2101 383d
00000370: 5fd6 023d 3a5b d4bd 5b91 a63d 6a9c cfbc
00000380: a1ad 8d3d 2a74 243d 3c4c 95bd 7199 cf3d
00000390: 3d8b 99bd 7470 513d 388a d7bd 3ace 2cbc
000003a0: eea5 ba3d cb7f 07bd 8d3c a13d 01c6 9c3d
000003b0: 6ef4 c03d d673 d5bd cab1 bdbd bbd1 e2bd
000003c0: 21e7 07bd 2239 113b 6c2d d83d 1ddc 4b3d
000003d0: 2302 efbd 99f2 24bd c986 88bc 9c8e f73d
000003e0: 3a80 49bd 1ec2 af3d e7cf 533c eb87 f0bd
000003f0: 46c8 0a3d 39dd ba3c d599 b93d 0878 92bd
0.001249006 0.12004146 0.007390048 0.11877981 -0.03825469 0.09835127 0.0782431 -0.11650267
-0.029670076 0.031149827 0.0043691318 -0.021742066 0.07502876 0.12111072 0.08538341 -0.060254954
-0.070363194 0.116842814 -0.07752131 -0.06580535 0.062423162 -0.027520476 -0.10421343 -0.07909307
0.060010567 0.11652995 -0.06265853 0.031177454 0.061949566 -0.08967176 0.0007233114 0.04807144
-0.03463379 -0.02762563 -0.048382275 0.087123275 0.10907383 0.048083533 -0.04125159 0.008965346
-0.061205044 0.08946558 0.062114388 -0.09891714 0.04105155 -0.089605585 0.07050892 0.020027922
0.007915359 0.08518368 0.013814897 0.02027845 -0.02423743 -0.08840317 0.10445746 0.029865112
0.10910965 -0.04736217 0.107063085 -0.013424212 -0.11107335 0.023382293 0.04536218 0.028309789
0.00044825318 0.10290294 -0.032708243 -0.054746922 -0.0632463 -0.09097908 0.0173918 0.05659216
-0.11712948 0.08795227 0.11261549 0.00014150431 -0.10744024 -0.09046351 0.0896913 0.10657451
-0.07333077 0.037783034 -0.025729088 0.12537907 -0.11759741 -0.029776538 -0.045048464 -0.03342303
0.01617461 0.07208332 0.11003489 0.031053392 -0.111118376 0.02648733 0.048430443 -0.0837181
0.09836892 0.1265421 -0.09015941 0.1266843 -0.009248525 -0.038623396 -0.12206777 0.12603882
0.007704248 0.06173731 0.08103148 -0.07442641 -0.032316335 -0.111731924 0.031075347 0.00017037336
-0.06335796 -0.103504725 -0.053635847 0.11626106 0.06734795 -0.005332237 -0.04533568 0.053792585
-0.08326258 0.07304295 -0.051006276 -0.11787707 0.09139281 -0.0073141744 -0.051797245 0.099407874
-0.10421613 -0.010108516 -0.085460104 -0.06003732 0.06483872 -0.085980825 -0.084532544 -0.017342832
-0.020055592 -0.05727544 0.078510225 0.03395196 -0.0037034713 0.06898922 -0.121421896 0.053016346
0.052057296 0.09497006 -0.035040632 0.033039782 0.105314486 -0.07012868 -0.049147286 -0.07297098
0.10691843 -0.016282324 0.10135704 0.052256502 -0.018198498 0.018790364 0.008257909 0.027160639
-0.1025695 0.113386415 0.07616439 0.004998159 -0.017742848 0.06976137 -0.1226065 -0.06507952
-0.09384571 -0.011255814 0.12001161 0.096359864 0.04370066 -0.09468099 -0.07029991 -0.1077344
-0.11959359 0.013050826 -0.01823408 -0.0041562305 -0.105262965 0.058691546 -0.049392793 0.1167767
0.0116694635 -0.020729806 0.08994446 0.04888285 0.044895202 -0.06741605 0.024168972 -0.025014956
-0.119960636 -0.06076351 -0.07520912 -0.11961278 -0.023679953 0.03435821 0.035570636 0.062393244
0.0014898569 -0.07570582 -0.013061547 -0.11531945 0.018151531 0.09542526 0.03111816 -0.047408845
-0.030615136 0.024669677 -0.02003471 -0.12439568 -0.067902915 0.11259192 -0.09483052 0.059223935
-0.026762404 -0.110183276 0.09978275 0.04492295 0.03194272 -0.103689626 0.08133193 -0.025343139
0.06917883 0.040149845 -0.07289931 0.101366885 -0.07497261 0.051132634 -0.1052441 -0.010547215
0.0911368 -0.033080857 0.07872877 0.07654954 0.09421621 -0.104224846 -0.09262426 -0.11075159
-0.033179406 0.0022159298 0.105555385 0.049770463 -0.116703294 -0.04027042 -0.016665833 0.120877475
-0.049194552 0.08581947 0.012927986 -0.11744674 0.033882402 0.022810565 0.09062544 -0.071518004

cnn.conv_layer.1.conv.bias f4 [16]
00000000: a951 903d 78f2 9abd 4401 39bd 4fa9 82bb
00000010: e308 a8bb 17d0 e53d 35bf fcbd 7ea2 593d
00000020: eba3 83bd 4371 fdbd 5858 53bd b074 3e3d
00000030: 8236 60bd 8d53 8dbc f5fe e9bd 9837 0bbb
0.070468254 -0.075657785 -0.045167223 -0.0039874683 -0.0051280125 0.112213306 -0.12341157 0.05313348
-0.06427749 -0.123751186 -0.051597923 0.046498 -0.054739483 -0.017251754 -0.11425582 -0.0021242853

cnn.conv_layer.1.adn.N.weight f4 [16]
00000000: 58be 7f3f 97a5 803f ddc2 7f3f 9c8a 803f
00000010: e03f 7e3f 6aef 7e3f 1f04 813f 88e3 7f3f
00000020: 1cc0 7f3f a8fd 7f3f 7cd9 7d3f 89aa 803f
00000030: 2af7 7f3f 34e5 803f 60ec 7f3f 2a81 803f
0.99899817 1.0050534 0.9990671 1.00423 0.99316216 0.99584067 1.0079383 0.9995656
0.9990251 0.99996424 0.9915998 1.0052043 0.9998652 1.0069947 0.99970055 1.0039418

cnn.conv_layer.1.adn.N.bias f4 [16]
00000000: c486 cd39 184b 88bb 2b17 fdba 6b41 a53a
00000010: 5b59 2738 843b adbb b865 a73b 0323 67bb
00000020: 26f5 60bb 34bf f3ba dc22 b139 ca37 f63b
00000030: df16 333a fa65 403a 267b 8aba a26b aaba
0.00039201055 -0.0041593425 -0.0019309273 0.0012607997 3.989912e-05 -0.005286636 0.0051085614 -0.0035268671
-0.0034325807 -0.0018596412 0.00033786043 0.007513975 0.0006831716 0.00073394144 -0.0010565266 -0.0013002048

cnn.conv_layer.1.adn.N.running_mean f4 [16]
00000000: 51b8 ce3e e763 55bd 2454 dbbd 2ad4 3fbe
00000010: 12d3 183d 249a 4dbe adc0 b2be f041 b73e
00000020: 426d debb 5e32 e73c bb7f 51bd a0a9 05bf
00000030: 3461 853e 447d e0bd 923b ae3d 3aa4 943d
0.40374997 -0.052097227 -0.10709408 -0.18733278 0.037310667 -0.20078331 -0.34912625 0.35792494
-0.006787927 0.02822226 -0.051147204 -0.5221195 0.26050723 -0.109613925 0.08507456 0.07257886

cnn.conv_layer.1.adn.N.running_var f4 [16]
00000000: c213 6e3d 1900 af3d 4ed7 6a3d f980 9b3d
00000010: 9f37 283d 6d61 7f3e d4e5 d23d 7de8 963d
00000020: b3ad 703e ef51 c03d 7a72 5a3d 9d96 193f
00000030: 0544 bc3e 0d48 b83c 76e3 533d 3d37 463e
0.05812431 0.085449405 0.057334237 0.07592959 0.04106867 0.24939509 0.102977425 0.07368562
0.23503761 0.093906276 0.05333183 0.5999544 0.36770645 0.022495294 0.051730596 0.19357009

cnn.conv_layer.2.conv.weight f4 [32, 16, 2, 2, 2]
00000000: 3df8 43bd 5fd3 38bc 7692 f03c 8af6 b83c
00000010: 4382 88bd 958f 88bd 203b a6bd 5efa 213a
00000020: 1021 b23d 556a 84bc 34c7 9d3d 2f82 55bd
00000030: b1ea 16bd 687d 323c 3ee1 59bd 47dd aa3d
00000040: bf8b 92bd 9a71 26bc 63aa 1c3c fb79 6ebb
00000050: 754a 91bc 2322 55bd 7ee1 9a3d a2ef 77bd
00000060: e4bb 993c 9930 c3bc cc40 78bd b9c2 a2bd
00000070: faa5 14bc 8c93 023d e52b 75bd 1ad3 32bd
00000080: f7c3 1fbd 1acb 8a3d e607 02bd 5742 51bd
00000090: eac4 29bc 2b33 693d a20c 85bd 0e7b 553d
000000a0: 9b3b 3a3d 6d28 ec3c ead8 96bd 2bf7 85bd
000000b0: 39fb fcbc 59f2 89bd 602f 02bd 3bde bb3c
000000c0: cfe0 6c3c 41bb 34bd 6e94 71bd 5f95 693d
000000d0: c588 59bd d6ae a0bd 8515 733d 8290 84bd
000000e0: 6a61 a3bd 8281 b03d c72d 81bd 23ae 073d
000000f0: e3c7 88bd e613 663d 15d8 583d e6c0 e3bc
00000100: 992e 153b fa8f 9d3c a59b 9abd 3670 29bd
00000110: d577 aabb 2ecf 7ebd e434 c63c d554 a53d
00000120: d9f4 41bc 0b55 9b3d bbdb b2bd 599d d13c
00000130: fef0 99bd 1077 5ebd 2973 163d 4c6d 943d
00000140: be36 a13d 8e72 f6bc c9f4 12bd 6553 91bd
00000150: a6c0 503d 8d71 0fbd 6ae7 133d 26d1 abbb
00000160: 5898 013d ca7a 3bbc 2a0a ffbb aca6 8cbd
00000170: d4a1 e73c ebd7 dabb 77c3 c73c 90b0 47bd
00000180: 8ea5 6a3d 8ac9 563d 9c74 9dbd 5833 963d
00000190: 06f1 803d 9e7b 80bd 569f ad3d 5bc8 413d
000001a0: 7404 a8bd e68a 21bd b080 6cbc 421e c2bc
000001b0: 22be 9d3d cc75 953d d635 2fbd 0a22 c93b
000001c0: c0b8 a0bd 8384 cc3c 02e8 7c3c a7cb e63c
000001d0: 2788 4e3d 2e3e 03bc 9522 75bd bfba 4bbd
000001e0: 242a 8dbd 114c 2b3d d847 a83d 24ae aebc
000001f0: 7c9e f0bc e5f8 a0bd ea08 45bd 69bc c8bc
00000200: e26a 823d e564 b0bd 61e8 913d 5b1c 8d3d
00000210: b5de a0bd e3a5 3cbd 92e5 c53a 28d5 b5bc
00000220: 34bc 9cbd e60f 83bd 60da f93c fe9e 203c
00000230: 5b21 633d 3d65 203c f41d 3abd 955a 713d
00000240: 5842 3dbd 8cab b1bc 3b2f d8ba e4b9 78bc
00000250: 581b 943d f833 63bd 00f0 793b be42 61bd
00000260: ee5c 853d 4329 76bd fb4a 6a3d 359c 803d
00000270: 05b6 f33b 13c5 e43c 13f8 133d 809b bebd
00000280: fbc4 25bd 6cb7 893d c16e 99bd 985c b0bd
00000290: 69d5 313d 1677 663d c0a4 80bd 0b10 ac3d
000002a0: f24a a3bd 3e85 ebbc 6de8 1ebc 40bd cdbc
000002b0: 56b0 893d a127 ad3d 3004 7ebd 2cc6 973d
000002c0: abd0 993d 4d64 813d 1c11 31bd b834 883d
000002d0: 0934 eabc 74d1 df3c 8a0a cc3c b3ae 783d
000002e0: 2e32 ab3d 15ea 773d c985 743d 8d24 c1bc
000002f0: 38fd 453d 3c95 8f3d a120 75bc 210c 993d
00000300: 8e2c 83bc 3b56 96bd 1d7a 643d b0e8 3cbd
00000310: 6753 d13c 619f ad3d ed18 723d cad7 4ebd
00000320: 5c19 a03c 2d2f 463d 6fad 94bd 9b9f ad3b
00000330: 893d 503d 026d 7d3d 8edb 07bd d56a 33bd
00000340: 383a 2e3d 8854 05bd e46d 473d 26e0 2fbc
00000350: 2904 983d b8e6 63bd d220 f73c 69b1 973c
00000360: 755c 93bd 5cd5 603d 0bcd 8f38 defa a7bd
00000370: 9c1e a13d 38b7 0fbd 5a22 57bd 2e5a b5bb
00000380: ffdb 683d 30b1 9c3b fbde a73c 52bb 38bd
00000390: 083f 3cbc b163 393d 39d7 873d 672e 83bd
000003a0: 735f af3d 2dc3 b6bd c73d 253d 139b 033d
000003b0: 31d4 81bd bbb4 8dbd d2a8 a73d 6945 223c
000003c0: fed2 903c a86e 90bd 33f2 b23d 2f90 50bb
000003d0: de69 e0b8 95e8 9d3b 455d 923d 05d9 8d3d
000003e0: 43fd a1ba 118a a43d 37ae 583d 0e62 b33c
000003f0: 7797 48bc 8cb5 8abd 7d4f f6bc ae99 8b3d
-0.04784416 -0.011280864 0.029366713 0.022578496 -0.066654705 -0.06668011 -0.08116746 0.000617897
0.086977124 -0.016163984 0.077040106 -0.052126106 -0.036844913 0.010894157 -0.053193323 0.083429866
-0.07155561 -0.010158921 0.009562108 -0.0036388624 -0.0177357 -0.05203451 0.075625405 -0.060531266
0.018766351 -0.023826884 -0.06060867 -0.07947297 -0.009072775 0.031878993 -0.059856314 -0.043658353
-0.039005246 0.0677702 -0.031745814 -0.051088657 -0.010361889 0.056933563 -0.0649655 0.052119307
0.045467 0.02882787 -0.07365592 -0.06541284 -0.030881511 -0.06735677 -0.03178346 0.022933116
0.014457895 -0.04412389 -0.058979444 0.057027217 -0.05310895 -0.07845847 0.059346694 -0.06472875
-0.07977565 0.08618452 -0.063075595 0.033125054 -0.0667875 0.05617132 0.052940447 -0.027801942
0.002276337 0.019233692 -0.07549218 -0.04136678 -0.0052022734 -0.0622093 0.024195142 0.08072821
-0.011838161 0.0758458 -0.087333165 0.025587725 -0.07516669 -0.054312766 0.03673092 0.07247409
0.07871769 -0.03008392 -0.035877977 -0.07095984 0.050964974 -0.0350204 0.036109366 -0.0052434383
0.031639427 -0.011442849 -0.007783194 -0.06867728 0.028275408 -0.0066785715 0.024385197 -0.048752367
0.05728679 0.052438296 -0.07688257 0.07334012 0.062959716 -0.06273578 0.084776565 0.047310214
-0.08203974 -0.039439104 -0.014434978 -0.023696069 0.077022806 0.072978586 -0.04277595 0.006138091
-0.07847738 0.02496553 0.015436174 0.02817328 0.050422814 -0.00801043 -0.059847433 -0.04973864
-0.06892803 0.04182059 0.08216828 -0.021323271 -0.029372446 -0.07859973 -0.048104204 -0.024503903
0.063680425 -0.08612994 0.07124401 0.06890174 -0.07854978 -0.04605664 0.0015098325 -0.022196367
-0.076530844 -0.06399517 0.030499637 0.009803532 0.055451732 0.009789762 -0.04543872 0.058924276
-0.04620585 -0.021688245 -0.0016493568 -0.0151810385 0.07231778 -0.055469483 0.0038137436 -0.05499529
0.065118656 -0.060097944 0.057200413 0.06279794 0.00743747 0.027926004 0.036125254 -0.09307003
-0.04047106 0.06724438 -0.07491828 -0.08611411 0.043416414 0.056265913 -0.062814236 0.084014975
-0.07973279 -0.028750058 -0.009698969 -0.025114655 0.067230865 0.08454824 -0.062015712 0.07410845
0.075105034 0.06317959 -0.043229207 0.0665068 -0.028589265 0.027321555 0.02490737 0.06071348
0.083591804 0.060525972 0.0596979 -0.023577 0.04833719 0.07010886 -0.014961393 0.074730165
-0.016012456 -0.07340666 0.05578052 -0.046120346 0.025552465 0.08477665 0.059105802 -0.05049876
0.019543342 0.048384834 -0.07259642 0.0052985675 0.050839934 0.061871536 -0.033168368 -0.043803055
0.04253599 -0.03255132 0.048688784 -0.0107345935 0.074226685 -0.055639952 0.030167017 0.018517213
-0.07195369 0.054890975 6.8569636e-05 -0.08202146 0.078671664 -0.03508684 -0.052522995 -0.005534432
0.05685043 0.0047818646 0.020492068 -0.045100518 -0.011489637 0.04526109 0.06632847 -0.06405335
0.08563127 -0.089239456 0.04034212 0.032130312 -0.063393004 -0.06919237 0.08186497 0.009904244
0.017678734 -0.07052356 0.08737602 -0.0031824221 -0.00010700872 0.0048189857 0.07146696 0.06926159
-0.0012358803 0.080341466 0.05290052 0.021897342 -0.012243143 -0.067729086 -0.0300672 0.068164214

cnn.conv_layer.2.conv.bias f4 [32]
00000000: 65b6 b33c 63cd 293d 25d3 973d d728 923b
00000010: c9a5 a4bd 9c24 d1b9 cbdb aebd 7d01 543c
00000020: 2154 41bc 842f 6c3d 7571 60bd 8fd5 8d3d
00000030: ff48 1ebc d8c3 32bd cf29 863d 4d3c 403d
00000040: ba20 f93c ac73 86bc 70fe 153d d0fd d13c
00000050: e15b 633d 8e75 113c 7a1a a73d 3c68 e0ba
00000060: 3b32 7dbc a845 72bd 20e0 43bd a591 6b3d
00000070: 7a54 843a f0e2 91bc 4b94 873c 50d0 7b3c
0.021937558 0.041455638 0.074133195 0.004460435 -0.080394335 -0.00039890863 -0.08538016 0.012939808
-0.011799843 0.057662502 -0.0547957 0.06925499 -0.009660958 -0.043643802 0.06550943 0.046932507
0.030411113 -0.016412579 0.036619604 0.025633723 0.055507544 0.008878125 0.08159347 -0.0017120908
-0.01545387 -0.05914846 -0.047821164 0.057511944 0.0010095977 -0.017808408 0.016550204 0.01536949

cnn.conv_layer.2.adn.N.weight f4 [32]
00000000: 0480 7f3f 7941 803f de3a 7f3f 5c15 803f
00000010: 650f 803f 5cd2 803f 4614 803f cf2d 803f
00000020: 0d6e 7f3f 47ca 7f3f a259 803f cf9d 7e3f
00000030: a51d 803f 67e9 7f3f 938a 7f3f 7428 803f
00000040: 2a2b 813f 183e 803f a6ec 7f3f 720d 803f
00000050: f1f0 7f3f 0d62 7f3f 6aba 7f3f bb70 803f
00000060: d528 803f ea6f 7f3f 08c7 7f3f 55ee 7f3f
00000070: dba3 7f3f e27c 803f 3c01 7e3f 3a0e 803f
0.9980471 1.0019981 0.996992 1.0006518 1.0004698 1.0064197 1.0006187 1.001398
0.997773 0.99918026 1.0027354 0.99459547 1.0009047 0.9996552 0.9982082 1.0012345
1.0091298 1.001895 0.9997047 1.0004103 0.9997702 0.9975899 0.9989382 1.0034403
1.0012461 0.9978014 0.9991307 0.9997304 0.998594 1.0038111 0.99220634 1.0004342

cnn.conv_layer.2.adn.N.bias f4 [32]
00000000: 4cfe cfba d454 04bb eeac 6abb 05e7 99bb
00000010: c981 633a b2d2 15bb 17e0 fb3a 3396 d8ba
00000020: 19d1 beb9 43ea 06ba 3064 273a a372 a8bb
00000030: f864 6338 04d4 55bb 0ff3 c0bb a151 183a
00000040: 5304 51ba 5a5b 19bb daca 8abb d910 5dbb
00000050: 4cc2 743a 3310 16bb 881e abba 6d0b 7eba
00000060: b837 aaba 038d d339 7e56 8637 2e91 b9bb
00000070: a5cd 913b a01d 553a 144e e2ba c277 3a3a
-0.0015868633 -0.0020192163 -0.003580864 -0.004696729 0.0008678702 -0.002286118 0.0019216564 -0.0016524255
-0.00036395414 -0.0005146602 0.00063854735 -0.005140619 5.4215052e-05 -0.0032627592 -0.00588835 0.00058105035
-0.00079733616 -0.0023400397 -0.0042356076 -0.0033731966 0.0009336814 -0.002289784 -0.0013055364 -0.00096910336
-0.0012986576 0.00040350118 1.601432e-05 -0.0056630587 0.0044495636 0.00081297196 -0.0017265701 0.0007113182

cnn.conv_layer.2.adn.N.running_mean f4 [32]
00000000: cece 05bf 5947 1d3f 88f0 cbbe d185 4b3f
00000010: 0ead 423d c75d a03e 0754 b83d 2330 4ebd
00000020: c038 a8bd 4268 943e 20cc 11bf 136e 5fbe
00000030: 77fa ce3d ace0 d13e ab89 30be a1d4 023e
00000040: 2935 8ebe da49 d6bd a9f9 9fbe c2f9 893e
00000050: 9111 323f ddc0 07bf aa7f 51be 971f 24be
00000060: 636f cfbd 5dcc c23e 311f 2ebe c1b2 b8be
00000070: 970d 923e 8c0f 34be d59a 313e 5b36 993d
-0.52268684 0.6143699 -0.39831948 0.7950106 0.04752832 0.31321546 0.09000402 -0.050338876
-0.08213949 0.28985792 -0.56952095 -0.21819334 0.10106366 0.40991724 -0.17240016 0.12776424
-0.27774933 -0.10463305 -0.31245163 0.26948363 0.69558054 -0.5302866 -0.20458856 -0.16027676
-0.10128667 0.38046542 -0.17004086 -0.36073878 0.28525993 -0.17584056 0.1734422 0.074810706

cnn.conv_layer.2.adn.N.running_var f4 [32]
00000000: dcad 443e b4ed e33e bc2b b13e 158a 0e3f
00000010: b442 083e 9f6d 8b3e 0880 633e 9a04 e53d
00000020: 35f2 db3d 40fb 5c3e e61a 443e 5e83 953e
00000030: 3e45 fa3d 14ec e43e 059f b63e 32a1 283e
00000040: ebaf 353e e6e6 fa3d 56b2 9d3e dd03 8a3e
00000050: 7d92 7c3f ba07 ad3e 0d5f db3e 9aa5 113e
00000060: 8481 473e 6146 b23e da09 0d3e 651c b23e
00000070: c548 1a3e 14f1 df3d af95 523e 6319 303e
0.19206947 0.4451729 0.3460368 0.55679446 0.13306695 0.27232072 0.22216809 0.11182518
0.10739557 0.2158022 0.19150886 0.29201788 0.12220238 0.44711363 0.35668197 0.16467741
0.17742889 0.12251072 0.30800122 0.26956072 0.98661023 0.33794957 0.42845955 0.14223328
0.19483 0.3481932 0.1377329 0.34787288 0.15066822 0.10934654 0.20564912 0.17197184

cnn.conv_layer.3.conv.weight f4 [64, 32, 2, 2, 2]
00000000: 721e ba3a cbf0 93bc c7a3 0f3d 88ef 2bbc
00000010: c3a4 0939 c0f4 f7bb e812 143d 335e 1abd
00000020: 3385 493c 29b4 a23c 292c 453d 788f 643d
00000030: dfa2 253d 8bd0 5c3d ab22 d1bc 342a 52bd
00000040: c774 60bd 19e8 fd3c 2175 42bc 5ddb 3c3d
00000050: 2de6 503d 0020 56bd 1a4f 183c 3bf4 853d
00000060: c601 efbc 6b1e 01bd 3e6d a03c 7b19 11bb
00000070: 9ad0 8d3c 61ad 663c d7f1 18bc 6637 5c3d
00000080: 930e 6bbd 2573 0ebd 6a0e 563d 167d 90bc
00000090: f94e b3bc 4a4b 843d 64ce 6a3d a18d ee3c
000000a0: a1ab 68bd 461a 363d 5a6f 933c 00f0 353c
000000b0: a5bb 3c3d 0154 0abd 76e8 54bd 371a 323d
000000c0: b627 ae3b 3be7 f53b de22 4d3d 736c 01bd
000000d0: 5fc0 b1bc 9d97 b0bb 85c5 2fbd 9013 843d
000000e0: 7df9 1b3d beaf 213c 750f 36bc cd80 cabc
000000f0: 5005 593c 0a58 cd3c 637a 313d 6ab7 f73c
00000100: d776 213d 793a de3b 7f2c 85bd 2fde 12bd
00000110: f2a8 523d 6f39 ac3c 9e72 db3c 75ac 473d
00000120: 7745 60bd 80e4 adbc 5665 ed3c 9bbf 403d
00000130: a41f 453c 2d15 5c3d 5379 dbbc ac07 763d
00000140: 3bbe 733c 2e31 293d 52f1 2a3c 361f 80bd
00000150: bbd7 cb3c d49a d73c f6b2 7cbc b02f 853d
00000160: 0cb1 aebb e35a 32bd 625d c4bc 120b 59bd
00000170: c853 31bd 5b29 013d 8ee3 90bb 53d1 5f3d
00000180: ae4e 803c f171 22bd 7243 9abc 546a 7c3c
00000190: 3e72 2dbc 27a7 cbbc 2766 5fbd e8ee ba3c
000001a0: fc7e adbc 927b 6cbd 0119 d73c 9d38 823d
000001b0: 4236 ccbc e196 a1bc 8189 b23c 7581 46bc
000001c0: d887 71bd 332f 553d f8b4 68bd 50e0 6a3c
000001d0: 3e2f 9abb 7bd1 b83c abbe 4d3d 4dd0 d3bc
000001e0: 8f84 073c e186 473d 0f63 dcbb 786f 80bc
000001f0: 2e21 363d 21cd 5b3b 7b96 abbc e786 1abd
00000200: c22a 563d 4a18 663d 8538 d03c 47fc 4ebd
00000210: baed 3f3d cccb 49bc fda3 0a3c c508 9d3c
00000220: fd7e 29bc c079 ba3c 68ce bf3c a53a 03bc
00000230: 4349 cb3c 3317 3dbd 260b 883c 7bac b23b
00000240: 4043 1cbd 3e4f 8ebb eb25 003d 9f36 b4bb
00000250: 95ac cc3c 5bf2 17bd d597 69bd 4aed 1c3d
00000260: 9b98 5a3d 1afe 773d 2fcb 3a3d 9a60 d8bb
00000270: 7c5a c1bc 5127 f0bc 9d02 5e3b 484f 61bd
00000280: 3206 673d c87a 103d 85f7 dd3c a434 4fbc
00000290: be53 89bd 183e 1bbc 5118 14bd 30cd e7bc
000002a0: 21d8 d43b 7fdd 403a 31e1 2bbc 9a1b 6c3d
000002b0: abe0 53bd a915 febb 2573 bc3c c4d5 263d
000002c0: 1f18 70bd 60b6 1b3d 310b 20bc 61bd 5fbc
000002d0: 3a97 bd3c bae5 94bc 6a25 43bb 874e 2bbd
000002e0: 143a 21bd 866a a33c ffec c13c 8cf9 f03c
000002f0: 5511 1d3d c492 e23c f377 a93c a955 173d
00000300: f86a f83b 81e6 dfbc 2b38 563d 5c2c 68bd
00000310: 5a2a cfbb 80e1 463d 3e0e 16bd 6a51 04bd
00000320: d781 1ebd 2e0e 843d 470d a9bc 90b6 343d
00000330: 47aa 83bd 7720 4a3d faac 563d 37b0 0e3c
00000340: c674 823c 1b9d 683c 1afc b6bc 79cd 173d
00000350: 798b 393d 3b6d 173c 2d4d 273b 21b4 82bc
00000360: 10cc 27bd 8ee1 90bc c93f 53bd ed72 6d3c
00000370: 3b42 353d 24d0 65bd 919c f63c f142 e0bc
00000380: eff6 07bb bf54 443d 515d 023d c356 2bbd
00000390: b6df 9e3c b3e8 d33c 9bce 05bd 3220 cb3c
000003a0: a0d3 82bd 23b9 a93c 0ab2 693d ef44 e3bc
000003b0: acbe 213d 9d43 033d f78a 9ebc b98c 04bd
000003c0: 830e cdbb a393 20bd cb90 1cbd 7f64 4dbc
000003d0: 9ee4 61bd f79d 92bc 0ca9 633c 529e c2bc
000003e0: b326 303d 5865 21bc 2753 5dbd 1791 bb3c
000003f0: 7e98 5b3d 2cd4 e03c d921 22bd f704 07bd
0.0014199747 -0.018059155 0.0350683 -0.01049412 0.00013126717 -0.0075670183 0.036150843 -0.03768749
0.012299824 0.019861298 0.048137818 0.055800885 0.04043853 0.05390982 -0.025529226 -0.05130978
-0.054798868 0.030994462 -0.011868746 0.04610764 0.051000763 -0.05227661 0.009296203 0.06540724
-0.02917565 -0.03152315 0.01958334 -0.0022140432 0.017311383 0.014079423 -0.009335003 0.05376377
-0.057386946 -0.03477778 0.05225984 -0.01763777 -0.021888243 0.06459673 0.057325736 0.029120268
-0.056804303 0.04445865 0.017997433 0.011104584 0.04607739 -0.03377152 -0.051979505 0.04348203
0.0053147925 0.0075043715 0.05008208 -0.031597566 -0.021698175 -0.0053891675 -0.04291298 0.06449044
0.038079727 0.00986856 -0.011112084 -0.02471962 0.0132458955 0.025066394 0.043329608 0.030238826
0.039419975 0.006781873 -0.065026276 -0.035856422 0.05143065 0.02102348 0.026788052 0.048748452
-0.054753747 -0.021227121 0.028978985 0.04705773 0.0120314695 0.053731132 -0.02679125 0.06006591
0.014876897 0.041306667 0.010433512 -0.06255953 0.024883142 0.026318945 -0.015423527 0.06503236
-0.005331164 -0.043543708 -0.02397031 -0.052989073 -0.04329279 0.03153358 -0.004421658 0.054642987
0.015662517 -0.039659444 -0.018830989 0.01540621 -0.0105863195 -0.024859978 -0.05454078 0.022818998
-0.021178715 -0.057735033 0.02625704 0.063584544 -0.024928216 -0.019725265 0.021794083 -0.012115826
-0.05896744 0.052046966 -0.05681321 0.014335707 -0.0047053387 0.022560826 0.050230663 -0.025856161
0.0082713505 0.048712615 -0.006725676 -0.015678152 0.044465236 0.0033539014 -0.020945778 -0.03772631
0.05228687 0.056175508 0.025417576 -0.05053356 0.046857573 -0.012316655 0.008461949 0.01916922
-0.010345218 0.022763133 0.023413852 -0.008009587 0.024815207 -0.046164703 0.016606878 0.00545269
-0.038150072 -0.0043429425 0.03128616 -0.0054996754 0.024984637 -0.037096363 -0.057029564 0.038312234
0.053368192 0.060545065 0.045603927 -0.0066033127 -0.023602717 -0.029315623 0.003387607 -0.05500725
0.056402393 0.035273343 0.027095566 -0.012646828 -0.06705426 -0.0094752535 -0.036156002 -0.028296083
0.006495491 0.0007357224 -0.0104907015 0.05764351 -0.051727932 -0.007754047 0.023004124 0.040731207
-0.058616754 0.038015723 -0.009768293 -0.013655991 0.0231434 -0.018175948 -0.002977694 -0.041822936
-0.03936203 0.019948255 0.023672579 0.029415868 0.038346607 0.027657874 0.020687079 0.036946926
0.007581111 -0.027331593 0.05229966 -0.05668293 -0.0063221874 0.048554897 -0.036634676 -0.032304205
-0.038698044 0.06448017 -0.020636214 0.044119418 -0.06428962 0.049347367 0.052411057 0.008709005
0.015924823 0.014197613 -0.022337008 0.03706119 0.045299027 0.009242351 0.0025528178 -0.015955033
-0.040966094 -0.017685678 -0.051574502 0.0144927325 0.044252615 -0.0561067 0.030103954 -0.02737567
-0.002074655 0.047932383 0.031827275 -0.04183079 0.019393783 0.025867796 -0.032667737 0.024795625
-0.063880205 0.020718163 0.057054557 -0.027742831 0.03948848 0.032046903 -0.019353373 -0.032360766
-0.0062578334 -0.039203297 -0.038224023 -0.012536167 -0.055149667 -0.01789759 0.013895284 -0.023757134
0.043005656 -0.009850822 -0.05403438 0.022896333 0.053612225 0.027444921 -0.03958306 -0.03296372

cnn.conv_layer.3.conv.bias f4 [64]
00000000: 4cbb 74bc 9ea3 08bd 036d 55bd 725b db3b
00000010: 227e a63c 7105 323d f55d 263d f1f1 21bd
00000020: 415f 2dbb 7c4d ad3c 83f2 853c b858 a2bc
00000030: 0a45 b2bb 7a0f da3c 9153 0e3d ca99 013d
00000040: 3cfe 563c 4f63 16bd 8305 803d 5d6f 7cbb
00000050: d7f4 98bc bca5 6fbd f5a0 02bd 1b95 a9bc
00000060: dfb5 453d 88fa 2bbc fadb d1bc 94f2 7f3d
00000070: 1621 efbb 7754 603d 117c e5bb c00e 69bd
00000080: 39a7 583c 1233 6bbd 9d16 7bbd db6a 39bc
00000090: fb12 ef3c 2dd3 10bd b232 e0bc d162 45bd
000000a0: 36fb c4bc a9ec 383d 9d0d 3bbd 8765 793d
000000b0: 838b fdbb 2ff2 02bb 5304 58bd 70b7 9abc
000000c0: cef6 403d d1c7 8fbc cfc4 d23c 0118 54bd
000000d0: 66e7 28bd 7f7a 243d 44f5 0dbc f397 bf3c
000000e0: 5f25 c03b 90ee 71bd 4095 2f3d 8cc8 4a3d
000000f0: 1949 0dbc 48ca e5bc da09 cebc af0e e9bc
-0.014937233 -0.033359163 -0.052105915 0.0066942507 0.020323817 0.04346222 0.04061695 -0.039537374
-0.002645448 0.021155111 0.01635099 -0.019817695 -0.005440359 0.026618708 0.034747664 0.031640805
0.013122138 -0.0367158 0.06251051 -0.0038518526 -0.018671436 -0.058507666 -0.03189178 -0.020700982
0.04826915 -0.010496743 -0.025617588 0.0624872 -0.0072976453 0.054768052 -0.0070033153 -0.056898832
0.013223463 -0.05742175 -0.061300863 -0.01131698 0.029183855 -0.035357643 -0.027367923 -0.04818994
-0.024045568 0.04514757 -0.04566728 0.06088784 -0.0077375784 -0.0019980778 -0.0527385 -0.018886298
0.04711037 -0.017551335 0.025728611 -0.051780704 -0.041236304 0.040155884 -0.008664433 0.023387885
0.00586383 -0.0590654 0.042866945 0.049507663 -0.008623385 -0.028050557 -0.025151182 -0.028449384

cnn.conv_layer.3.adn.N.weight f4 [64]
00000000: f1d9 803f e9bc 7f3f 99be 803f 2a07 803f
00000010: cf46 803f 0004 803f b886 803f 1dbe 7f3f
00000020: edc3 7f3f 9bc3 803f 4883 7f3f 2663 803f
00000030: 3f86 803f 4a02 803f 5ac6 803f f54a 803f
00000040: d55f 803f 9356 803f 2ed3 7f3f 76bc 7f3f
00000050: 8232 813f e643 7f3f a532 803f d887 7f3f
00000060: 6292 803f c0e8 803f 723d 7f3f 5dc0 7f3f
00000070: d15b 803f d825 803f 580c 803f 0248 803f
00000080: e25e 803f d51b 803f 311e 803f a744 803f
00000090: 1195 803f 9a43 803f c523 803f 3014 803f
000000a0: 0482 7f3f 2332 803f be07 7f3f e6b6 7f3f
000000b0: a770 803f 832b 803f b887 803f 0a15 803f
000000c0: 0081 803f f511 803f 8142 803f 9d62 803f
000000d0: c539 803f 2062 803f fc53 803f 35e6 803f
000000e0: cf32 803f f0c9 803f 604c 7f3f e913 803f
000000f0: 7b99 803f 11e4 803f 892a 803f 256b 803f
1.006651 0.9989763 1.0058166 1.0002186 1.0021609 1.0001221 1.0041113 0.99899465
0.99908334 1.0059694 0.99809694 1.0030258 1.0040969 1.0000699 1.0060532 1.0022875
1.0029246 1.002642 0.9993161 0.99896944 1.0093539 0.9971298 1.0015455 0.99816656
1.0044672 1.007103 0.99703133 0.999029 1.002802 1.0011549 1.0003767 1.0021975
1.0028956 1.0008494 1.0009214 1.0020951 1.0045491 1.002063 1.0010916 1.0006161
0.99807763 1.00153 0.9962119 0.99888456 1.0034379 1.0013279 1.0041418 1.0006421
1.0039368 1.000548 1.0020295 1.0030094 1.001763 1.0029945 1.002563 1.0070254
1.0015506 1.0061626 0.99725914 1.0006076 1.0046839 1.00696 1.0012981 1.0032698

cnn.conv_layer.3.adn.N.bias f4 [64]
00000000: 06ed b03b 8c59 6d3a 1e23 0d3b 6cfe db3a
00000010: 4d12 b83a 0a8e d13a 869a 7b39 f3bd 18ba
00000020: 75ed 22ba fbfc 8c3b f982 a2ba 9ce5 0e3b
00000030: 0406 e8ba c34b 14ba b281 653b 7aa7 1dba
00000040: 2e91 453a 0c78 b53a b270 afba dfd8 20ba
00000050: 6714 af39 2881 61bb 8086 4eba 27c8 fcb9
00000060: d939 223b b544 7aba 4f53 42bb cbbd bcba
00000070: 18b7 c53a ac64 d73a ba3c ffba 1f64 6f3b
00000080: 6448 41ba d3fd 133b 9bcb d3ba 039b bb39
00000090: aae8 fc3a 2ead 7b3a 9a83 c33a a772 4eba
000000a0: a2ec 52bb aae4 843a eb94 7fbb 829f f3ba
000000b0: bb9f f23a 5261 8cbb 22fc 5c3b 7646 deba
000000c0: 7459 33bb e044 823a 7b93 803a b152 c63a
000000d0: 4f14 aeb9 5642 a33a ba5f 91ba b65a 863b
000000e0: f972 fcb9 f2aa 613b 0878 993a 5a46 fd3a
000000f0: dd03 7b3b 4425 ef3a 5eed 3ebb ac0a e63b
0.005399349 0.0009054176 0.0021535824 0.0016784198 0.001404354 0.0015987766 0.0002399479 -0.00058266445
-0.00062151934 0.0043026186 -0.0012398652 0.0021804338 -0.0017701988 -0.00056570413 0.0035019931 -0.00060140307
0.0007536587 0.0013844981 -0.0013385026 -0.0006135832 0.00033393802 -0.0034409259 -0.00078783184 -0.0004821431
0.0024753718 -0.00095469813 -0.0029651707 -0.0014399824 0.0015084473 0.0016433201 -0.0019473054 0.0036528183
-0.0007373153 0.002258171 -0.0016158702 0.00035782912 0.0019295414 0.0009600696 0.001491654 -0.0007875361
-0.0032184501 0.0010138948 -0.0038998674 -0.0018586966 0.0018510738 -0.0042840624 0.0033719619 -0.0016958255
-0.002736655 0.0009938739 0.0009809578 0.0015130845 -0.00033202997 0.0012455683 -0.0011091151 0.004100169
-0.00048150847 0.0034434167 0.0011708746 0.0019323335 0.0038301863 0.0018245359 -0.002913318 0.007020315

cnn.conv_layer.3.adn.N.running_mean f4 [64]
00000000: 9851 e93e aacb 533e c0ca 283e ee86 f1be
00000010: a82d 0d3e 9841 76be 8d62 033e 1a32 2fbf
00000020: e9f5 83be 5429 623e 4a79 93be 6ccf d2bd
00000030: 6f84 35bd 7acc 0ebe 4621 dfbd 5d8e a3be
00000040: fa8b 983d e3c1 a7be 68f8 1f3f aa95 d6bd
00000050: b7d8 5dbd 741a afbe f15d 54be 9f46 2fbf
00000060: 7ed9 c93d b475 94bd dc85 50be 992a 8c3e
00000070: bd9f f8be 2716 1e3e 70b2 1bbd 89be 02be
00000080: b3c2 e9bc 24de 1a3e c6a9 79bd 6d42 7b3d
00000090: e25f d03e dcb8 19be 31e8 173e 65f5 103e
000000a0: a86f c23e 286a 613e 8da6 5c3e 7623 87bd
000000b0: c0c0 073e d3da b23e 947e 263e 555b 123e
000000c0: 83c5 303e b689 01bf b8b1 05bf d24a 133e
000000d0: 8755 833d d2d6 813e 45f0 7e3e 27a4 06bf
000000e0: 8f44 863d 2c71 0a3f 547f 0d3f a133 53bd
000000f0: 3969 ea3e 6153 13be 50bc 233e 5b4f 06bf
0.45570064 0.2068316 0.16483593 -0.47173256 0.13786948 -0.2404846 0.12830563 -0.68435824
-0.25773552 0.22086078 -0.28803474 -0.10293469 -0.04431575 -0.13945189 -0.10895018 -0.31944552
0.074485734 -0.3276511 0.6248841 -0.10477765 -0.054161754 -0.3419987 -0.20738961 -0.68467134
0.098559365 -0.072490126 -0.20363563 0.2737625 -0.4855937 0.15438138 -0.038011968 -0.12767996
-0.028535223 0.15123802 -0.060952924 0.061342645 0.40698153 -0.15011925 0.14834668 0.1415611
0.37975812 0.22013152 0.21547909 -0.065985605 0.13257122 0.34932575 0.16259223 0.14292653
0.17262845 -0.50600755 -0.522243 0.1438401 0.064127974 0.25359207 0.24896343 -0.52594227
0.06556045 0.54078937 0.5527241 -0.05156291 0.45783404 -0.14387275 0.15989804 -0.52464837

cnn.conv_layer.3.adn.N.running_var f4 [64]
00000000: 53ae 933e b355 a13e 1868 7d3e b358 e63e
00000010: 9362 083e 231f 3a3e aea4 043e 5d6a 433f
00000020: f74c 2f3e f379 ee3d 2240 8c3e b47e db3d
00000030: 9db1 7d3e 9c2c 1b3e 72be 1c3e cd30 ce3e
00000040: 0774 003f 087f 8d3e 8829 803e 4e94 263e
00000050: c85e a83d fa38 ed3e efa8 173e 2c4d 0a3f
00000060: a117 f43d e9ff ca3d 6227 213e 9c71 283e
00000070: 7a6d 263e c24e 063e 3857 a43e 951d 623e
00000080: 8163 013e e64f a53e 200f 413e bf29 323e
00000090: 518a 933e 6f3a 473e 6ec4 e63d d4dd aa3d
000000a0: 3377 4f3e 1934 fe3d 4cf3 623e d03e 9a3e
000000b0: b854 313e d159 8b3e 896d 5c3e f3fc 153e
000000c0: 5eed c93d d0a1 843e 66be ac3e 0417 1b3e
000000d0: 5900 183e 3709 923e b6c7 eb3d 1832 b03e
000000e0: e14f 193e 7a13 6b3e 0a6d d33e 8042 bf3e
000000f0: 15d5 8d3e 74e5 df3d 7119 163e 45de f23e
0.28843936 0.31510696 0.2474674 0.44989547 0.13318853 0.1817594 0.12953445 0.7633417
0.17119204 0.11644354 0.2739268 0.10717526 0.24774785 0.15153736 0.15307024 0.40271607
0.50177044 0.2763598 0.25031686 0.16267511 0.08221203 0.46332532 0.14810537 0.54024005
0.11918569 0.09912092 0.1573768 0.16449589 0.162527 0.13115981 0.32097793 0.22081597
0.12635614 0.3228752 0.18853426 0.17398737 0.28816465 0.19455884 0.11267935 0.083430916
0.20260315 0.124122806 0.22163123 0.30126047 0.17317474 0.27216962 0.2152616 0.14647274
0.09859727 0.25904703 0.33739012 0.15145499 0.14843883 0.28522655 0.11512701 0.34413218
0.14971878 0.22956648 0.41294128 0.37355423 0.2770163 0.109324366 0.14658143 0.47435203

gru.gru.weight_ih_l0 f4 [192, 512]
00000000: 5e22 89bd 7fda d73d 6f91 28bc 65ac fd3d
00000010: 0ead a6bd 8366 5d3d 886a a03d 854d d6bc
00000020: f8aa 1a3d 4005 c43d ecc4 3d3d 8878 d0bd
00000030: fe39 893d c0a0 01be 4fc1 31bd 3fc7 a6bb
00000040: eb2c 093d 126f dd3d 92cd 30bd fa1b 7e3d
00000050: 6991 633d 8dfe 523d 2675 803d 8117 8fbd
00000060: 81df 813d e06b 453d d784 e53d 2029 9abd
00000070: 2d95 ad3d 4804 d03d 6ff8 933d 2e78 b43d
00000080: bd64 ec3d 4989 86bd aa93 5b3d 3f4e 61bd
00000090: fbfd 823d 0ff8 f53d 69c3 6d3c a814 d5bc
000000a0: 9e10 e1bd 5d92 d73c 1b09 8ebc 76f8 d13d
000000b0: d5e8 bfbb ab05 9e3d 7cbe ee3c 6860 d63d
000000c0: 6ea4 673c 8519 d2bd 466a bd3d ec37 87bd
000000d0: 4998 c6bc a5a7 2a3d 6c9a 8ebd 3fb6 0fbc
000000e0: 16cb aa3d bfdf 42bd 3c9a 7e3c 642d 053d
000000f0: e86b 893d 7cc0 bd3d f7a0 d43d bafc aebd
00000100: 9927 273d 6892 9d3d f798 873b b093 89bd
00000110: 43d4 da3d 0b43 b53c 0979 1abd 953c ed3d
00000120: 0556 c83d 5101 513c 426b 05bd d4d1 e03d
00000130: dd6f 8b3c f4a0 663d 1c37 9a3d e6bb 2abd
00000140: f1db 1c3d fb58 403d 95f5 95bd 6e4c c6bd
00000150: 5583 bbbd 0a92 953d aa60 a4bd 01dd bfbc
00000160: 317b d2bd 9dcc 9d3d 8cad db3c 3833 b33b
00000170: a990 b7bd c329 e03d 5ea3 ecbd ac85 2bbd
00000180: 772a d83d 662b ee3d 23ed 1c39 dc57 e8bc
00000190: 72f0 81bd 1669 a4bc abd8 95bd 4400 54bd
000001a0: 4685 8bbd 4e70 fb3d 5a73 bb3d e4f0 f53c
000001b0: 11d7 e03d 5cb1 913c 8d71 08bd 5922 d83d
000001c0: 8174 c73c ee0b 973c 7cab be3d c9f9 5c3d
000001d0: 5bef c63d 6eab 8ab9 743e 0bbd e8b3 f03d
000001e0: 53ea a73a d3eb 143d 883c 1fbd 2d98 bebc
000001f0: 8eae e3bd b133 febd f885 cebb a511 da3d
00000200: 828e 593c 46c6 d7bd c6fe 2abd b8be 47bd
00000210: e50c cb3d 8ae5 57bd a6f5 94bd 86ae 23bd
00000220: 840e dd3d db38 3dbd e683 843d 66f2 9c3d
00000230: 8280 e43c 2206 673d 7cb4 82bd 62a1 1f3d
00000240: 7e83 48bd f63d ddbd 31c9 c1bd 8665 e63d
00000250: 023a ffbd 18fd 193d ec0c 94bd e36a 833d
00000260: 5779 0bbd b349 fdbc 5c44 a0ba 1ac9 aebd
00000270: b60e d8bc db5b 903d 7d80 16bd efa2 5dbd
00000280: abd4 843d 6231 3b3d 104b fbbd 48e1 d9bd
00000290: 38fb 933d 522e 993d 949f f8bd c65f 79bd
000002a0: 600f 723c f0b4 a03d a23d b0bc 1761 a1bd
000002b0: 3f88 b33d 1bb8 783d 8c7a 5abd 58ba 933d
000002c0: 3790 ccbd 15a3 cabd f648 87bd 68b5 9b3c
000002d0: 04a8 ff3d b02c e2bb 894b 233c 7466 67bb
000002e0: 49df 1f3d 6b90 633c 1112 f6bd 783e 133c
000002f0: ecfc a03d 9b2a f4bd 3c89 bfbd 3573 a13b
00000300: e862 20b9 ca59 453d 4eff babd 80ec ba3d
00000310: 945f 96bd 9739 23bd ac39 1a3d f577 803d
00000320: 39b1 51bc 9805 ae3c 0214 af3c ec05 df3d
00000330: 77ed ddbd 0c85 203d 32e3 ad3d 2885 d9ba
00000340: c519 cb3a 1e17 0a3d 4b08 513c 6e60 003e
00000350: 073f 703d 4afb fa3d 4518 febb a3df a1bb
00000360: 8f50 e53d 39e9 ccbd 0a22 c03d 0449 ee3d
00000370: 5ea7 193d 96a2 eb3c e7ae 11bd ac06 b93d
00000380: 1b88 b23d de2c b23d 7509 91bd 13f2 d23d
00000390: 6b4d 84bc 9a57 ab3d 1fb5 80bd a16b 853d
000003a0: 9b9c b9bd c861 70bc a9bc f9bd c944 3b3d
000003b0: 42ae bdbd 0d84 3f3d e39d bdbd 2d71 473d
000003c0: e22b 8bbd 059b 8c3d d4ac a1bd 29e0 e13d
000003d0: 5194 873c a2f6 7b3d 4c9e d63d a061 afbd
000003e0: 2228 8e3d c59f bd3d 7abd e1bc 8f04 4bbd
000003f0: b3a8 51bd d4d1 ab3d 548c ef3b 5c3f ac3c
-0.06696008 0.10539722 -0.01028858 0.12386397 -0.08138476 0.05405284 0.07832819 -0.026160011
0.037760705 0.09571314 0.046330377 -0.101792395 0.06700514 -0.12658978 -0.043397244 -0.00508967
0.033490103 0.108122006 -0.043164797 0.0620384 0.055558596 0.05151229 0.06272344 -0.06986905
0.06341458 0.04819858 0.11206978 -0.07527375 0.08475719 0.101570666 0.07225119 0.08811985
0.11542652 -0.06569154 0.05360762 -0.055006262 0.06396099 0.12010204 0.014511921 -0.026010826
-0.109894976 0.026314909 -0.017338326 0.10252468 -0.005856613 0.07715925 0.029143564 0.10467607
0.014138324 -0.10258774 0.09248786 -0.06602463 -0.024242537 0.041663785 -0.069630474 -0.008771478
0.08339517 -0.047576662 0.015539702 0.03251399 0.067100346 0.09265229 0.10382264 -0.085442975
0.040809248 0.076939404 0.004138108 -0.06717622 0.10685017 0.022126695 -0.037713084 0.11583821
0.09782032 0.0127566615 -0.032572992 0.109775215 0.017021114 0.05630584 0.075300425 -0.0416831
0.03829569 0.04695986 -0.07322232 -0.096825466 -0.09155909 0.07303245 -0.0802625 -0.023420813
-0.10277403 0.077050425 0.026816152 0.0054687522 -0.089631386 0.109454654 -0.11554597 -0.041875526
0.105549745 0.11629371 0.0001496566 -0.028362207 -0.063446894 -0.02006964 -0.07316717 -0.051758066
-0.06812529 0.1227728 0.09152861 0.030022092 0.10978521 0.017784767 -0.033311415 0.10553426
0.024347546 0.018438306 0.09310052 0.05394915 0.09713622 -0.00026449136 -0.033995107 0.117530644
0.0012810923 0.036357712 -0.038876086 -0.023265922 -0.11117278 -0.12412203 -0.0063025914 0.10647897
0.013278605 -0.105358645 -0.041746877 -0.048765868 0.09914569 -0.05270914 -0.07273416 -0.03996136
0.10793784 -0.0461968 0.0647047 0.07663421 0.027893309 0.056402333 -0.06382081 0.038972266
-0.048953526 -0.10802834 -0.09462202 0.11249833 -0.12462236 0.037594885 -0.07229027 0.064168714
-0.034051266 -0.030918932 -0.0012227404 -0.08534451 -0.026374202 0.0704877 -0.03674363 -0.054110464
0.06485876 0.045701392 -0.122701764 -0.10638672 0.072256505 0.07479538 -0.12139812 -0.060882352
0.0147741735 0.07847011 -0.021513764 -0.078798465 0.08766221 0.06072245 -0.053339526 0.072132766
-0.09988444 -0.09894387 -0.06605713 0.0190074 0.12483218 -0.0069023 0.009966739 -0.003530887
0.0390313 0.013889412 -0.12015165 0.008987062 0.07860741 -0.11922189 -0.09352347 0.004927064
-0.00015295635 0.048181333 -0.09130727 0.0912714 -0.07342449 -0.039849844 0.037652656 0.0627288
-0.012798601 0.021242902 0.021371845 0.108898014 -0.108363084 0.039189383 0.084906 -0.001659547
0.0015495351 0.033713453 0.012758325 0.12536785 0.058653858 0.12254961 -0.007754358 -0.0049399897
0.11197006 -0.10005421 0.093814924 0.116350204 0.03751313 0.02876405 -0.03556719 0.09034476
0.08717366 0.08699964 -0.07081882 0.10300078 -0.016150197 0.08366318 -0.06284546 0.06514669
-0.09063073 -0.01467175 -0.12194187 0.045719896 -0.09261753 0.046756793 -0.0925863 0.048691917
-0.06795479 0.06865505 -0.078942925 0.11029083 0.016550215 0.061514504 0.104794115 -0.08563542
0.069412485 0.09258989 -0.02755617 -0.049564894 -0.051186275 0.08389631 0.0073104296 0.021026306

gru.gru.weight_hh_l0 f4 [192, 64]
00000000: 70f5 713d 9a5f e5bd 5098 ba3c 80e4 d0bc
00000010: 603d f2bd bea3 82bd 942d efbd 80df acbb
00000020: 9441 3dbd 001b ab3c 60bb 31bc a64b cabd
00000030: 102d 9d3d b605 cdbd 1a59 833d 60a2 a6bb
00000040: 7842 1ebd 021e c03d 7087 e2bd 6443 13bd
00000050: 0094 bbba 005c b9bb 345e 75bd b4a1 d9bd
00000060: 607c 473c 728e 8a3d 28ec d4bc 9c94 773d
00000070: 60a2 b53b a6d1 dd3d 5c9d 7a3d 3095 eb3c
00000080: 50bb 82bc 12c9 9ebd d0c8 cc3c 8c2c 643d
00000090: 7a6c cebd 1804 77bd 646d 17bd 405b 9fbb
000000a0: 285c d5bd b440 d63d 6602 ddbd 5eb5 b5bd
000000b0: e864 2d3d 6e44 a1bd dc49 123d a86b 2f3d
000000c0: 709e a6bc a07d d1bb c071 523d f4ab 3ebd
000000d0: a0f8 a1bd 3084 2cbd 6874 acbc 2006 dabd
000000e0: ccb9 7ebd 6093 623d 4024 e2bb d89a 673d
000000f0: dc7b b3bd 98af 803c 74a9 333d 40d2 de3b
00000100: a0a9 9bbb 2c3a d8bd c0f3 ee3d a061 4c3c
00000110: 2c38 34bd 18a9 78bd 5834 583d 20c2 b03d
00000120: 8cbe 6b3d aa17 e6bd 7ca4 9d3d cc43 58bd
00000130: fade f9bd 4071 4a3d 185e 393d f654 853d
00000140: 824f abbd 22fa e73d 76a0 96bd c494 e03d
00000150: 701a c53c 204c e53b 984b f1bd f8a4 dd3d
00000160: e0ca acbc a0df f03b d0db 9c3d 9c6c a1bd
00000170: e070 17bc c860 e5bc 1a4a 9abd ccf8 6fbd
00000180: f431 a43d 5005 a63d d8b6 95bc 34d7 4abd
00000190: 809b 85bb 10f8 203c 7020 61bd a089 ebbd
000001a0: 2eab d1bd 26fa b33d 2e42 99bd 303f 923c
000001b0: 504c 0ebc 9e69 b2bd 900e fd3c 70a4 253d
000001c0: c497 103d e617 a53d 4e5d f7bd 14a4 6a3d
000001d0: ccb8 d63d becb b0bd a888 3dbd c2b8 ec3d
000001e0: 0026 4e3d 86df b63d 78b4 cd3c e851 88bd
000001f0: becf aabd 9c3b 7cbd 3ef1 b23d c864 fbbc
00000200: 3e49 e73d c099 6c3d 7895 72bd 72fb f9bd
00000210: 80c2 a13d c017 bbbc 7a03 bdbd 00c0 42bc
00000220: 3265 bbbd e6df e53d 18e7 c73d 4e4c c63d
00000230: 0013 2d3b a022 3dbd f0c3 dfbd 9cc3 ff3d
00000240: 0467 1d3d eef7 883d a095 c8bc d02f ed3c
00000250: b6d3 a2bd 8056 b7bb f042 3e3c b837 dfbd
00000260: b6a9 87bd ac1c e83d c022 653d 385c ea3c
00000270: 5c9d 06bd 94a8 82bd a4af 353d 7669 ee3d
00000280: 346f b93d b40b 62bd bad7 bdbd 7607 f4bd
00000290: 521d ea3d 8c7a e33d e236 f9bd d408 693d
000002a0: a2ba ad3d 58f6 b6bd 609b 0f3c 062b eebd
000002b0: 2e35 873d 00e2 053a 247b a33d 3629 dabd
000002c0: 323a e53d 3c03 233d a444 e63d 0a50 a8bd
000002d0: 969f c4bd 3076 aebc 7089 c93d 5855 b0bc
000002e0: f8ad e13d 78de b5bc 52db 8ebd b468 7dbd
000002f0: a0cc dfbb a21a e8bd 38ce a43d 4432 53bd
00000300: 3ceb fb3d b272 f63d 4601 873d 8082 793b
00000310: 4013 dcbb 68c3 f23d c013 fabd c2b2 aa3d
00000320: b00a 5ebd b611 c6bd 0c41 2d3d 30bb 58bc
00000330: 6a15 b63d 4069 ae3d ce4f a8bd fe10 f9bd
00000340: e09f 13bc e08c 44bd 3cc2 0a3d 0ede a2bd
00000350: 4001 59bb e068 f73d 1e7a 963d 2ee1 c73d
00000360: 6c9e 323d e068 f93c b2e7 a4bd 0491 3ebd
00000370: 002b ff3a f01d 18bc f821 cc3c 2613 d93d
00000380: 98de f4bc d04f 9cbc a229 9abd c0ee 593c
00000390: 3a9f bc3d 6005 fb3c 5c69 8b3d 6e7d 863d
000003a0: 2451 bfbd aac2 fbbd 8a4b c83d 0079 d1bb
000003b0: fcfe 2ebd c06a 78bc 707e 953c eecb e0bd
000003c0: f888 81bc 388f ab3c 6011 043c 005a 8939
000003d0: 2032 523d b891 4f3d 5857 b5bd 986e a23d
000003e0: 201e 92bd 2461 e6bd 0c98 ecbd f826 8cbd
000003f0: d098 12bd fc1a 7dbd c022 6bbd 6435 9fbd
0.059071958 -0.11199875 0.022777706 -0.025499582 -0.118281126 -0.063788876 -0.11678615 -0.0052756667
-0.04620512 0.020886898 -0.010847896 -0.0987771 0.076746106 -0.10010855 0.06413479 -0.0050852746
-0.03863761 0.093807235 -0.11060989 -0.03595294 -0.0014311075 -0.005656719 -0.059904292 -0.106265455
0.012175649 0.067654505 -0.025991514 0.06044446 0.0055430382 0.10831003 0.061185226 0.028757662
-0.015958458 -0.07753195 0.024998099 0.055706546 -0.10079284 -0.06030664 -0.036969557 -0.004863173
-0.10417968 0.1046156 -0.10791473 -0.08872484 0.04233256 -0.0787438 0.03571497 0.04282728
-0.02033922 -0.0063931495 0.05137801 -0.046550706 -0.079087496 -0.04211825 -0.0210516 -0.106456995
-0.06218891 0.05531633 -0.006901294 0.056544155 -0.08763859 0.01570873 0.043862775 0.006799966
-0.0047504455 -0.105579704 0.116675854 0.0124744475 -0.043998882 -0.060708135 0.052784294 0.086307764
0.057554767 -0.11234982 0.076973885 -0.05279903 -0.122007325 0.04942441 0.04525575 0.06510346
-0.08364774 0.11327006 -0.07354824 0.10965875 0.024060458 0.0069976 -0.117819965 0.10822481
-0.021092832 0.007350877 0.076591134 -0.07882044 -0.00924322 -0.02800025 -0.07533665 -0.05858688
0.0801734 0.08106482 -0.018275663 -0.04952164 -0.004077375 0.009824768 -0.054962575 -0.11500859
-0.10237728 0.087879464 -0.07483326 0.017852396 -0.0086851865 -0.08711551 0.030890733 0.040440023
0.035300985 0.08061199 -0.12078343 0.057285383 0.10484466 -0.08632611 -0.046272904 0.11558677
0.05032921 0.089293525 0.025110468 -0.066562474 -0.08340405 -0.061580285 0.087374195 -0.030687705
0.11293267 0.057763815 -0.059224576 -0.122061625 0.07898426 -0.022838473 -0.09229179 -0.011886597
-0.09150161 0.11224346 0.097608745 0.09682523 0.002640903 -0.0461756 -0.10926044 0.124884814
0.03842832 0.06687914 -0.02448541 0.028953463 -0.07950537 -0.0055950284 0.011612639 -0.108992994
-0.06624167 0.11333594 0.055941343 0.028608426 -0.032864913 -0.0637981 0.044356957 0.11641209
0.090544134 -0.055186942 -0.09269662 -0.119154856 0.11431374 0.11107358 -0.12168671 0.056893185
0.08482863 -0.08933705 0.008765072 -0.116293 0.0660194 0.0005107224 0.079824716 -0.106523916
0.111927405 0.039798006 0.11243561 -0.08218391 -0.09600751 -0.02129659 0.09840667 -0.02152507
0.1101951 -0.022200808 -0.06975426 -0.06186743 -0.006829813 -0.11333205 0.080471456 -0.05156161
0.12300727 0.12033595 0.0659204 0.0038072169 -0.006716162 0.11853677 -0.12210798 0.083348766
-0.05420941 -0.09671347 0.04229836 -0.013228223 0.08890803 0.085161686 -0.082183465 -0.12161444
-0.009010285 -0.04798591 0.033876643 -0.0795251 -0.0033112317 0.1208055 0.07347511 0.097597465
0.043608114 0.030445516 -0.08052005 -0.046525016 0.0019467771 -0.009284481 0.024918541 0.105993554
-0.029891297 -0.019081026 -0.07527472 0.013301551 0.092100576 0.030642211 0.06807205 0.065668926
-0.09341648 -0.122929886 0.09780033 -0.006392598 -0.04272364 -0.01516217 0.018248767 -0.109763965
-0.015812382 0.020942315 0.008060783 0.00026197731 0.051317334 0.050676078 -0.0885455 0.0793125
-0.07134652 -0.11248997 -0.11552438 -0.0684337 -0.035790265 -0.061793312 -0.057406187 -0.07773855
